model/model.tflite (tflite, 195632 bytes, 6 tensors)

arith.constant f4 [3, 32]
00000000: b58e cb3e ca4d 383e 54d7 013e 4354 38be
00000010: e489 d03e 7f9a 853e 08e6 8d3e d5a9 c4be
00000020: 0f5c 8a3e d007 e83d c35e 8fbe bda1 eabd
00000030: ee37 1abe 19a8 b43e 34b5 8d3e f094 073e
00000040: b677 ccbe f1dc 2bbe aa2a b33e a15f cfbe
00000050: 8442 773e 3297 84be 3a19 a73e b411 96bc
00000060: 3221 823e 6895 f33d a6e2 473e 29be b6bc
00000070: 2225 4e3e 0e9a 28bd f935 493e 9ece 89bd
00000080: 9cc6 87be cb73 3d3e 1f30 0f3c 5b37 abbe
00000090: 67de 883d a22f 3d3e 2f9f a3be 1a12 18bd
000000a0: 421b c4bd 29ed 82be 2cb6 c03e c18f 5f3d
000000b0: 25af 033d f429 203d 71c0 d53d 4ab5 31be
000000c0: 1208 d23e 5d07 dbbd 9ef4 4dbe dff8 8bbe
000000d0: 09ab 363e 1433 0a3c ffcd cabe b164 86be
000000e0: 23c0 143e 9fcd e03d 19a2 b33e f982 3ebd
000000f0: 8c5f d93c caf0 52bc 3e3a 3a3d 48ef 62bd
00000100: 39f4 cdbe 6ee5 70be ecc4 513e 1f8c 4b3d
00000110: 05d5 d4be c406 c7bd a967 633e 8ef4 a5be
00000120: 708a cfbc 0e2d 8f3e c8e3 9bbe 305a a6be
00000130: 86eb 803d edae f63d 3502 1ebe 1c83 be3e
00000140: 9ced 9e3e fa93 dc3d 856c 1cbd 271f 7fbe
00000150: a8de bf3b 5f7b 9bbe 8c91 383d ec69 9dbd
00000160: 387d ac3e b01e a33e 76e0 7c3e 8745 19be
00000170: ee82 febd 1be6 4fbe 032c 853e 8ec2 0f3e
0.39757314 0.17998424 0.12679797 -0.18000893 0.40730202 0.26094434 0.27714562 -0.38410822
0.2702336 0.11329615 -0.28001985 -0.114566304 -0.15060398 0.35284498 0.2767731 0.13240409
-0.39935082 -0.16783501 0.34993488 -0.40502647 0.24146467 -0.25896603 0.32636434 -0.018318988
0.2541595 0.11893731 0.19520053 -0.022307472 0.20131353 -0.041162543 0.19649495 -0.06728862
-0.26518714 0.18501203 0.0087395 -0.3344067 0.06683045 0.18475202 -0.31957385 -0.037126638
-0.095755115 -0.25571564 0.37638986 0.054580454 0.032149453 0.03910251 0.10437096 -0.17354313
0.41021782 -0.10694764 -0.20112845 -0.2733831 0.17838682 0.00843503 -0.39610288 -0.26248696
0.1452642 0.10976719 0.35084608 -0.046511624 0.026534818 -0.012874791 0.0454657 -0.055403978
-0.4022539 -0.2352502 0.20485276 0.049694177 -0.4156877 -0.09718087 0.22207512 -0.32413143
-0.025334567 0.27964061 -0.3044722 -0.32490683 0.062949225 0.12045083 -0.1543053 0.37209404
0.31040657 0.10770412 -0.03818943 -0.24914227 0.0058554 -0.30367562 0.04506068 -0.076862186
0.33689284 0.3185935 0.24695 -0.14967929 -0.124273166 -0.20302622 0.2601014 0.1403906

arith.constant1 f4 [32, 64]
00000000: f196 a6bd 6a87 ff3c dd23 a9bd 4701 6b3e
00000010: 0762 1ebe d3a5 413e ed0f 24bd 22d1 c2bc
00000020: 6777 493e cfe9 4ebe 37c7 683e 37df 99bd
00000030: 6386 37be c907 33be 08a5 503e e5a2 5e3e
00000040: 8b19 58be cfc4 50bc 9d80 c23d b9c0 f9bd
00000050: 3ca8 933c 6815 d93d 4384 8fbd e63e f93b
00000060: 541b 6abd a677 8abd 82aa bebd b3e8 3fbe
00000070: b5ab 473e e6a9 dc3d 3c89 a23d 0964 13be
00000080: 6fb0 053e c931 103e 8486 4c3e 114b c3bd
00000090: 0884 cc3d 29a7 1abe e05b 1f3d 4999 53bd
000000a0: cb28 75be ac59 bc3d 5635 923d eee5 ac3a
000000b0: 7e78 44be 5608 50be 34e8 30be b406 5d3e
000000c0: 510a d53c af16 77be c619 783e 132a 05be
000000d0: c580 82bc d5d7 443e 1abd f73d f946 89bb
000000e0: 5171 01be 8c09 afbd efc0 02be a5b8 d43d
000000f0: 2463 ecbd e4b1 57be b3b7 ac3d cc63 38be
00000100: 0d3c a2bc 960c 983d 724d d13c a0e7 4b3c
00000110: cf8f 403e aaac 0abd d7fc 44be 11a8 773e
00000120: ce29 98bd 08b2 de3c e36e 813e 1029 c63d
00000130: 3e13 c4bd 6ea0 1fbe f840 1f3c 643e 60bd
00000140: 2758 4bbe ad38 853d 4243 ac3d a99d 843d
00000150: e762 dd3d 8c26 28bd 189f 54bd 2a2c 03be
00000160: 430c b5bd e169 0abe 95b9 6abe 591c ac3d
00000170: 845d 75be 8eed 253e 851a e83d 7b3b 763e
00000180: 5792 36be 936c 40bc 1343 643e 0f23 9e3d
00000190: ba15 9e3c 05ef e4bd b9de 54be 3fda 5d3d
000001a0: 0a83 4d3d df9e 70bc 5632 703e d149 2dbe
000001b0: 5ad4 cdbd e86e 70be 854b a8bd 17c9 5dba
000001c0: 77eb 113e 88f1 57be fe40 17be 5bce 48be
000001d0: 62dc 5c3e b4e0 713e ab03 68be 87db 95bd
000001e0: b964 62be b0ce 40be 89ef 4e3e 7fa0 50bd
000001f0: 8476 60be 3f34 b23d 7f7b 7bbd af6d 823e
00000200: eccb 7abe 558d 81be 1c82 a6bd fce0 5abd
00000210: 883a 603e f687 55be 2201 973d e33c 063e
00000220: 2051 84bd d3da 453e 6359 4abd 1016 183d
00000230: 1b73 f8bd d6ef fbbd 6a02 39be 1267 6cbe
00000240: e033 0cbe 8f79 62be c0e5 193e 084d 2b3d
00000250: ac93 ab3c b09c 28bd 06c4 d33c b645 1f3e
00000260: f735 d33d 8ac0 213e 38b0 ac3d 98ca 683e
00000270: 930f 60bc 6e4e 573e 966c 7abd ab03 31be
00000280: 1928 ddbd 68d4 8bbc 8b88 c63d 1322 4abe
00000290: 79f3 d2bd 63d5 673d 865a 40be 655d febd
000002a0: aa2d a3bd 2e90 47be cb5b 983d 0025 30bd
000002b0: 36c9 0f3e c9a5 273e f23b 843d abd8 6fbe
000002c0: 9a91 35be 2153 08be 6d43 82be 845d f23d
000002d0: 864f ff3d d33a 60be dd74 ca3d 8772 cf3d
000002e0: 4594 523e c869 223e 2377 3abe 84ce 2fbe
000002f0: 4eb8 783e d739 74bd f0da 0dbd 7caf 593e
00000300: 8b24 8f3d cd6d d9bd 4f0d 17be 3e6f e6bd
00000310: cd5e 3d3c 7d85 313d dc96 3bbd 3429 ba3d
00000320: 6b75 373e c58f 603e b283 523e 308e 2d3e
00000330: 0fd7 1b3e 0cb3 f1bd decf 5f3e cf1d 483e
00000340: f7b7 1f3d 6d25 593e 9a90 673e dc73 3d3b
00000350: 6ad8 4f3d cba3 573e fd1e 123e 4cab 2ebe
00000360: 26b4 42be 61ba c83d f950 8e3d 79c1 a3bd
00000370: 4895 8fbb 241d 72bd 81a7 2b3e 442e 9b3d
00000380: 3a9a 5c3e 4660 203e 71d8 2e3c b074 633e
00000390: e977 923d 6902 39be 5cac 7a3c d97b 3c3e
000003a0: f747 41be ab1a 79be fdec f53d 3c55 4c3e
000003b0: 5b4d 62be 18f0 ac3d 2670 8b3d 466f 363e
000003c0: 71e6 e03c a38c fc3d 63fc 0a3e 2056 18be
000003d0: 8d4b 1cbe a11b 14bd 37d5 c7bd c74f 46be
000003e0: 1652 a13d 805a 623e a99c d7bd 8ef4 223e
000003f0: 9ffa 5b3b f6df 463d 0541 1a3e 04bc 103e
-0.081342585 0.0311925 -0.082587935 0.22949706 -0.15467082 0.18910913 -0.04005425 -0.023781363
0.19674455 -0.20206378 0.22732244 -0.07513278 -0.17922358 -0.17483439 0.20375454 0.21741827
-0.21103494 -0.012742235 0.09497187 -0.12194962 0.018024556 0.10599786 -0.07007649 0.007606375
-0.05715497 -0.067611024 -0.093098655 -0.18741111 0.19499095 0.10774593 0.07936332 -0.14393629
0.13055585 0.14081492 0.19973189 -0.09535802 0.099861205 -0.15102829 0.03890598 -0.051659856
-0.23941343 0.09196791 0.07139079 0.0013191083 -0.19186589 -0.2031568 -0.17276078 0.21584588
0.026005896 -0.24129747 0.24228582 -0.13004331 -0.015930543 0.19222958 0.12096615 -0.004189369
-0.12640883 -0.08546743 -0.12768911 0.10386781 -0.11542347 -0.21063954 0.08433475 -0.1800682
-0.019804025 0.074242756 0.025549624 0.01244536 0.18804859 -0.03385607 -0.19237076 0.24185206
-0.074298486 0.027184501 0.25279912 0.09675801 -0.09573983 -0.15588543 0.00972008 -0.054747
-0.19857846 0.06504951 0.08411266 0.06475384 0.1080988 -0.041052386 -0.051909536 -0.12809816
-0.08840229 -0.13516952 -0.22922356 0.084038444 -0.23961455 0.16203901 0.11333183 0.24046127
-0.17829262 -0.011744636 0.22291212 0.07721531 0.01929747 -0.11178402 -0.20788087 0.054163214
0.050173797 -0.014686315 0.23456702 -0.1692269 -0.100502685 -0.23479807 -0.08217529 -0.00084604457
0.14249979 -0.2108823 -0.14770886 -0.19609968 0.21568444 0.23620874 -0.22657649 -0.07317262
-0.22108735 -0.18828845 0.20208563 -0.05093431 -0.2192021 0.087013714 -0.061397072 0.25474307
-0.24491853 -0.2530314 -0.08130285 -0.053437218 0.21897328 -0.20852646 0.07373263 0.13109164
-0.06460786 0.19321756 -0.049401652 0.037130415 -0.121313296 -0.123016044 -0.18067327 -0.23086193
-0.13691664 -0.22116683 0.15029049 0.04182151 0.020944439 -0.041165054 0.025850307 0.15553936
0.10313027 0.15796104 0.084320486 0.22733533 -0.013675588 0.21026012 -0.061138712 -0.17286555
-0.10798664 -0.017069057 0.09694012 -0.19739561 -0.10300345 0.056599986 -0.18784532 -0.12420157
-0.07967694 -0.19488594 0.07439383 -0.043004036 0.140416 0.16371836 0.06456746 -0.23422496
-0.17731324 -0.13312961 -0.25442067 0.11834243 0.1246634 -0.2189744 0.09885571 0.10129266
0.20564373 0.15860665 -0.1820951 -0.17168623 0.24289057 -0.059625473 -0.034632623 0.21258348
0.06989392 -0.10616646 -0.1475117 -0.112516865 0.011558247 0.043340195 -0.045798168 0.0908989
0.17915885 0.21929844 0.2055805 0.16948771 0.15218757 -0.118017286 0.21856639 0.19542621
0.038993802 0.21205683 0.22613755 0.002890817 0.050743498 0.21058576 0.14269634 -0.17057532
-0.19014034 0.09801174 0.06949038 -0.07995886 -0.0043818094 -0.059109822 0.16763116 0.07577184
0.21543208 0.15661725 0.010671721 0.22212481 0.07151777 -0.18067326 0.015299883 0.18406619
-0.18875109 -0.2432658 0.120080926 0.1995439 -0.22099821 0.08444232 0.068085 0.17815885
0.027453633 0.12331512 0.1357284 -0.14876604 -0.15263195 -0.03615916 -0.097574644 -0.1936637
0.07876985 0.22104836 -0.105279274 0.15913603 0.003356613 0.04855343 0.15063865 0.14134222

arith.constant2 f4 [64, 720]
00000000: b8c0 713d 3d36 fdbb 1881 52bd 794f 3e3d
00000010: b487 5a3d 7791 25bd 76de 033d df01 c43c
00000020: ef5f 5dbd 6888 3b3c c29e cf3c c400 d9bc
00000030: 8ed8 003d db1e 83bc 9a62 713d f572 2ebd
00000040: df7d e8bb c1d5 acbc 9ca2 efbc 355e 18bc
00000050: 59fa 0e3d d3d5 96bc a28f 8cbc 347b 8ebc
00000060: ec73 743d 7a2d a23d a430 3c3b a7f3 21bd
00000070: 5eda 4b3d b378 97bd 930c bd3c c922 9cbd
00000080: 3172 74bd 52f5 23b9 9102 d1bc 792c 943d
00000090: b43d 32bc 3f31 20bb 8d0b 023d f29b c43c
000000a0: e0bb 1a3c 94d1 823a 18ee 8bbd 52cf ad3d
000000b0: 71ca 953d d49f 82bd 7d6a 87bc 0be2 b6bd
000000c0: 270e fa3c 4d0a 933d 07b6 7e3d 751a 83bc
000000d0: 4410 033d a888 5b3d 15d6 763d 5950 ac3d
000000e0: 7a74 b23d d3e9 353d c8a5 833d 6d95 8abd
000000f0: ef6a 913d cfce 8bbd 1bbc 413d 2cb1 9abc
00000100: 8d25 49bd 9c44 743d 1f62 1fbd ad70 113d
00000110: 4061 01bd 2ee7 07bd cb98 b63c 176c 38bd
00000120: aa4e 283d 6569 21bc 2416 833d b0f8 2bbd
00000130: b64c 0abd d68c 6cbd 9100 893d 5fe9 c33c
00000140: 2970 ce3d eb95 ffbb 3b65 b7bc a628 883c
00000150: 2eb6 8abc 1b56 64bd dfc4 81bd 2122 83bd
00000160: 19c1 ac3d a936 c0bb da8f eebc 0eb7 24bd
00000170: 7a1a 373d f036 113c 9bb1 aabd 4fcd 783d
00000180: 6482 cb3c 976f 553d 721d c63d a531 06bd
00000190: c19a 953d 61d8 60bd a116 7cbd b99d 4ebd
000001a0: 4830 8a3d 8226 673d 8166 0d3d 08c2 813d
000001b0: eedd a43c ad6a 91bd 1e2f 2ebd ad52 95bd
000001c0: 5e8b 333d a794 643d 4dd3 c93c f85d 8dbd
000001d0: 8cb9 30bd 17eb 093d 3bfa 92bc 6c4f a53d
000001e0: a7c8 a43b faf6 ccbc d865 83bd df67 803d
000001f0: 6a60 afbd 339e 28bd 85ad d13c 3da7 7bbd
00000200: c044 173d 5778 4b3d 1b7c 8bbd 71b3 ad3d
00000210: 976c 5b3d b340 a63d 7187 b73a e753 89bd
00000220: a22c 9e3d d9bf abbd 20e0 67bd 62d7 703c
00000230: 71e7 56bd e52a 2ebd ae97 3b3d b8cc 0ebd
00000240: b7ea fb3b 8f0f 13bd 8fe0 80bb f520 7b3d
00000250: 77c8 8dbd 0f3b 17bd 90cc 89bc aa89 573d
00000260: a0ea a0bb bf95 a13d ff12 f5bb ccf5 95bd
00000270: 8777 aebd da30 bfbc bfdc 8dbd 2350 b73d
00000280: cd56 f0bc bacf a83d 8c1c e03c 4d59 303c
00000290: 780e 9ebb b809 933d a137 9d3c 068c ac3d
000002a0: 8d6d 883d b75c 833d 6fbb 84bc d6a6 883d
000002b0: f626 f23c 4ab1 2b3c abaf d93c 375f 583c
000002c0: 9326 76bc 895d c33d 582f c4bc 4e46 f43c
000002d0: cc1a f5bc eb90 963d 8614 0c3c 1a75 acba
000002e0: f83a 9a3c 3633 13bd 4f91 8c3c 375b a73d
000002f0: 5662 3abd f2b4 15bc 1649 5abd fd5c 343d
00000300: 00ba ccbc 9ffe 833d 1aa9 9e3d a454 e83a
00000310: 9901 383c 4a02 3dbd 9942 32bd 9e80 283d
00000320: 0bdf 193d 9b92 87bd 020c 773c d716 f53b
00000330: c1c0 48bd 5966 ae3d efae 97bd f334 7fbd
00000340: ad59 80bd 9868 103d 5306 95bd 2103 413d
00000350: 68a0 55bd 6f6c a43b 00de c2ba 2fa3 023d
00000360: a12f c6bc 9a75 58bd 16d6 41bd 24f5 b03d
00000370: 5dab 103d 9715 dabc e868 9cbd e96f 3d3d
00000380: 0640 743d 8528 8c3d f033 423d 9984 ad3c
00000390: 56d9 533b 17db 15bd 715e 5dbd 04d6 783d
000003a0: b1e5 c5bb c425 983d 4f3c 62bd 878d 333b
000003b0: 7a17 7d3d 2b51 95bd 8fe9 04bd ed62 d1bc
000003c0: 32b2 99bd 43fd 85bd b786 813d d35f 4b3d
000003d0: 88e5 a53d 83c6 c5bc 203a a8bd 6eff 6abd
000003e0: 3321 4b3d cf48 26bd 9a86 13bc 114b 58bd
000003f0: 828f 863d ead7 93bd 97c9 90bd 93c4 1d3d
0.05902168 -0.007727413 -0.051392645 0.04646251 0.053352073 -0.04042193 0.032194577 0.023926673
-0.054046568 0.011446096 0.025344256 -0.026489623 0.031456523 -0.016005924 0.058931924 -0.0425901
-0.007095083 -0.02109802 -0.029252343 -0.009299804 0.03490672 -0.018412506 -0.017158333 -0.017392732
0.059680864 0.0791883 0.0028715516 -0.039539006 0.049768798 -0.073960684 0.023077285 -0.07623822
-0.059679214 -0.0001563628 -0.02551392 0.07235045 -0.010878969 -0.0024443415 0.031749297 0.024000142
0.009444207 0.0009980672 -0.06832522 0.08486809 0.07314003 -0.06378141 -0.01653027 -0.08929833
0.030524326 0.07179699 0.062185314 -0.016003827 0.031997934 0.053597122 0.06026276 0.084137626
0.087136224 0.044412445 0.06428105 -0.06766782 0.07100474 -0.06826555 0.047298532 -0.01888331
-0.049108077 0.059635743 -0.038911935 0.035507847 -0.031586885 -0.033179455 0.022289654 -0.045024958
0.041090645 -0.009851788 0.06400707 -0.041985214 -0.033764564 -0.0577515 0.06689561 0.023914991
0.100799866 -0.007799854 -0.022387138 0.016620945 -0.016932573 -0.05574618 -0.06336378 -0.06402994
0.08435268 -0.005865891 -0.029121328 -0.040213637 0.044702984 0.008863196 -0.08334657 0.060742673
0.024842449 0.052108373 0.09673585 -0.03276219 0.073049076 -0.054893855 -0.061545018 -0.050443385
0.0674749 0.05643321 0.034521583 0.06335837 0.020125356 -0.07100425 -0.042525403 -0.0729116
0.043834083 0.05580583 0.024636889 -0.06902689 -0.0431457 0.033671465 -0.017941585 0.08071789
0.0050288024 -0.025020111 -0.064159095 0.06269812 -0.085633114 -0.041166496 0.025595436 -0.061438788
0.0369308 0.049675312 -0.068107806 0.08481491 0.053570356 0.08117809 0.0014002157 -0.06705456
0.07723357 -0.083862014 -0.056610227 0.014699789 -0.052466813 -0.042521376 0.04579895 -0.034863204
0.0076878923 -0.03590351 -0.0039330195 0.061310727 -0.06923001 -0.036921557 -0.016821176 0.05262152
-0.004910782 0.0788989 -0.007479071 -0.07322273 -0.08518892 -0.023338724 -0.069268696 0.08950832
-0.029338265 0.08242746 0.027357362 0.010763478 -0.004823502 0.07179588 0.019191565 0.08425145
0.0666152 0.06414168 -0.016202657 0.066724464 0.029559594 0.010479281 0.026573023 0.013206295
-0.015023845 0.09539325 -0.023948357 0.02981868 -0.029920004 0.0735186 0.008549815 -0.0013157458
0.018826947 -0.03593751 0.017159132 0.08171695 -0.045503937 -0.009137379 -0.053292356 0.044033993
-0.024991035 0.064450495 0.07747097 0.001772542 0.01123085 -0.04614476 -0.043520544 0.041138284
0.037566226 -0.0661976 0.0150785465 0.0074795294 -0.04901195 0.08515615 -0.07406413 -0.062306356
-0.06267104 0.035256 -0.07276597 0.047122125 -0.05215493 0.005017809 -0.0014867187 0.031893905
-0.024192633 -0.05284653 -0.04732331 0.08640507 0.035319675 -0.026621623 -0.07637197 0.046249304
0.05963137 0.06843666 0.047412813 0.021181392 0.0032325587 -0.036585893 -0.054045144 0.060750976
-0.0060393442 0.07429078 -0.055233296 0.002739759 0.061789967 -0.07290872 -0.0324493 -0.025559867
-0.07504691 -0.065424465 0.06324523 0.049651932 0.0810042 -0.02414251 -0.082142115 -0.057372503
0.049592208 -0.04059678 -0.0090042595 -0.052805964 0.06570341 -0.07218917 -0.070697 0.038517546

arith.constant3 f4 [3]
00000000: 11d8 0a3d a5e6 0bbb a06c c7bc
0.033897463 -0.0021347192 -0.024343789

arith.constant4 f4 [32]
00000000: 44d0 c53c ec7a c23c c7b4 22bc 1d4a a1bc
00000010: e7e8 e13c 85c9 e63c d011 8c37 ce8c c1bc
00000020: f3a0 0c3d 766f 94bc 1b6a ed3a ac5b 653c
00000030: 21db fcbc 1d76 ed3c 7216 f83c 8e30 8bbc
00000040: 2179 0bbd e6e1 a9bc e1da 083d d2b7 dcbc
00000050: d577 e33c 20ea 343b 6651 9a3c c470 cf3c
00000060: 8432 6cbc de9b 8cbc f30f 51bc f39c de3c
00000070: eea1 063d ac14 b23c 6665 20bc 5e6a b4bc
0.02414716 0.023740254 -0.009930796 -0.01968866 0.027576877 0.028172264 1.6697595e-05 -0.023626711
0.03433318 -0.018119555 0.0018113287 0.013998907 -0.030866208 0.028986985 0.03028414 -0.016990926
-0.034051064 -0.0207376 0.033411864 -0.026943121 0.027767101 0.002760537 0.018837642 0.025322326
-0.014416341 -0.017164167 -0.01276015 0.027174449 0.032869272 0.021738373 -0.0097898 -0.022023376

arith.constant5 f4 [64]
00000000: e7c9 bdbc a89b b93c b4fc c8bc 89f0 81ba
00000010: e383 dcbc f96e 963c 627b 9dbc 3fa5 f43c
00000020: 8d1d 8bbc ee3a 8abc 66a9 a5bc 73cc ea3c
00000030: 1f27 9dbc 632e ccbc 6d25 54bc ecb2 09bd
00000040: 8772 c23c a1bd 553c 56b3 a93c 7101 3e3c
00000050: 2c2f 673c c952 00bc d093 e1bc b93b 943c
00000060: 350a 3d3c cc8e 0a3d cc7a ecbc 39c0 e2bc
00000070: 08dc d23c 1768 bebc cb91 3e3c 4c0f efbc
00000080: 40e9 52bc 395d ecbc 9e2d ddbc 4ac5 d3bc
00000090: eb31 b3bc f482 e33b ee40 cc3c 81a1 f3bc
000000a0: 3d15 ea3c 0ead aebc 2b4f acbc 7c40 01bd
000000b0: d09d b83c 7554 b4bc 6ba9 8abb 6afc 1a3c
000000c0: e5be bbbc 4155 99bc b26e 8b3c 0beb 00bd
000000d0: 746c e13c ae97 88bc a477 3e3c 83e7 983c
000000e0: c091 f43c 4b2a babc bdd6 00bc e3d2 963c
000000f0: c601 0dbd 5fa9 9dbc 80cc c0bc 63a8 c0bc
-0.023167564 0.02265723 -0.02453456 -0.0009913604 -0.026918357 0.018363463 -0.019223873 0.029863952
-0.016981864 -0.016873803 -0.020222377 0.028661942 -0.019183693 -0.024924463 -0.012948376 -0.0336179
0.023736252 0.013045699 0.020715397 0.011597023 0.014110368 -0.0078322375 -0.027536303 0.018094884
0.011538078 0.033827588 -0.028867148 -0.02767955 0.025739685 -0.023242993 0.011631439 -0.029182099
-0.012872994 -0.028853046 -0.026999291 -0.02585091 -0.021874389 0.006943101 0.024933305 -0.029740097
0.02857458 -0.021322753 -0.021033844 -0.031555638 0.022536188 -0.022012929 -0.004231622 0.009459594
-0.022918174 -0.01871741 0.017020557 -0.031474154 0.027517535 -0.016673889 0.011625204 0.01866508
0.029854655 -0.022725245 -0.007863698 0.018411105 -0.03442552 -0.019245801 -0.023535013 -0.023517793
