model/model.tflite (tflite, 127644 bytes, 12 tensors)

arith.constant f4 [3, 32]
0.1469055 -0.08013145 -0.24755314 0.06620248 0.35838568 -0.39176056 -0.08602537 0.31000432
0.274366 0.32846296 -0.3428799 0.170964 0.03985578 -0.07132676 0.1793821 -0.37850785
-0.08638989 -0.10048576 -0.11751623 -0.25488704 -0.14670461 -0.027055549 -0.016289193 0.2936516
0.046620533 0.16887878 -0.06777091 0.07563757 0.10101352 -0.04533468 -0.25387496 0.183532
0.39183614 -0.16725956 -0.39685604 0.05925259 0.20385341 0.15201956 0.060839992 0.2954242
-0.063393034 0.016282074 -0.3142606 0.15785587 0.30442616 0.40018517 -0.2077001 -0.022815216
-0.347999 -0.18774857 0.15895087 0.16717984 0.31298038 -0.1597055 -0.32894132 -0.28664222
-0.0046489513 0.38763127 -0.40710482 0.042332936 0.25869077 0.029775448 0.29030097 0.26697418
0.10526406 0.3189934 0.1320132 0.3179004 -0.41793233 0.37133166 -0.108238615 -0.21938129
0.08176869 0.26213515 0.3855153 -0.21105486 -0.30987072 -0.4167572 0.3264609 -0.12951581
0.072152704 0.17803615 0.10007769 -0.12908556 0.3391751 -0.17830242 -0.13310522 0.35745734
-0.25049016 0.17501278 0.004812184 0.12662002 -0.24268669 0.035961572 0.30689403 -0.10024881
00000000: 656e 163e f51b a4bd 927e 7dbe 2a95 873d
00000010: 547e b73e d794 c8be 122e b0bd e3b8 9e3e
00000020: b379 8c3e 4c2c a83e f48d afbe 3011 2f3e
00000030: d03f 233d c413 92bd f1af 373e c8cb c1be
00000040: 2fed b0bd 7acb cdbd 59ac f0bd 8e80 82be
00000050: bc39 16be 99a3 ddbc ea70 85bc 8159 963e
00000060: 2cf5 3e3d 8fee 2c3e 7acb 8abd dfe7 9a3d
00000070: 2de0 ce3d dbb0 39bd e6fb 81be d0ef 3b3e
00000080: bf9e c83e 1746 2bbe b730 cbbe d8b2 723d
00000090: f3be 503e 04ab 1b3e 5b33 793d d741 973e
000000a0: 35d4 81bd fc61 853c c4e6 a0be f8a4 213e
000000b0: bfdd 9b3e 12e5 cc3e 56af 54be fae6 babc
000000c0: ed2c b2be 2941 40be 04c4 223e 3131 2b3e
000000d0: f73e a03e d789 23be ff6a a8be c5c2 92be
000000e0: 3b56 98bb 9b77 c63e 0b70 d0be 4d65 2d3d
000000f0: 1e73 843e a4eb f33c 54a2 943e d7b0 883e
00000100: af94 d73d 1a53 a33e 782e 073e d7c3 a23e
00000110: 3afb d5be 2f1f be3e 35ac ddbd 7da5 60be
00000120: 5876 a73d 9436 863e 4362 c53e c41e 58be
00000130: 60a7 9ebe 3361 d5be e225 a73e cb9f 04be
00000140: ccc4 933d 1c4f 363e 88f5 cc3d 012f 04be
00000150: 5ca8 ad3e e994 36be bc4c 08be a604 b73e
00000160: 3f40 80be 8d36 333e 86af 9d3b aea8 013e
00000170: dc82 78be 714c 133d 3721 9d3e 404f cdbd

arith.constant1 f4 [32, 48]
0.116313845 -0.25961456 -0.06678846 -0.03059795 0.004616318 0.15259762 -0.17354695 0.12620698
0.14305356 0.008559561 -0.01883309 -0.24593095 -0.24633022 -0.010789892 -0.05144802 0.10046622
-0.0288848 0.062165003 -0.2585564 -0.013886609 0.04865848 -0.03864418 -0.045909114 -0.22236483
-0.1161812 0.21091309 -0.040492263 0.05559826 0.001013322 -0.118022434 -0.20043522 -0.09698117
0.13684748 0.03645414 -0.2388362 0.14240573 0.2045687 -0.09899147 0.24127674 0.005381811
-0.051609535 -0.060779285 0.12777825 0.22279719 0.022740878 0.2600675 -0.25385788 -0.08724847
-0.0051919217 -0.18734817 0.014338995 -0.23681901 -0.03785182 0.006054622 -0.18529902 -0.13261265
-0.1397183 0.12268994 -0.023696527 0.013138041 0.22408807 -0.18288544 0.035329897 0.043750357
0.056846872 0.2602456 0.062309716 0.082706794 -0.17446937 -0.2903643 0.11126273 -0.15347868
-0.01763812 0.2714168 0.17137225 0.23407096 0.1274141 0.099170946 -0.10377684 0.042314198
0.27214617 -0.11019334 0.23369971 -0.2415793 -0.040335573 -0.21746773 0.09745939 0.07551475
-0.23431161 0.108435266 0.093184836 -0.24504445 -0.11881921 -0.12529658 -0.152717 -0.2548785
0.024710594 -0.10837099 -0.22160645 0.069222726 -0.22628443 -0.06295858 -0.07427472 0.13572617
0.22278084 0.072410285 0.15274774 -0.21309823 0.24274437 0.11927055 -0.27968153 0.17191978
-0.24238375 0.22360986 0.24269779 -0.0030279167 0.213417 0.16159028 -0.1618996 -0.08855968
-0.17895877 0.24532126 -0.11269523 0.18123965 -0.18092819 -0.1418431 0.024468785 -0.056682985
0.039433 0.09463336 0.09734883 0.12650149 -0.041263815 0.037060454 -0.21321103 0.10945647
0.10755878 -0.15311155 0.19400963 0.23892283 0.18300079 0.13081557 -0.18438055 0.17478904
0.09102267 0.025766343 0.20677891 -0.28521267 -0.23314533 -0.20825034 -0.15776528 -0.086428225
0.09196969 0.26013508 0.14910065 0.23501223 -0.13559848 0.13832158 0.07914265 -0.18920499
0.22360831 0.22549102 0.03842959 -0.1360046 -0.1768772 0.1804146 0.21855664 0.04609394
-0.1321186 -0.25208417 -0.12801535 -0.102097146 -0.22140497 0.17398322 -0.18468277 0.2584283
0.05987019 -0.16438791 -0.082950324 0.17966047 -0.06554613 -0.07956734 0.08760127 0.17683983
-0.115456365 -0.2659295 0.1193594 0.009761905 0.045288496 0.19300957 0.09266526 -0.043035865
0.07802813 -0.24963067 0.2020848 -0.08278488 0.12685685 0.20211345 0.23268361 0.16992313
-0.17398529 0.1837975 0.22178553 0.12336548 -0.1446939 -0.0967058 0.031843957 0.109136745
0.20196688 -0.19122213 0.30205473 0.007734246 0.08382628 0.052407444 0.1831645 0.32433462
-0.08996386 -0.24966788 0.19144979 -0.0637697 -0.11046608 0.23991117 0.23806429 -0.09783522
-0.03777514 -0.17876945 0.10662838 0.1696274 -0.08043419 0.30551252 -0.18114944 -0.17450264
0.009703448 0.11920465 -0.018144619 -0.2059977 0.24384063 -0.08625367 0.11962826 -0.042207386
-0.0837314 0.0026244966 -0.27818814 0.20727502 -0.07119817 -0.060576867 -0.0043727257 0.2581771
-0.2758896 -0.107891455 0.07737906 -0.029605592 -0.15974511 -0.21032727 0.14135689 0.053045955
00000000: f435 ee3d 33ec 84be 63c8 88bd 8da8 fabc
00000010: 7b44 973b 8d42 1c3e 4bb6 31be 673c 013e
00000020: a27c 123e 673d 0c3c da47 9abc 53d5 7bbe
00000030: fd3d 7cbe 16c8 30bc 29bb 52bd 3cc1 cd3d
00000040: d19f ecbc bba0 7e3d 8161 84be a984 63bc
00000050: 1d4e 473d 5c49 1ebd 320b 3cbd 9bb3 63be
00000060: 69f0 edbd 9af9 573e 37db 25bd 00bb 633d
00000070: 72d1 843a bfb5 f1bd e43e 4dbe 109e c6bd
00000080: bf21 0c3e f050 153d 7a91 74be cfd2 113e
00000090: 757a 513e 0abc cabd 4011 773e e759 b03b
000000a0: 8564 53bd b3f3 78bd 4dd8 023e f224 643e
000000b0: 144b ba3c 9127 853e a9f9 81be 53af b2bd
000000c0: ff20 aabb 33d8 3fbe 1bee 6a3c af80 72be
000000d0: 830a 1bbd da65 c63b 07bf 3dbe 9ccb 07be
000000e0: 5012 0fbe dd44 fb3d 381f c2bc f040 573c
000000f0: 5877 653e 5246 3bbe 15b6 103d 9333 333d
00000100: 44d8 683d e93e 853e 7938 7f3d 2e62 a93d
00000110: 19a8 32be a1aa 94be b7dd e33d 8429 1dbe
00000120: d27d 90bc 25f7 8a3e 357c 2f3e 4cb0 6f3e
00000130: d878 023e 231a cb3d f488 d4bd a751 2d3d
00000140: be56 8b3e 0cad e1bd fa4e 6f3e 9060 77be
00000150: ea36 25bd dcaf 5ebe ca98 c73d 7aa7 9a3d
00000160: 62ef 6fbe 4f13 de3d b1d7 be3d efec 7abe
00000170: 7c57 f3bd bf4d 00be d861 1cbe 6f7f 82be
00000180: df6d ca3c 9cf1 ddbd cdec 62be a5c4 8d3d
00000190: 1bb7 67be 6ef0 80bd 581d 98bd cdfb 0a3e
000001a0: a920 643e d84b 943d e769 1c3e 6c36 5abe
000001b0: fb91 783e 1e44 f43d 6b32 8fbe bd0b 303e
000001c0: 7233 78be fcf9 643e c585 783e 0370 46bb
000001d0: fc89 5a3e ec77 253e 02c9 25be c75e b5bd
000001e0: f840 37be 7f35 7b3e c2cc e6bd e396 393e
000001f0: 3d45 39be 513f 11be c372 c83c 6b2c 68bd
00000200: 7f84 213d 23cf c13d d35e c73d 9b89 013e
00000210: 3f04 29bd b4cc 173d fe53 5abe b72a e03d
00000220: c747 dc3d 46c9 1cbe 76aa 463e 30a8 743e
00000230: 8f64 3b3e 84f4 053e 41ce 3cbe e6fb 323e
00000240: 186a ba3d f013 d33c dabd 533e 6507 92be
00000250: a6bd 6ebe 943f 55be 398d 21be 4801 b1bd
00000260: 9b5a bc3d 6d30 853e d7ad 183e 0ca7 703e
00000270: 54da 0abe 2ca4 0d3e 8b15 a23d f4be 41be
00000280: 94f9 643e 1ee7 663e 5968 1d3d ca44 0bbe
00000290: 4c1f 35be 9bbe 383e 50cd 5f3e 00cd 3c3d
000002a0: 194a 07be 2d11 81be 7516 03be 4f18 d1bd
000002b0: fcb7 62be a828 323e 7b1d 3dbe b750 843e
000002c0: 723a 753d 4e55 28be dce1 a9bd eaf8 373e
000002d0: 0d3d 86bd 34f4 a2bd 4b68 b33d 8015 353e
000002e0: 6374 ecbd e927 88be b372 f43d 66f0 1f3c
000002f0: 6e80 393d 4da4 453e 49c7 bd3d 6046 30bd
00000300: 36cd 9f3d 2f9f 7fbe 51ef 4e3e 1f8b a9bd
00000310: c3e6 013e d4f6 4e3e 9d44 6e3e 5400 2e3e
00000320: 3329 32be 6935 3c3e bf1b 633e 0aa7 fc3d
00000330: a32a 14be b10d c6bd cf6e 023d 1683 df3d
00000340: 68d0 4e3e bccf 43be eba6 9a3e 8f6f fd3b
00000350: 1dad ab3d 30a9 563d 7a8f 3b3e 300f a63e
00000360: f93e b8bd f0a8 7fbe 6a0b 443e b099 82bd
00000370: 0a3c e2bd 46ab 753e 20c7 733e d55d c8bd
00000380: 1bba 1abd 570f 37be fb5f da3d ceb2 2d3e
00000390: aeba a4bd 236c 9c3e 3d7f 39be d2b0 32be
000003a0: 36fb 1e3c 9121 f43d 06a4 94bc 10f1 52be
000003b0: 5cb1 793e c4a5 b0bd a9ff f43d a7e1 2cbd
000003c0: 5e7b abbd bfff 2b3b ad6e 8ebe e73f 543e
000003d0: 59d0 91bd 731f 78bd 1549 8fbb ca2f 843e
000003e0: 6741 8dbe 32f6 dcbd ea78 9e3d 6d87 f2bc
000003f0: 3994 23be 0860 57be dcbf 103e b746 593d

arith.constant2 f4 [48, 48]
0.23173709 0.09338436 0.1500301 0.2533594 0.1367973 -0.21286494 -0.17352672 -0.1149007
-0.15299015 -0.052574832 -0.07427732 -0.12635927 -0.19850972 0.12902334 0.18542603 -0.16484526
0.19372399 0.1307873 -0.21758543 -0.09938495 -0.0013618806 -0.23562326 -0.22991991 -0.2229179
-0.09034729 0.0063483836 -0.21112669 0.2089416 0.07768467 -0.06028477 0.040261615 -0.08829451
0.24189019 0.23117852 -0.055207938 0.2038653 -0.19039194 -0.1712954 -0.17356856 0.034121633
0.15148161 0.16734532 0.07306961 0.13371818 0.22847626 0.02413469 -0.23614813 0.15050481
-0.069148354 -0.21074156 -0.081467755 -0.16814554 -0.036285535 -0.1404569 -0.042216603 0.18827987
0.07107479 -0.2566788 -0.14582267 0.003898199 -0.25465178 0.028756164 -0.20440772 0.06494227
0.042608537 -0.1376746 -0.12588738 -0.066982664 0.1582394 0.2010479 -0.112375185 0.21411161
0.10728602 0.2276841 0.23092389 0.15440653 0.21230698 0.004718262 -0.011523609 -0.06557691
0.051443554 -0.04509002 -0.16417567 0.12997966 -0.25563723 0.18402837 -0.16023834 0.056553278
-0.12179662 0.10579437 -0.015060224 -0.21123374 0.10753143 -0.12378618 0.09554709 -0.11507584
-0.12727979 -0.23563729 -0.004650576 -0.18069169 -0.09229104 -0.10284306 0.08503392 -0.07681233
0.21646944 0.041115038 0.20467909 -0.03861908 -0.07967955 0.14315476 -0.15235677 -0.17706096
-0.076423585 -0.23622032 -0.10692832 0.12194722 -0.118462354 0.23927198 0.165273 -0.15661393
-0.12066266 -0.18865147 0.008499214 -0.04364665 -0.17290397 0.24949086 -0.0694265 0.21440876
-0.025805747 -0.094537735 0.014215011 -0.09965403 0.16756609 0.011416882 -0.08428315 0.1245121
0.04037884 0.011929806 0.103751704 0.21095972 0.12165624 0.08804019 -0.19850789 -0.096334286
-0.060384348 -0.20313443 0.14756493 -0.11434128 -0.22629727 -0.0037487166 -0.1731598 -0.14801216
0.1214335 -0.05770275 -0.09633964 -0.20539829 0.21661815 -0.23621126 -0.072556466 0.12676841
-0.10479065 0.12401047 0.15233146 -0.020987932 0.0818899 0.10096457 -0.060137365 -0.2050681
0.1731379 -0.16305551 -0.055825554 -0.12413628 0.008886667 0.24018699 0.06547666 0.11959414
-0.1254129 0.03764361 0.114702106 0.0433477 0.25033587 -0.041211918 -0.11574929 -0.06968204
0.012791727 -0.1587719 -0.1348896 -0.20975989 0.036930595 -0.14526087 0.13409804 -0.10419989
0.08224358 0.09129983 -0.14866032 0.030319238 0.0044743856 0.035310417 -0.19645779 0.1843185
0.085721016 -0.037444767 0.0006138674 0.21551104 -0.121471666 -0.19297586 0.24678335 0.112185754
0.20530577 0.09859284 0.10133477 0.17566341 -0.053780727 -0.21373256 -0.043338317 0.053545717
0.14450403 -0.17644139 0.11626266 0.15688367 -0.10291736 0.24173595 0.077403404 -0.22449668
0.06867695 -0.02563864 -0.060033064 0.15267174 0.24408947 -0.007860683 -0.018852372 -0.23523882
0.24197152 -0.13379522 0.25831607 -0.068552256 0.18279019 -0.09090689 -0.23275316 -0.17229044
-0.15937583 0.05703793 -0.08644928 -0.0070825727 -0.15631449 0.047200322 -0.2270856 -0.17559426
0.11860632 0.13916862 -0.123849034 0.21839273 0.0899142 -0.066138126 -0.1764711 -0.10782796
00000000: 7d4c 6d3e 4d40 bf3d 7ea1 193e 53b8 813e
00000010: 9714 0c3e 44f9 59be fdb0 31be 0f51 ebbd
00000020: 73a9 1cbe b558 57bd b51e 98bd 5364 01be
00000030: 2246 4bbe b21e 043e 52e0 3d3e 32cd 28be
00000040: 955f 463e 1bed 053e b7ce 5ebe 568a cbbd
00000050: 2181 b2ba 3947 71be 2070 6bbe 9744 64be
00000060: 0008 b9bd 1a06 d03b 9831 58be c9f4 553e
00000070: 2419 9f3d 2aed 76bd 5de9 243d c1d3 b4bd
00000080: 10b2 773e 10ba 6c3e b821 62bd 11c2 503e
00000090: 1bf6 42be 1068 2fbe f5bb 31be 20c3 0b3d
000000a0: ff1d 1b3e 925c 2b3e 85a5 953d 6bed 083e
000000b0: aef5 693e 1db6 c53c d1d0 71be ef1d 1a3e
000000c0: a79d 8dbd a3cc 57be 91d8 a6bd 582e 2cbe
000000d0: 24a0 14bd efd3 0fbe 51eb 2cbd 70cc 403e
000000e0: a98f 913d 676b 83be 8a52 15be ed78 7f3b
000000f0: b861 82be 0c92 eb3c 4250 51be 7400 853d
00000100: 4a86 2e3d 92fa 0cbe 9fe8 00be 352e 89bd
00000110: 8209 223e 80df 4d3e f624 e6bd 1340 5b3e
00000120: c6b8 db3d 0526 693e 5077 6c3e bf1c 1e3e
00000130: 0067 593e a69b 9a3b 85cd 3cbc 304d 86bd
00000140: 7ab6 523d 50b0 38bd ab1d 28be 6319 053e
00000150: e2e2 82be ef71 3c3e 8515 24be 69a4 673d
00000160: 8270 f9bd b8aa d83d 28bf 76bc a84d 58be
00000170: 7039 dc3d 9c83 fdbd 31ae c33d e2ac ebbd
00000180: a255 02be e74a 71be dc63 98bb 3e07 39be
00000190: 1603 bdbd 629f d2bd 4426 ae3d c84f 9dbd
000001a0: 2aaa 5d3e 3e68 283d 6597 513e 0a2f 1ebd
000001b0: 082f a3bd 2997 123e 6a03 1cbe 784f 35be
000001c0: f883 9cbd bde3 71be 3cfd dabd 77bf f93d
000001d0: 649c f2bd b703 753e 533d 293e 675f 20be
000001e0: fc1d f7bd da2d 41be 4a40 0b3c d4c6 32bd
000001f0: bd0d 31be 887a 7f3e 7b2f 8ebd f88d 5b3e
00000200: 9366 d3bc 009d c1bd 14e6 683c 6917 ccbd
00000210: 7296 2b3e e00d 3b3c a59c acbd 3300 ff3d
00000220: 4864 253d 3c75 433c c67b d43d d305 583e
00000230: e826 f93d 6a4e b43d a745 4bbe e94a c5bd
00000240: 9455 77bd 7902 50be 431b 173e c32b eabd
00000250: 79ba 67be 07ad 75bb cd50 31be 8090 17be
00000260: 20b2 f83d b859 6cbd b84d c5bd ee53 52be
00000270: 26d1 5d3e 5de1 71be 7c98 94bd 94cf 013e
00000280: 7b9c d6bd 34f9 fd3d c7fc 1b3e e2ee abbc
00000290: e4b5 a73d 83c6 ce3d 9952 76bd 5ffd 51be
000002a0: 104b 313e 06f8 26be 56a9 64bd 293b febd
000002b0: 6299 113c 94f3 753e a118 863d c6ed f43d
000002c0: 3d6c 00be 3030 1a3d f0e8 ea3d 5c8d 313d
000002d0: 062c 803e d4cd 28bd f70d edbd 75b5 8ebd
000002e0: 6494 513c 1a95 22be 8020 0abe 4ccb 56be
000002f0: 8944 173d 44bf 14be ff50 093e c066 d5bd
00000300: 526f a83d 68fb ba3d 693a 18be 0d60 f83c
00000310: de9d 923b a8a1 103d 3b2c 49be fdbd 3c3e
00000320: 808e af3d af5f 19bd f2eb 203a edae 5c3e
00000330: 23c6 f8bd 779b 45be c6b4 7c3e a5c1 e53d
00000340: ad3b 523e 0beb c93d 9b88 cf3d 1ce1 333e
00000350: 2e49 5cbd b5dc 5abe 8583 31bd c152 5b3d
00000360: ddf8 133e 0dad 34be 1e1b ee3d 1da6 203e
00000370: 56c6 d2bd a189 773e ad85 9e3d 75e2 65be
00000380: 80a6 8c3d 2008 d2bc 3be5 75bd fb55 1c3e
00000390: 97f2 793e 18ca 00bc 4a70 9abc 72e2 70be
000003a0: 62c7 773e 9d01 09be 0142 843e 2065 8cbd
000003b0: 5a2d 3b3e 642d babd d856 6ebe e86c 30be
000003c0: 6b33 23be 9ba0 693d 520c b1bd ed14 e8bb
000003d0: e810 20be 2055 413d 2189 68be fbce 33be
000003e0: dfe7 f23d 3882 0e3e 90a4 fdbd 58a2 5f3e
000003f0: f024 b83d 6d73 87bd d7b4 34be e8d4 dcbd

arith.constant3 f4 [48, 48]
-0.18811855 0.18175721 0.021511594 -0.15131766 -0.22325373 0.19455895 -0.10703111 0.21135575
-0.14065969 -0.26854905 0.021108706 -0.19574058 -0.1811848 0.2324301 0.085530765 0.035745293
-0.19102822 0.005449455 0.15510195 0.025603572 -0.21303357 -0.14722967 0.22701897 -0.13378775
0.039556727 -0.15675177 0.16728327 -0.12756896 0.16373894 0.06909055 -0.08332485 0.04630619
0.07700592 -0.23296264 -0.09137368 -0.20171896 -0.20338696 -0.12841287 -0.18216923 0.0055051344
-0.022229824 0.05312705 0.16214108 0.039320413 -0.17007321 0.09034336 -0.24194169 -0.10479699
-0.16750029 0.06912023 0.10175591 -0.2378381 0.14373195 0.031759754 0.14239402 -0.06529309
-0.17486532 -0.23578973 0.056864988 0.24980123 -0.0099453 0.13111177 0.19828957 0.23244739
0.20151523 0.24565543 -0.14432171 -0.23692344 0.049881883 0.15255015 -0.16653639 0.22583903
-0.15796767 -0.13248736 0.1858514 0.09427897 0.025317162 0.22449765 0.20751992 -0.046578053
0.03645688 0.068576045 0.024100624 -0.08222712 0.022249587 -0.10318148 0.18186769 -0.018511724
0.013044455 0.10281427 -0.032917477 -0.16539183 -0.15044007 -0.1351899 0.13042611 0.21797396
0.18863963 0.0116454745 0.1256828 -0.1494913 0.043640718 -0.10236708 -0.1670599 -0.1570802
0.12486125 0.08876112 0.071669884 0.19552423 0.11985364 -0.19650888 0.03494812 -0.20913388
-0.015371683 0.13598648 -0.15586212 -0.19619596 -0.1293707 -0.15996782 0.15891701 0.014251217
-0.003948158 0.22972767 0.016422037 0.10079789 -0.2028454 -0.0122459745 0.048111957 0.20228142
0.028390376 -0.22314045 -0.03210375 -0.109991975 -0.17791522 0.13711777 -0.13386206 -0.25438222
0.15373787 -0.21512184 0.1314692 0.007766985 -0.20807257 0.16169855 0.22535689 -0.2258498
0.04798897 0.11196763 -0.16808923 0.21825895 -0.18590592 -0.1802466 0.21750902 -0.11653222
-0.23820326 0.15448856 -0.06194979 -0.233409 0.07435458 0.19723119 0.11409533 0.10346303
0.23135696 0.1823985 -0.22088735 -0.009106559 -0.10001353 0.1070171 0.18630356 -0.209896
0.13424392 -0.12798013 -0.08828677 0.22500877 0.18664014 -0.24566914 0.05548567 -0.15934284
-0.027618371 -0.22164974 0.017846297 -0.02934449 0.1594613 0.0009915949 -0.15786563 0.19868189
0.14337218 0.23002547 0.09046908 0.19577822 -0.05523872 0.10527427 0.063439354 0.17279497
0.15725264 0.16680686 0.16882166 -0.15012929 0.033676997 -0.0068268366 0.10796256 -0.14059015
-0.1899525 -0.26839 -0.22361764 0.09725867 0.03672584 0.150579 -0.23838238 0.19026218
0.07680459 -0.059247114 0.07115631 -0.21094723 0.06557359 -0.043675084 -0.21979536 0.23074366
-0.004528715 -0.0712999 -0.13750313 0.24859291 0.102296405 -0.17180282 0.14750008 0.067449614
0.11727879 0.115952134 -0.11777487 0.1827776 -0.13739277 -0.113814086 0.17730081 -0.12206951
0.20167655 0.09860219 0.1010381 0.05265197 0.0492861 0.17984724 0.15462932 0.18537848
-0.078844175 -0.15757887 -0.050563056 0.17356896 -0.074114494 0.13429144 0.16059224 0.22657079
-0.060149893 -0.23648345 0.24076538 -0.05050442 -0.049951013 -0.02030477 0.053055715 -0.05884028
00000000: 26a2 40be 901e 3a3e 1539 b03c 04f3 1abe
00000010: a09c 64be 763a 473e 2033 dbbd a46d 583e
00000020: 1809 10be 437f 89be 2aec ac3c 3870 48be
00000030: 8288 39be 2802 6e3e c12a af3d a869 123d
00000040: e79c 43be 5891 b23b 0cd3 1e3e 95be d13c
00000050: 7925 5abe 60c3 16be a977 683e a8ff 08be
00000060: 3c06 223d 8983 20be 4e4c 2b3e 70a1 02be
00000070: 2eab 273e 597f 8d3d 38a6 aabd 8fab 3d3d
00000080: 48b5 9d3d c28d 6ebe 2022 bbbd 6a8f 4ebe
00000090: ac44 50be aa7e 03be 928a 3abe 6a64 b43b
000000a0: 521b b6bc c09b 593d 5008 263e 710e 213d
000000b0: ac27 2ebe f105 b93d 90bf 77be ce9f d6bd
000000c0: 3285 2bbe e88e 8d3d 6765 d03d d58b 73be
000000d0: 782e 133e 8416 023d bdcf 113e 62b8 85bd
000000e0: e50f 33be dd72 71be 43eb 683d e5cb 7f3e
000000f0: 9df1 22bc 2a42 063e 6c0c 4b3e b006 6e3e
00000100: 025a 4e3e 198d 7b3e 12c9 13be 0f9c 72be
00000110: f250 4c3d 1b36 1c3e 8488 2abe 5942 673e
00000120: 47c2 21be c4aa 07be d44f 3e3e 5515 c13d
00000130: f065 cf3c b6e2 653e 1a80 543e a1c8 3ebd
00000140: cf53 153d 9971 8c3d ac6e c53c b166 a8bd
00000150: c444 b63c d050 d3bd 863b 3a3e e6a5 97bc
00000160: 69b8 553c 4a90 d23d 7ad4 06bd 7a5c 29be
00000170: f60c 1abe 396f 0abe 6c8e 053e 9134 5f3e
00000180: bf2a 413e a9cc 3e3c feb2 003e 3f14 19be
00000190: 9cc0 323d d5a5 d1bd c011 2bbe a2d9 20be
000001a0: 41b7 ff3d 64c8 b53d a9c7 923d 8137 483e
000001b0: d375 f53d a039 49be c325 0f3d 3127 56be
000001c0: 83d9 7bbc 0a40 0b3e 529a 1fbe 98e7 48be
000001d0: c179 04be 9bce 23be 24bb 223e f07d 693c
000001e0: 8d5f 81bb bb3d 6b3e 8287 863c 206f ce3d
000001f0: b4b6 4fbe 57a3 48bc 0b11 453d dc22 4f3e
00000200: ef92 e83c ee7e 64be 397f 03bd 7943 e1bd
00000210: 682f 36be 9a68 0c3e 2313 09be 633e 82be
00000220: 766d 1d3e e648 5cbe dd9f 063e 3182 fe3b
00000230: fa10 55be 4e94 253e f5c3 663e 2c45 67be
00000240: 1590 443d 494f e53d 951f 2cbe 467f 5f3e
00000250: 1f5e 3ebe 9192 38be afba 5e3e 72a8 eebd
00000260: 8eeb 73be 4032 1e3e 10bf 7dbd c502 6fbe
00000270: 3747 983d f9f6 493e d0aa e93d 6de4 d33d
00000280: d7e8 6c3e acc6 3a3e 4b30 62be ad33 15bc
00000290: e5d3 ccbd c82b db3d 5cc6 3e3e faee 56be
000002a0: 3d77 093e 390d 03be b2cf b4bd b368 663e
000002b0: 981e 3f3e b190 7bbe f144 633d c52a 23be
000002c0: ec3f e2bc 26f8 62be 6632 923c db63 f0bc
000002d0: d349 233e 67f8 813a 87a7 21be 4473 4b3e
000002e0: 28d0 123e cc8b 6b3e da47 b93d 167a 483e
000002f0: ff41 62bd 099a d73d 7eec 813d 2af1 303e
00000300: d606 213e 6bcf 2a3e 96df 2c3e 7ebb 19be
00000310: e4f0 093d a8b3 dfbb 7a1b dd3d ddf6 0fbe
00000320: e882 42be 6a6a 89be 06fc 64be 8e2f c73d
00000330: d66d 163d 6231 1a3e 831a 74be 17d4 423e
00000340: ba4b 9d3d 1aad 72bd 66ba 913d 8d02 58be
00000350: 724b 863d a5e4 32bd 0912 61be 1148 6c3e
00000360: 9d65 94bb af05 92bd 9fcd 0cbe 248f 7e3e
00000370: c780 d13d 14ed 2fbe 430a 173e 0623 8a3d
00000380: dd2f f03d 5078 ed3d f333 f1bd 0d2a 3b3e
00000390: b1b0 0cbe 5c17 e9bd 588e 353e 94ff f9bd
000003a0: 4c84 4e3e f2ef c93d 10ed ce3d 98a9 573d
000003b0: 39e0 493d e029 383e 2657 1e3e dbd3 3d3e
000003c0: 0e79 a1bd 5b5c 21be 351b 4fbd 10bc 313e
000003d0: 57c9 97bd b283 093e 4b72 243e 2c02 683e
000003e0: bc5f 76bd b828 72be 338b 763e b9dd 4ebd
000003f0: 6f99 4cbd 3056 a6bc f350 593d 8102 71bd

arith.constant4 f4 [48, 32]
-0.18313685 -0.017494148 0.0059623984 -0.018679285 0.121130295 -0.13209687 -0.17368257 0.20673972
0.14839831 0.2737685 0.09600937 0.19681156 0.1666483 -0.22248788 -0.052702814 0.0063692555
0.16967197 -0.25997528 0.23424572 -0.23413509 -0.21657528 0.270336 -0.08398537 -0.19079751
-0.20831512 0.27573228 0.12218195 -0.047143303 0.10841234 -0.19807479 -0.025598427 0.16267794
-0.15851131 0.18667422 0.0526257 0.18672459 -0.090758085 0.2573699 -0.06001943 0.065711096
0.002500479 0.060877394 -0.081767485 -0.041036144 0.024012566 -0.13957348 0.16228187 0.1259613
0.25952664 0.038296953 0.07133837 -0.19513518 -0.035768032 0.01009111 -0.0642616 -0.14335799
-0.102502376 -0.089306936 0.025082001 0.09331324 0.042833023 0.062580265 0.2309345 0.2223618
0.04617036 0.17198977 0.12216568 -0.09813586 -0.11466394 -0.16686964 0.25218698 0.23948923
-0.13613485 0.1999201 -0.09883703 -0.1303074 0.24848577 0.17157714 0.16749936 -0.23746343
0.13734166 0.10964923 -0.19533904 0.1981528 -0.024995185 0.12745023 -0.13197039 -0.1266796
0.20154057 0.12881242 -0.116341345 -0.0651428 0.04442976 0.26160732 0.20452473 0.071841456
-0.22250085 0.109516576 0.14574051 0.12254728 0.080083184 0.10961096 0.057383347 -0.1363726
-0.23095916 -0.22507904 -0.08218892 -0.077938706 -0.01945796 -0.13030326 0.25165492 -0.22962782
0.11776211 0.15898874 -0.004833207 0.17396706 -0.1859321 -0.23825715 -0.044342402 -0.17220712
-0.14230628 0.12964754 -0.24110486 -0.065428436 0.2656193 -0.09245225 0.20051403 -0.11166695
0.04299215 -0.21307036 -0.23902749 0.227216 0.21011862 0.17074065 -0.24243948 0.12052492
0.26027492 -0.028151495 0.16799515 0.16555369 -0.1707769 0.13009076 -0.123520866 -0.11423101
-0.26601064 -0.10652508 -0.15960436 0.02183814 -0.13047458 0.030574229 0.25053698 -0.07338289
0.06523893 -0.21065317 0.13768212 0.21932232 0.13708647 -0.010048737 -0.23843731 0.22543412
-0.21787849 -0.047276895 -0.21058385 -0.087783076 0.04365307 0.09260029 0.2508806 0.25288787
0.23892267 -0.06447712 -0.2798585 0.029808557 -0.014895735 0.12951568 -0.22056684 0.037893485
-0.0044125253 -0.26691484 -0.2201505 0.13421232 0.2557599 -0.033631053 0.088650286 -0.11008332
-0.20771353 0.18670999 0.12307693 -0.27737325 0.087974444 -0.075912304 0.19149287 0.13064356
-0.013869859 0.23020956 -0.030581763 0.15445325 -0.10570938 -0.1847777 -0.19414046 0.015039306
0.18309692 -0.22281052 0.22447339 0.16838746 0.23949012 0.09378893 -0.20859393 -0.07497411
-0.19610785 -0.114913896 -0.1322076 -0.04425618 0.08874975 0.12752026 -0.043385256 -0.054334354
0.041117907 -0.1579802 0.12684715 -0.17828783 -0.0451808 0.11946259 -0.22638781 0.14901061
0.07413057 0.22351342 0.103886396 -0.11012798 0.19805062 0.20442481 -0.1694716 0.042864397
-0.22983582 -0.1758931 0.15253441 0.19141763 0.09519292 -0.13567728 -0.24677382 -0.07282469
-0.22653653 0.0078761205 -0.030000702 0.220192 0.27215272 -0.07065651 -0.10796826 -0.020271627
-0.009732233 -0.08701658 0.096715994 0.12740001 0.1333593 0.28225157 -0.19308846 0.07796784
00000000: 3a88 3bbe e34f 8fbc 3960 c33b 4d05 99bc
00000010: 2913 f83d 6744 07be d8d9 31be 94b3 533e
00000020: baf5 173e 632b 8c3e 90a0 c43d f888 493e
00000030: daa5 2a3e ddd3 63be e8de 57bd 30b5 d03b
00000040: 7dbe 2d3e 7b1b 85be 1cde 6f3e 1cc1 6fbe
00000050: e9c5 5dbe 7b69 8a3e 8600 acbd 6c60 43be
00000060: 8f50 55be c82c 8d3e 883a fa3d 5619 41bd
00000070: 4a07 de3d 1ed4 4abe cbb3 d1bc 0c95 263e
00000080: ca50 22be 8727 3f3e 0c8e 573d bb34 3f3e
00000090: 60df b9bd fdc5 833e efd6 75bd 8a93 863d
000000a0: 14df 233b 935a 793d b675 a7bd 8415 28bd
000000b0: 00b6 c43c 5aec 0ebe 382d 263e 00fc 003e
000000c0: ade0 843e 44dd 1c3d da19 923d 84d1 47be
000000d0: 8081 12bd 2f55 253c 969b 83bd 70cc 12be
000000e0: c4ec d1bd 8ee6 b6bd c578 cd3c 031b bf3d
000000f0: ae71 2f3d 152a 803d 187a 6c3e d0b2 633e
00000100: 221d 3d3d 161e 303e 0032 fa3d 74fb c8bd
00000110: eed4 eabd e0df 2abe a71e 813e aa3c 753e
00000120: ef66 0bbe dbb7 4c3e 126b cabd 4e6f 05be
00000130: 0e73 7e3e ebb1 2f3e f484 2b3e 9d29 73be
00000140: 4ba3 0c3e c78f e03d f506 48be 91e8 4a3e
00000150: b4c2 ccbc 5082 023e 3f23 07be 4cb8 01be
00000160: a760 4e3e 67e7 033e 5f44 eebd 9769 85bd
00000170: fbfb 353d 65f1 853e ee6e 513e 9d21 933d
00000180: 43d7 63be 3a4a e03d 003d 153e 11fa fa3d
00000190: a702 a43d b67b e03d cd0a 6b3d 42a5 0bbe
000001a0: 8f80 6cbe 1f7b 66be aa52 a8bd 549e 9fbd
000001b0: 4d66 9fbc 386e 05be ead8 803e 8e23 6bbe
000001c0: 432d f13d f2cd 223e e15f 9ebb 6c24 323e
000001d0: fc64 3ebe aff9 73be 61a0 35bd 1057 30be
000001e0: bdb8 11be 53c2 043e 31e4 76be 58ff 85bd
000001f0: 41ff 873e 9b57 bdbd 8d53 4d3e a4b1 e4bd
00000200: 8918 303d 1e2f 5abe 9fc3 74be 50ab 683e
00000210: 5629 573e a3d6 2e3e 0e42 78be c5d5 f63d
00000220: c142 853e f79d e6bc ec06 2c3e e886 293e
00000230: 24e0 2ebe 8336 053e 82f8 fcbd f3f1 e9bd
00000240: 8c32 88be d229 dabd 536f 23be e6e5 b23c
00000250: 219b 05be ce76 fa3c 6246 803e c549 96bd
00000260: fd9b 853d 77b5 57be 8bfc 0c3e 0896 603e
00000270: 6560 0c3e 75a3 24bc e928 74be 34d8 663e
00000280: 8a1b 5fbe 6ba5 41bd 4ba3 57be 9dc7 b3bd
00000290: 90cd 323d 39a5 bd3d 6c73 803e 857a 813e
000002a0: 25a8 743e 950c 84bd 9d49 8fbe 1331 f43c
000002b0: 3e0d 74bc c29f 043e 46dc 61be 3336 1b3d
000002c0: f296 90bb 10a9 88be 226f 61be f46e 093e
000002d0: f6f2 823e b7c0 09bd 488e b53d 5d73 e1bd
000002e0: dbb2 54be e730 3f3e c20f fc3d de03 8ebe
000002f0: f22b b43d e977 9bbd b516 443e 6dc7 053e
00000300: 683e 63bc 0ebc 6b3e 9b86 fabc fe28 1e3e
00000310: 297e d8bd 5e36 3dbe c2cc 46be 6c67 763c
00000320: c27d 3b3e 7128 64be 5adc 653e c36d 2c3e
00000330: e63c 753e 6914 c03d a699 55be 078c 99bd
00000340: 7fd0 48be fa57 ebbd 6e61 07be f845 35bd
00000350: 6ec2 b53d ac94 023e bdb4 31bd b38d 5ebd
00000360: 406b 283d 90c5 21be 38e4 013e 1691 36be
00000370: 810f 39bd cda8 f43d 35d2 67be 3d96 183e
00000380: c5d1 973d b4e0 643e 64c2 d43d c78a e1bd
00000390: c8cd 4a3e bd54 513e f789 2dbe 9492 2f3d
000003a0: 155a 6bbe 521d 34be fb31 1c3e fc02 443e
000003b0: 81f4 c23d fcee 0abe 47b2 7cbe 1c25 95bd
000003c0: 31f9 67be d80a 013c 08c4 f5bc 037a 613e
000003d0: 9a57 8b3e 5cb4 90bd 771e ddbd af10 a6bc
000003e0: f273 1fbc c035 b2bd 0913 c63d 2675 023e
000003f0: 578f 083e 4783 903e fbb8 45be 9aad 9f3d

arith.constant5 f4 [32, 720]
-0.014632261 -0.0695546 -0.12894127 0.06700063 0.04276783 0.06723862 0.025614012 -0.04421055
-0.061820067 -0.037275184 0.07745591 -0.013152112 -0.0761374 0.03786244 -0.020660397 0.062672555
0.010359463 0.05504762 -0.062112402 0.00012546957 -0.0357063 -0.031358827 0.075744525 0.029381704
0.014355022 0.061429497 -0.0034375892 -0.014813655 -0.04695222 -0.02056147 0.039321423 0.062106665
0.017831432 -0.022197802 -0.05382805 -0.04972481 0.08122378 0.05404968 -0.026511516 0.06055854
-0.060518414 0.038967997 0.048117094 0.07232363 0.019718438 -0.032681756 0.07494991 0.07306698
-0.055075303 -0.066079035 -0.05291928 0.023196165 -0.046876736 0.020974021 0.079869285 0.07815522
-0.004865392 -0.10227425 -0.084575236 0.03094339 0.079463355 -0.059790246 -0.07628396 0.024247974
-0.023500739 -0.013721044 0.0058784587 -0.005411922 -0.042439964 -0.017232016 0.081280835 -0.06253281
-0.01656034 0.033775587 -0.05777602 0.053849366 -0.07955699 -0.041679922 -0.020202957 0.064071745
-0.059756342 -0.026324399 -0.008873672 -0.04882778 -0.026029047 -0.06556944 0.009546414 -0.04226197
-0.085334785 0.03389524 -0.028021831 0.041628685 -0.0848414 0.054196753 -0.038520515 -0.054865897
-0.029764593 0.019419262 -0.116624124 0.054793864 0.047106583 0.030382946 0.049080346 0.06806871
-0.115363695 -0.014488435 0.055260703 0.06223523 0.012701821 -0.064425536 -0.12978706 -0.0059756646
-0.034944937 0.08289777 0.026722508 -0.07519653 0.037199076 0.044819616 -0.059401505 0.093210176
-0.055155195 0.086472526 -0.015429847 -0.049956147 0.017561045 -0.041760154 -0.020675309 0.051982593
-0.06254331 -0.038524237 0.019495549 0.040815007 -0.042070746 -0.027845459 -0.076284744 0.036010534
-0.010050716 0.08306767 0.0077135484 -0.02062504 -0.054670095 0.00023392931 0.048559036 0.042379655
-0.08319604 0.059947226 0.023822928 -0.076682575 0.071888015 0.0751628 0.00024917992 -0.025213744
-0.0818433 -0.08365392 0.08693035 0.028739547 -0.060623396 0.030063953 -0.051162418 -0.024728067
-0.07831981 0.049279984 0.0523005 -0.0064801434 0.035388313 -0.10374543 -0.059249837 0.05218182
-0.06900891 0.0038440588 -0.11406235 -0.032770183 0.047155377 -0.0654796 0.03845472 0.065237746
-0.08914233 -0.035926465 0.07773619 0.07322661 0.062745884 -0.04157778 -0.0652727 -0.031233642
0.017056303 0.07796478 0.013988368 0.055208493 -0.031420078 0.0034722835 -0.028924584 -0.029396815
0.07108504 -0.023271231 -0.057195377 -0.035632778 -0.07370828 -0.015366999 -0.026118437 0.05903023
-0.082613155 0.043366898 -0.06636689 0.0719785 -0.035590526 -0.08601187 0.04209271 -0.0712639
-0.053824607 0.07118985 0.008087802 -0.006608285 0.027085705 0.07731792 -0.0657533 -0.03276268
-0.07343876 -0.045017432 -0.10121103 -0.05324215 0.04965522 0.002358971 -0.084088564 -0.012613928
-0.074411176 -0.082518324 0.03015099 -0.0415362 0.061328817 -0.08965588 -0.060522325 -0.06621076
-0.068654664 -0.018830467 0.0035283156 0.006509315 -0.023159519 0.061775107 -0.0019917642 -0.033334553
0.027202997 0.0135843 -0.100506015 0.09323284 -0.009170944 0.039612938 0.057098486 0.002389725
-0.013014565 0.020062027 -0.074544534 -0.0778673 -0.016302017 -0.013376985 0.023712695 -0.08031817
00000000: 27bc 6fbc a472 8ebd 2e09 04be a037 893d
00000010: 522d 2f3d 67b4 893d 7ad4 d13c 1f16 35bd
00000020: 0a37 7dbd ddad 18bd 34a1 9e3d f57b 57bc
00000030: eded 9bbd a515 1b3d fe3f a9bc 785a 803d
00000040: bdba 293c 9d79 613d 9369 7ebd 7b90 0339
00000050: c540 12bd 1d72 00bd f21f 9b3d e6b1 f03c
00000060: 5431 6b3c 7f9d 7b3d 2d49 61bb f9b4 72bc
00000070: f950 40bd 8770 a8bc 800f 213d 8f63 7e3d
00000080: 3913 923c 2ad8 b5bc cd7a 5cbd 3eac 4bbd
00000090: a758 a63d 3263 5d3d ae2e d9bc 3b0c 783d
000000a0: 28e2 77bd e89c 1f3d 6e16 453d 691e 943d
000000b0: 9088 a13c 4edd 05bd 577f 993d 24a4 953d
000000c0: a496 61bd 7254 87bd e3c1 58bd e205 be3c
000000d0: d201 40bd b6d1 ab3c 8292 a33d d80f a03d
000000e0: de6d 9fbb 2975 d1bd c835 adbd fe7c fd3c
000000f0: afbd a23d 9ee6 74bd c43a 9cbd b0a3 c63c
00000100: 9f84 c0bc 3bce 60bc 16a0 c03b 7e56 b1bb
00000110: 87d5 2dbd 282a 8dbc 9176 a63d 3411 80bd
00000120: 8da9 87bc 4558 0a3d 8ca6 6cbd 2791 5c3d
00000130: c6ee a2bd 91b8 2abd ac80 a5bc 0c38 833d
00000140: 11c3 74bd 44a6 d7bc e162 11bc a3ff 47bd
00000150: de3a d5bc 4549 86bd 9068 1c3c e31a 2dbd
00000160: 01c4 aebd bcd5 0a3d 0a8e e5bc d782 2a3d
00000170: 54c1 adbd 6afd 5d3d b0c7 1dbd 10bb 60bd
00000180: e0d4 f3bc 2515 9f3c a1d8 eebd 886f 603d
00000190: d5f2 403d a8e5 f83c 7908 493d 9c67 8b3d
000001a0: cd43 ecbd e760 6dbc 0c59 623d 5eea 7e3d
000001b0: 4c1b 503c 89f1 83bd e6e6 04be 82cf c3bb
000001c0: 6c22 0fbd 4ec6 a93d 29e9 da3c a300 9abd
000001d0: 0f5e 183d c694 373d fe4e 73bd fae4 be3d
000001e0: 6aea 61bd 8218 b13d 78cd 7cbc d19e 4cbd
000001f0: 2edc 8f3c b20c 2bbd 445f a9bc b3eb 543d
00000200: b516 80bd 97cb 1dbd 21b5 9f3c a32d 273d
00000210: 6052 2cbd 291c e4bc 2d3b 9cbd c87f 133d
00000220: c2ab 24bc 621f aa3d efc1 fc3b d8f5 a8bc
00000230: c0ed 5fbd ec4a 7539 d7e5 463d 4a96 2d3d
00000240: af62 aabd 398b 753d 4d28 c33c c10b 9dbd
00000250: 063a 933d f4ee 993d 5da4 8239 0e8d cebc
00000260: 769d a7bd bf52 abbd 8a08 b23d 336f eb3c
00000270: 3d50 78bd ae48 f63c af8f 51bd 8492 cabc
00000280: 2366 a0bd cfd9 493d 0d39 563d 6257 d4bb
00000290: 56f3 103d 7c78 d4bd f5af 72bd 9bbc 553d
000002a0: 8b54 8dbd 9bec 7b3b 8599 e9bd 073a 06bd
000002b0: ff25 413d 2b1a 86bd b282 1d3d 5e9b 853d
000002c0: 4190 b6bd a127 13bd 2734 9f3d d5f7 953d
000002d0: ea80 803d 764d 2abd b1ad 85bd b2dd ffbc
000002e0: a9b9 8b3c 00ac 9f3d 782f 653c 4d22 623d
000002f0: 57b2 00bd 408f 633b 40f3 ecbc 97d1 f0bc
00000300: 0995 913d 4fa3 bebc b345 6abd adf3 11bd
00000310: 5ef4 96bd dec5 7bbc 55f6 d5bc afc9 713d
00000320: 1631 a9bd 7da1 313d 5deb 87bd 7769 933d
00000330: 5fc7 11bd fe26 b0bd 6869 2c3d cff2 91bd
00000340: 3177 5cbd fccb 913d b382 043c 508a d8bb
00000350: d7e2 dd3c dc58 9e3d aba9 86bd 2932 06bd
00000360: 1067 96bd 3364 38bd ba47 cfbd 7114 5abd
00000370: 4663 4b3d f798 1a3b a036 acbd a6aa 4ebc
00000380: e364 98bd 5eff a8bd 35ff f63c dd21 2abd
00000390: ed33 7b3d 819d b7bd 42e6 77bd 8299 87bd
000003a0: d19a 8cbd 5a42 9abc 503b 673b 184c d53b
000003b0: 08b9 bdbc e507 7d3d 4288 02bb d089 08bd
000003c0: d2d8 de3c af90 5e3c 19d6 cdbd dcf0 be3d
000003d0: ba41 16bc 2d41 223d 1ae0 693d ef9c 1c3b
000003e0: 0b3b 55bc 1f59 a43c ceaa 98bd e478 9fbd
000003f0: cf8b 85bc 242b 5bbc 2041 c23c da7d a4bd

arith.constant6 f4 [3]
0.09126897 -0.06403419 -0.08094558
00000000: 3aeb ba3d 5b24 83bd ccc6 a5bd

arith.constant7 f4 [32]
-0.022424461 -0.077459715 -0.027831696 -0.078074515 0.12410265 -0.026741426 -0.020359222 0.108253665
0.09025474 0.07602174 -0.025483549 0.08274515 0.045694254 -0.014417347 0.032601498 -0.05842255
0.015729534 -0.059914906 -0.075510114 -0.030565552 -0.06764068 0.14360557 0.08808033 0.05918827
0.08860342 -0.0076567666 0.04655962 -0.027300866 0.0409652 -0.0810606 -0.054022063 0.035535205
00000000: 81b3 b7bc 33a3 9ebd 4cff e3bc 88e5 9fbd
00000010: 8829 fe3d d610 dbbc 62c8 a6bc 19b4 dd3d
00000020: 7ad7 b83d 49b1 9b3d e0c2 d0bc 4a76 a93d
00000030: e629 3b3d bc36 6cbc 2689 053d 7c4c 6fbd
00000040: 39db 803c 5569 75bd 0ca5 9abd 9c64 fabc
00000050: 3287 8abd 570d 133e 7663 b43d 666f 723d
00000060: b675 b53d 9de5 fabb 4db5 3e3d 11a6 dfbc
00000070: 20cb 273d 1a03 a6bd 3d46 5dbd 5d8d 113d

arith.constant8 f4 [48]
-0.004889435 -0.039439093 0.072863854 0.021685598 -0.007511541 0.005032084 0.09584308 1.5580612e-05
0.016946418 -0.068130575 0.08707613 0.071615 -0.030748725 -0.04627912 0.06608788 0.029021496
0.06425068 -0.05994084 0.047874164 0.072204515 -0.060568225 -0.040140748 0.07341144 0.13088371
0.08392249 -0.02712179 0.08291848 -0.03722278 -0.093329705 0.008074202 0.0027750751 -0.07082349
-0.034589715 -0.0017979646 0.08163104 0.012372416 -0.018627618 0.06841208 -0.016685504 0.034486085
-0.044534117 0.0820467 0.052613817 -0.014508235 -0.0030354394 0.04911864 -0.0066912896 -0.07194824
00000000: 8e37 a0bb e38a 21bd a539 953d ffa5 b13c
00000010: 5f23 f6bb 2ee4 a43b 6049 c43d 1cb3 8237
00000020: 37d3 8a3c 0b88 8bbd f854 b23d e3aa 923d
00000030: c0e4 fbbc 2d8f 3dbd 1559 873d 7dbe ed3c
00000040: dc95 833d 8784 75bd b317 443d f6df 933d
00000050: 6316 78bd a06a 24bd bd58 963d 6106 063e
00000060: 8edf ab3d 842e debc 2ad1 a93d ea76 18bd
00000070: a523 bfbd a849 043c 09de 353b e80b 91bd
00000080: f2ad 0dbd aea9 ebba 2d2e a73d adb5 4a3c
00000090: f298 98bc a21b 8c3d 0ab0 88bc 4841 0d3d
000000a0: 6869 36bd 1a08 a83d 9681 573d f3b3 6dbc
000000b0: 39ee 46bb a130 493d 9b42 dbbb 9959 93bd

arith.constant9 f4 [48]
-0.03713577 0.014038931 -0.041112203 -0.045090232 -0.058660064 -0.018108636 0.058016554 0.07396195
0.08975147 -0.04592994 0.059638027 -0.037136164 0.03678598 0.06898772 0.08082737 -0.01404434
-0.012404548 -0.050393492 -0.049845338 -0.0252669 0.0007506599 0.03958483 0.025650423 -0.07635923
-0.036178313 -0.054774966 0.061323732 0.024668207 -0.03195085 0.013210653 0.097474225 0.0830575
-0.051398218 -1.7841235e-10 -0.030775854 0.09777332 0.04241968 0.033665247 -0.051376488 -0.023729533
0.012955108 -0.06582986 0.095532194 0.07822665 -0.015812943 0.003205854 -0.0013992074 0.08310771
00000000: ad1b 18bd 8b03 663c 4565 28bd 89b0 38bd
00000010: 8945 70bd 9058 94bc c4a2 6d3d 5d79 973d
00000020: 9ecf b73d 0821 3cbd 0147 743d 171c 18bd
00000030: e5ac 163d 6f49 8d3d d288 a53d 3b1a 66bc
00000040: 723c 4bbc 6869 4ebd a02a 4cbd 88fc cebc
00000050: efc7 443a b423 223d d620 d23c 3a62 9cbd
00000060: b62f 14bd b75b 60bd 982e 7b3d fb14 ca3c
00000070: e5de 02bd 7f71 583c 91a0 c73d 0d1a aa3d
00000080: f086 52bd 9d2a 44af a51d fcbc 613d c83d
00000090: 42c0 2d3d 92e4 093d 2770 52bd 7064 c2bc
000000a0: a941 543c ced1 86bd 62a6 c33d 4b35 a03d
000000b0: 258a 81bc 4e19 523b 9c65 b7ba 6034 aa3d

arith.constant10 f4 [48]
0.06647466 -0.0035350448 0.07482123 0.023839349 -0.0575844 -0.0049348404 0.058790542 -0.013238265
0.011388637 0.09804602 0.0102188075 0.019977512 0.00012190819 -0.06501128 -0.0019955894 0.05275629
-0.016499821 0.050912008 0.0850343 -0.036923464 -0.017869728 0.0619695 -0.0010114427 0.0042193676
-0.022977734 0.043863427 0.010857106 -0.021631356 -0.019176587 0.038534883 0.08781022 -0.014289006
0.040398203 0.030164775 0.06707715 0.034445472 -0.015146344 0.016478732 0.0628817 0.027230643
-0.05336872 -0.012350529 -0.011545484 0.035429496 0.030155938 -0.022732098 -0.007109375 -0.04128259
00000000: de23 883d 36ac 67bb df3b 993d bd4a c33c
00000010: 9fdd 6bbd 71b4 a1bb 5ace 703d 4fe5 58bc
00000020: 6897 3a3c 5acc c83d c96c 273c e1a7 a33c
00000030: f6a8 ff38 a224 85bd 6fc8 02bb fb16 583d
00000040: a22a 87bc 1c89 503d 7726 ae3d 0f3d 17bd
00000050: 8963 92bc bbd3 7d3d 6392 84ba 9f42 8a3b
00000060: cd3b bcbc 23aa 333d 01e2 313c 3e34 b1bc
00000070: 3818 9dbc c1d6 1d3d d8d5 b33d 6f1c 6abc
00000080: 9678 253d 1e1c f73c bf5f 893d b216 0d3d
00000090: 5f28 78bc 68fe 863c 1fc8 803d cc12 df3c
000000a0: 2999 5abd e059 4abc 4529 3dbc 851e 113d
000000b0: 9609 f73c aa38 babc c3f5 e8bb ef17 29bd

arith.constant11 f4 [32]
0.002838896 0.09138088 0.01711697 0.021521984 -0.036773976 0.03127016 0.018520163 0.0773225
-0.037137505 -0.012629793 -0.006802447 0.016590286 0.060681082 0.022909192 0.028313398 -0.027399773
-0.008614738 0.071655326 0.01618354 0.028435167 -0.00425294 0.0013750526 0.028216213 -0.06188547
0.012665482 0.071366236 0.01199868 0.009721034 0.015198013 -0.037184883 0.005263097 0.053494927
00000000: c50c 3a3b e625 bb3d e338 8c3c df4e b03c
00000010: 4fa0 16bd 2415 003d 99b7 973c 425b 9e3d
00000020: 7f1d 18bd 31ed 4ebc 10e7 debb 5ae8 873c
00000030: ba8c 783d 0fac bb3c 80f1 e73c 7d75 e0bc
00000040: d424 0dbc 07c0 923d 5893 843c def0 e83c
00000050: 3f5c 8bbb 1c3b b43a b025 e73c 9e7b 7dbd
00000060: e282 4f3c 7628 923d 1d96 443c f944 1f3c
00000070: 1601 793c 2d4f 18bd 0f76 ac3b 7f1d 5b3d
