model/model.tflite (tflite, 147188 bytes, 16 tensors)

arith.constant f4 [3, 32]
000000 86 b0 43 bd 43 fe 24 be c0 66 9a be 89 bf 91 be
       -0.047775768 -0.16112618 -0.30156517 -0.28466442
000010 22 da 91 be 94 dc 3b 3d 1d 04 bd be ff b2 69 3e
       -0.28486735 0.045864657 -0.369172 0.22822188
000020 1d fe 52 3e 8a 87 6e 3e 4d 8f 36 be 43 d6 94 be
       0.20604749 0.23293892 -0.17828102 -0.2906972
000030 a0 06 3d bd 75 1a e8 3e f0 ca aa 3e 7d cb 8b 3e
       -0.046148896 0.45332685 0.33357954 0.27303687
000040 f0 15 9a bc f7 bb 92 3e 51 ff 48 3d 3c ac 19 be
       -0.018809289 0.2865903 0.049071614 -0.15007108
000050 58 a3 7b 3e a9 2c 05 be 3a 25 b1 3e bf ff 8f 3e
       0.2457403 -0.13005318 0.34598714 0.28124806
000060 fc a2 2f 3e da bc 54 be 7b 48 96 be ef 3e c0 be
       0.17152017 -0.20775166 -0.29352173 -0.37548015
000070 f3 51 a0 3e 54 65 bb 3e 3e 32 a4 be 65 87 12 be
       0.31312522 0.36600745 -0.32069582 -0.14309461
000080 f0 ea c9 be 60 69 73 be 2f 1e 9b 3e 05 c0 8f 3e
       -0.39437056 -0.23770666 0.30296466 0.28076187
000090 20 87 82 bd 87 72 05 bd f5 29 7d bd 93 c9 48 be
       -0.06373429 -0.032579925 -0.06180759 -0.19608144
0000a0 ba 3a ab bd c2 27 35 bd 6e eb b0 be 6d 73 b2 be
       -0.083608106 -0.04422737 -0.3455462 -0.34853688
0000b0 a7 be 29 be 60 95 df 3c 88 6d 67 bd 55 6a dd be
       -0.16576634 0.027292907 -0.05650094 -0.43245187
0000c0 2f 0f a2 be 59 56 ab be 7d 77 b8 be 12 35 29 bd
       -0.3165221 -0.33464316 -0.36028662 -0.041310377
0000d0 5a 5f c1 3e 3b 1a 7a 3e 0d 9c 9f 3e 3f 3c ae 3e
       0.3776806 0.24424069 0.31173745 0.3403034
0000e0 52 91 9c 3d 8c 3b 6f be 97 0f 6b 3e e3 6d 23 3e
       0.07644905 -0.23362559 0.22955166 0.15959887
0000f0 86 a2 91 3e 1d 14 2e 3e 32 a6 20 be 92 92 b3 bc
       0.28444308 0.1699986 -0.15688398 -0.021920476
000100 06 33 dd 3d 94 f0 7d 3e b8 33 53 be d4 c2 a6 bd
       0.108007476 0.24798805 -0.20625198 -0.08142629
000110 08 30 40 be fd d4 cb be a2 76 33 be 02 77 a5 3c
       -0.18768322 -0.39810935 -0.17525724 0.020198349
000120 1e 8a 3a 3d db 49 3c be 52 f8 8e be 1a 65 d5 3e
       0.045541875 -0.18387549 -0.27923828 0.41678697
000130 e0 b1 74 be 74 f3 09 be b8 d3 ca 3e a5 6d 86 be
       -0.23895979 -0.13471776 0.39614654 -0.26255527
000140 47 fa ca 3e 0a 7b b5 3e 2e 30 94 3e 56 88 c9 be
       0.3964407 0.35445434 0.28943008 -0.3936183
000150 3f 69 9d 3e 14 a0 1b 3e a3 ee 67 be dd 7c 1f 3e
       0.3074436 0.15197784 -0.22649626 0.15574975
000160 37 10 c1 be 4c 09 be bd ee ac 86 be 97 0c 58 be
       -0.37707683 -0.09279117 -0.2630381 -0.21098553
000170 89 21 e0 bc a2 f0 87 bd 6d de d0 3e 46 db 7d 3e
       -0.02735974 -0.06637694 0.40794697 0.24790677

arith.constant1 f4 [32, 48]
000000 9b a9 3d 3e 91 ba 01 3e e4 87 7e 3d d4 50 64 3d
       0.1852173 0.12668826 0.062141314 0.055741146
000010 b1 29 52 3e 72 73 40 3e 39 6b 39 be 49 d0 e0 3d
       0.20523717 0.18794039 -0.18107308 0.10977227
000020 5c ca fd 3d 8e 9e 79 be a7 9b d6 3d c4 e7 bb 3c
       0.123921126 -0.2437689 0.10478907 0.022937663
000030 5f 2d 4d bd c3 55 68 bd 50 cd 51 3d 7d bd 0c 3d
       -0.050092097 -0.056722414 0.051221192 0.034360398
000040 84 eb 52 3e 41 a5 bb 3c f8 c0 13 be 4e 8e ea 3d
       0.20597655 0.022905948 -0.1442908 0.11452924
000050 99 bd 74 be f7 de 8a 3e f4 39 8f bd 1d c2 e7 bd
       -0.23900451 0.27123234 -0.069934756 -0.11316321
000060 cd 5e c8 3d 3b 23 42 3e 03 99 c2 3d 08 79 65 bd
       0.09783707 0.18958752 0.09501841 -0.056023628
000070 a5 9f 7d 3e 84 64 80 be 9b d6 02 3e 2c b3 44 3e
       0.24767931 -0.25076687 0.12777178 0.19208974
000080 e1 34 4a be 34 cc 90 3d fa 98 5a 3e 4e 40 13 3c
       -0.19746734 0.07070199 0.21347418 0.008987499
000090 1e 90 87 be 98 36 87 3d 67 bd 81 be 88 e8 f6 bd
       -0.2647714 0.0660221 -0.25339815 -0.120560706
0000a0 07 7d de 3d 8a 4b c5 3c e8 d2 ae 3d 6e e5 55 3e
       0.10863691 0.024083871 0.08536321 0.20888302
0000b0 fe 82 5c 3e 18 6f c0 bd e5 56 17 3c a1 f8 d4 3d
       0.21534345 -0.093961895 0.009237026 0.10398985
0000c0 9e 8d 39 be 46 de 3f 3e 56 f4 56 be f8 e4 25 3e
       -0.18120429 0.18737134 -0.20991644 0.16200626
0000d0 2c ba ad 3d 6e 01 86 be f2 59 87 be 28 e1 7d be
       0.08482775 -0.26172966 -0.2643581 -0.24792922
0000e0 fd a3 84 be 17 45 60 3e 18 6c 4c 3d d9 42 74 be
       -0.25906363 0.21901356 0.049907774 -0.23853625
0000f0 74 90 18 3e 8a 0c 4a 3d 40 57 65 3e 68 0e 04 3e
       0.14898854 0.049328364 0.22396564 0.1289612
000100 7a e6 65 3e 24 d4 56 bd f1 1f fb 3d 65 af 39 be
       0.22451201 -0.052448407 0.12261952 -0.18133314
000110 f9 4d 71 3e 9f 3e 3d bd 68 93 7b bd e2 79 81 3e
       0.235649 -0.0462023 -0.061419874 0.25288302
000120 ad 41 53 be da 51 d0 3b 18 4e 8b be 88 59 d5 3d
       -0.20630522 0.0063574137 -0.27208018 0.10417467
000130 af 01 b8 bc f3 ba b1 bd 89 e5 80 be db 8b 1b bd
       -0.02246174 -0.08678236 -0.2517512 -0.037975173
000140 23 ab 92 3d 18 9a 89 be 7c 76 73 be 9e e0 66 3d
       0.07161548 -0.26875377 -0.23775667 0.056366555
000150 c0 92 3a be 3d 23 0c 3e da e3 7b 3d 68 96 9c bd
       -0.18220043 0.13685317 0.061496593 -0.07645875
000160 cd a5 92 be eb d1 68 3e a9 3a 80 3d 6c 03 91 3d
       -0.2864212 0.22736327 0.062611885 0.07080731
000170 8e fe d2 3c 5b 7c 4f be cb 2c 73 3e 50 f2 20 be
       0.025756147 -0.20262282 0.23747556 -0.15717435
000180 ea 65 83 3d c9 16 0e bd 1c ac 56 bc 64 35 a2 bd
       0.06415923 -0.0346897 -0.0131025575 -0.0792034
000190 75 dc 81 3e 86 bb ab 3c 37 77 89 3e 76 21 99 3d
       0.25363508 0.020963442 0.26848766 0.07477085
0001a0 1b c6 a4 3d 51 48 81 bc 07 1b 7a be 88 fe f6 bd
       0.08045598 -0.015781553 -0.24424373 -0.12060267
0001b0 cd d3 ba 3d 44 77 29 3e cd d6 69 3d d1 cf 3e 3e
       0.09122429 0.16549402 0.057089616 0.18633963
0001c0 d5 43 c5 bd 96 15 4a be 97 71 e0 bd e7 1d 84 3e
       -0.096320786 -0.19734797 -0.109591655 0.25804064
0001d0 a4 d5 13 be 6d 5d b5 3d 00 9f e9 ba 11 05 86 bd
       -0.14436966 0.0885571 -0.0017823875 -0.06543935
0001e0 08 36 62 be 2d 26 36 3e 70 0e 55 3d dc 17 46 bd
       -0.22090924 0.17788 0.05201572 -0.048362598
0001f0 a6 29 c6 bd 93 27 6a be 79 67 0f be 12 00 4a be
       -0.096759126 -0.22866659 -0.14004315 -0.1972659
000200 5d 17 43 be 2d 0c 89 bc f6 47 e3 3c 23 06 62 3e
       -0.19051881 -0.016729439 0.027744275 0.22072653
000210 40 8b 84 3e 4d 9b 37 be 9e f6 59 bc 94 b4 65 be
       0.2588749 -0.17930336 -0.013303427 -0.22432166
000220 0a fa 79 be 35 92 1d 3e 28 16 70 be 81 91 6a 3d
       -0.24411789 0.15387805 -0.23445952 0.05726767
000230 b3 f8 c5 bd 5a 5d 47 be eb 2f 5e 3e f5 b8 a4 be
       -0.09666576 -0.19469205 0.21697967 -0.3217236
000240 6f 0a 53 be 22 1f 34 bc f7 8e 7c be ce 1c 3c 3e
       -0.20609449 -0.010993751 -0.24663912 0.18370363
000250 27 76 c6 bd 15 f4 75 3e 2f 59 33 3e 05 83 4e 3e
       -0.096905045 0.24018891 0.1751449 0.20167167
000260 29 14 4e 3e 50 60 85 3e 16 17 db 3b aa 6c 87 3e
       0.20124878 0.26050043 0.0066861017 0.26450092
000270 82 ae 88 be 37 8c 13 be 87 78 32 be c5 fd 43 3e
       -0.2669564 -0.14408956 -0.1742879 0.19139774
000280 c2 59 80 be 16 aa 3e be a0 89 9f bc 0d a2 a5 bd
       -0.2506848 -0.1861957 -0.019474804 -0.08087549
000290 3f bb 81 be 13 39 cc 3c d4 35 61 bd 61 0c 91 bd
       -0.2533817 0.024929559 -0.054982975 -0.07082439
0002a0 25 d3 19 3e c8 d6 91 3d 10 09 90 3d 14 f1 03 3e
       0.15021951 0.071210444 0.070329785 0.12884933
0002b0 fb 9c 71 bd e0 be ff bd ff 76 71 3d 05 af 53 3e
       -0.0589876 -0.124875784 0.058951374 0.20672233
0002c0 20 a5 70 be 6e 77 96 bc d9 bb 72 bc a5 d8 4c bd
       -0.2350049 -0.018367495 -0.014815294 -0.050011296
0002d0 ac fd 56 be dd 32 33 3d 9e 23 8d bc c2 82 80 3e
       -0.20995206 0.04374968 -0.017228898 0.2509976
0002e0 36 a7 53 be a5 19 48 be fe 92 d9 bc f8 a0 18 be
       -0.20669255 -0.19541033 -0.02655935 -0.14905155
0002f0 98 9d c7 3d c4 da f2 3d d4 86 4f be a5 02 5e be
       0.097468555 0.118581325 -0.20266277 -0.21680696
000300 1f 35 31 3d ae c9 e3 bd ce d4 6e 3e 1d e6 5d 3d
       0.04326355 -0.11122452 0.23323366 0.05417453
000310 10 be 74 3d 13 1b 85 3e 1a e7 26 bd 9c c2 3c bd
       0.05975157 0.25997218 -0.04074774 -0.04608403
000320 48 d5 0d be 06 d3 80 bc f9 03 bb bd 69 20 52 3e
       -0.13850892 -0.015725624 -0.09131617 0.20520176
000330 f7 dc 76 be 2c 8d 0d 3e 40 30 81 3e 33 f9 75 3e
       -0.24107729 0.13823384 0.25232124 0.24020843
000340 fd 59 eb 3b 63 fa 06 be 71 17 5d 3e 3a 44 55 be
       0.0071823583 -0.13181452 0.21590973 -0.20826808
000350 f7 4e 80 3e 46 9c a7 bd e0 5d 48 bd 20 b4 87 3d
       0.25060245 -0.08184104 -0.04891765 0.06626153
000360 f0 16 86 3e 1c 58 8f 3d 2f 86 3a 3d 5e 59 8a 3e
       0.26189375 0.069992274 0.045538124 0.27021307
000370 9a c3 93 3c 74 fa 39 3e 9a 16 20 3e eb 09 c7 3d
       0.018037606 0.18161947 0.15633622 0.097186886
000380 22 6c 8a 3d 5e 34 36 3e 19 ea 0b 3d 0f 4e 02 be
       0.06758906 0.17793414 0.0341588 -0.1272509
000390 2d f0 59 bd 90 b3 3c be b8 32 00 be 9c 62 73 3e
       -0.053207565 -0.18427873 -0.12519348 0.23768085
0003a0 c1 dc 53 bd b8 96 32 3e 53 1a 74 be a4 cc 64 3e
       -0.0517242 0.17440307 -0.23838167 0.22343689
0003b0 6c 27 6f 3b 42 4b 81 be 8f 9c 49 3e 7d e3 70 be
       0.0036492003 -0.2525273 0.19688629 -0.2352428
0003c0 80 0f 44 3d 8d 3e fe bc bd 82 98 3d 4d fa 78 3e
       0.047866344 -0.031035686 0.07446811 0.24314232
0003d0 e5 5e 71 bd ae 18 49 be 7d f1 30 3d 0e f1 84 3e
       -0.05892839 -0.19638321 0.04319905 0.2596516
0003e0 42 23 0e 3e 01 15 81 3c 28 e9 59 bc 03 c3 5e 3e
       0.13880637 0.015757086 -0.013300218 0.21754079
0003f0 be be 9a bd 59 9e a0 3d 39 3a 8a be a7 63 16 3e
       -0.075559124 0.078427024 -0.26997545 0.14686452

arith.constant2 f4 [48, 48]
000000 bb d1 61 be fa 63 e4 3d a1 60 fa 3c f3 79 23 be
       -0.22052662 0.111518815 0.030563654 -0.15964489
000010 89 20 45 be be 0e 40 be b8 d5 24 be dd 04 fd 3d
       -0.19250692 -0.18755624 -0.16097152 0.12354443
000020 06 93 24 3e 27 f4 75 3e bd df 48 bd 7c 58 d8 3d
       0.1607171 0.24018918 -0.0490415 0.10563752
000030 bd 35 94 bd d9 4c 1e 3e e9 4f 33 be 78 02 f8 bd
       -0.07236812 0.15459003 -0.17510952 -0.12109846
000040 47 76 b9 3c 1b 45 e6 bc 00 ba dc bd 17 d7 70 3e
       0.022639407 -0.028109124 -0.10777664 0.2351955
000050 4a b1 04 be 30 cb 26 be 55 99 54 be 6c 57 b1 3d
       -0.12958255 -0.16288447 -0.20761617 0.086592525
000060 96 53 e5 3d 40 be b9 3d 40 0c 74 3e 2d 61 85 bd
       0.111975834 0.090694904 0.23832798 -0.065126754
000070 3b 4f 2e be 1a 7b 70 3e d8 7a f0 bd 80 ec d5 bd
       -0.17022412 0.2348446 -0.117421806 -0.104454994
000080 ac 0f 0b 3e ab 74 55 bd 50 fc 74 be 92 7e 27 3e
       0.13580197 -0.052113216 -0.23924375 0.16356876
000090 00 23 99 bd a0 04 f3 3c aa f3 63 bd 78 7c 2f be
       -0.07477379 0.029665291 -0.055652298 -0.17137325
0000a0 91 0e 15 3d f8 cc 5b be 4f 73 c0 3d 55 2e 0f 3e
       0.036390845 -0.21464908 0.09396993 0.13982518
0000b0 a1 f8 80 be 46 77 67 be 38 9e 16 be 32 da 09 3e
       -0.2518969 -0.22604093 -0.14708793 0.13462141
0000c0 77 84 27 3e 01 56 60 3e b2 cf 3f be 62 a5 bd bc
       0.16359125 0.21907808 -0.18731573 -0.02315015
0000d0 20 a2 09 be 9b b4 57 3e a8 ee 74 3e f9 74 26 be
       -0.13440752 0.2106499 0.23919165 -0.16255559
0000e0 4e 67 0a 3d 30 aa fb 3c aa ad 34 be eb 9a 0a bd
       0.033789925 0.0307208 -0.17644373 -0.033839148
0000f0 43 dd 9a 3d 0f c5 78 bd 32 ef 75 be f6 45 24 3e
       0.075617336 -0.060734805 -0.24017027 0.16042313
000100 39 ab 4d 3e 82 97 1f be 9e 39 97 3d c0 5d ac bd
       0.20084848 -0.1558514 0.073840365 -0.08416319
000110 81 e6 4a 3d c0 b5 39 3e 76 bd 88 bc a0 36 d3 3d
       0.049536232 0.18135738 -0.016691905 0.10313153
000120 11 8e 8b bd 56 1a 4f 3e eb 04 1a 3d 3d d2 38 3e
       -0.068142064 0.2022489 0.037602346 0.1804895
000130 4f e5 e9 bd 3a ef 33 3e de de c3 3d 88 0b fa 3d
       -0.1142069 0.17571726 0.09563993 0.12209231
000140 70 89 25 3d c9 67 2e 3e 17 52 04 be 62 a0 2c 3e
       0.040414274 0.17031778 -0.1292194 0.16858056
000150 cf bc 0e be 49 54 33 3d 05 92 35 be 24 0f 72 be
       -0.13939212 0.043781552 -0.17731483 -0.23638588
000160 1c 1c c6 3d 1e c0 47 3e 08 36 55 3e 33 92 1f 3e
       0.0967333 0.1950688 0.20821393 0.15583114
000170 e8 d0 87 3d 97 55 1b be a8 23 09 be 87 6c 23 be
       0.066316426 -0.15169369 -0.13392508 -0.15959369
000180 db 78 fe bc a5 29 0a be 8a 3a 04 be 40 97 00 ba
       -0.031063488 -0.13492449 -0.12912956 -0.00049053505
000190 55 a6 7e be 16 13 77 be 46 5e 11 3d 4b 95 4f bd
       -0.24868138 -0.24128374 0.035490297 -0.050679486
0001a0 09 34 52 be bc 8f f3 bd 53 3e 85 3d f6 14 9e 3c
       -0.20527662 -0.118926495 0.06506028 0.019297104
0001b0 ce d7 cf 3d b7 6c 3f 3e 7c 42 6b be b6 b9 19 3e
       0.10148583 0.18693815 -0.2297458 0.1501225
0001c0 8c da 2a 3e 68 89 7f 3e 80 a1 0c bc 0c 41 09 3e
       0.16684932 0.2495476 -0.0085834265 0.1340372
0001d0 55 c8 07 3d ba 5e 28 be d5 e9 60 be ec db 37 be
       0.033150036 -0.16442385 -0.219642 -0.17954987
0001e0 6a 3c 63 be 11 95 50 be f5 48 2f 3e 11 23 c0 3d
       -0.22191015 -0.20369364 0.17117675 0.093816884
0001f0 72 43 84 be 1a 59 e5 3d c4 52 1c be b8 12 a1 bd
       -0.25832707 0.111986354 -0.15265948 -0.078648984
000200 80 80 be bb 73 ac 7d 3e 49 22 10 3e 88 1d e8 3d
       -0.0058136582 0.24772815 0.14075579 0.11333758
000210 97 ce 5a 3e 64 44 83 bc 55 90 06 3d 45 6a a5 3c
       0.2136787 -0.016023822 0.03285249 0.020192275
000220 a9 1a 9c bc 8c 70 30 be a7 4c 2a bd 69 6e 08 3e
       -0.019055681 -0.17230433 -0.041577008 0.13323368
000230 4a bb e0 3d 46 c6 e0 bd 67 2f 0b bb 2f 51 64 3c
       0.109732226 -0.10975318 -0.002123797 0.013935371
000240 e6 6f 69 3e 80 7d f8 3d 33 c6 97 bd 98 1e 05 3e
       0.22796592 0.12133312 -0.074108504 0.12999952
000250 b7 c3 1f 3e f4 11 6a be 66 53 b8 bd f1 11 39 bd
       0.15602003 -0.22858411 -0.09000282 -0.045183126
000260 8e 39 4a 3e 00 4d 1f 3e 9d 93 8a 3d ce d2 12 be
       0.19748518 0.15556717 0.06766436 -0.14338228
000270 ae fe 5b 3d 72 ff d1 bd 31 91 e4 bd e9 0e 49 be
       0.05370968 -0.102538005 -0.111605056 -0.19634594
000280 a0 f4 2c be ba 57 c3 3d 1e 3f 2b 3d 0a e8 80 bd
       -0.16890192 0.09538217 0.04180824 -0.06294258
000290 49 cf bd 3d 64 0d fd bd 3a b5 53 3e 7c 9d 0d 3e
       0.09268052 -0.1235607 0.20674601 0.13829607
0002a0 68 b5 17 3e a6 18 23 bd 82 fb 26 be 6c d6 64 3e
       0.14815295 -0.03981843 -0.1630688 0.2234742
0002b0 02 2f 2f 3e 69 a6 5d be 10 91 47 3e 64 1c 5b be
       0.17107776 -0.21645512 0.1948893 -0.21397549
0002c0 18 e3 7c be 1a cd 59 be e9 99 18 be 47 83 bd bd
       -0.24696004 -0.21269646 -0.14902462 -0.09253555
0002d0 73 6b a5 bd 0b 67 50 3d 36 bc 81 3e 00 30 85 3c
       -0.08077135 0.05087952 0.25338906 0.01625824
0002e0 eb da 99 bd 1f 5a cb bb cb 78 52 be 95 80 01 be
       -0.075124584 -0.0062058116 -0.20553891 -0.12646706
0002f0 de 36 c9 bd 61 14 28 be f8 80 26 be e3 60 0c bd
       -0.09824918 -0.16414024 -0.16260135 -0.034272086
000300 7c 66 24 be 36 e6 8b bd fd e2 39 3e cf 7c c9 3d
       -0.1605472 -0.068310186 0.18152995 0.098382585
000310 c4 20 84 3e 19 67 02 be 1e e8 44 be de e6 01 be
       0.25806248 -0.12734641 -0.1922917 -0.12685725
000320 2f 71 63 3e 03 79 aa bd e4 6a 14 be 4e a2 c1 bb
       0.22211145 -0.083238624 -0.144939 -0.005909241
000330 d3 52 33 3e 06 02 0a bd 9b 14 a2 3d 2d 6a 41 be
       0.17512064 -0.033693336 0.079140864 -0.18888159
000340 fb f3 34 bd 07 3d c8 bc e7 4c bf bc 7b b1 a7 bd
       -0.04417799 -0.024443163 -0.0233521 -0.081881486
000350 c4 51 79 bd c4 4e 35 be 06 c1 dd 3d 11 9e 1d be
       -0.060868993 -0.17705828 0.10827832 -0.15392329
000360 8e 28 5a be bc c1 1c be 69 50 52 be 05 bb 57 be
       -0.21304533 -0.15308279 -0.20538487 -0.21067436
000370 10 ee 5c be d2 8d 72 3e 6a 22 55 be d5 de 14 3d
       -0.21575189 0.23686913 -0.20813909 0.03634532
000380 00 de 7b bb a1 e8 ae 3c d3 fd 5d 3e 9a 19 bc 3b
       -0.0038431883 0.02135116 0.21678858 0.0057403566
000390 3e 00 77 3e 30 ee 9b 3d a5 10 4b 3e 9b ce 3d be
       0.24121186 0.0761379 0.19830568 -0.18535845
0003a0 27 6c 0e 3e fc ce eb 3d fa a8 2a 3e 14 07 07 3e
       0.13908444 0.115140885 0.16666022 0.13186294
0003b0 42 ad 94 bc 3c e7 92 bd ed 05 4a bd f2 d6 df bd
       -0.018149022 -0.07173011 -0.049322058 -0.109296694
0003c0 10 c5 28 3d 90 48 18 be 40 d2 b7 bc 69 50 7f 3e
       0.04120356 -0.1487143 -0.022439122 0.24933018
0003d0 d7 65 29 3e 5b 53 56 3e 20 65 64 bd 17 67 aa bd
       0.16542755 0.20930235 -0.055760503 -0.08320444
0003e0 69 36 ab bd 1c 46 32 3e d5 af 67 3e 19 bb 5a 3e
       -0.08359987 0.17409557 0.22625668 0.21360435
0003f0 61 a2 48 be 22 6d 0d 3e 74 d2 36 3e 9f 65 66 be
       -0.19593193 0.13811162 0.17853719 -0.22499703

arith.constant3 f4 [48, 48]
000000 60 0b 0a 3d 1e e2 ab bd c0 3f 3b 3e b4 87 96 3d
       0.033702254 -0.08392738 0.18286037 0.07350102
000010 67 e2 3f be 9c 99 38 3e 40 f2 9e bd 82 2f e6 bd
       -0.1873871 0.18027347 -0.07761049 -0.1123953
000020 fd b2 76 3e 13 21 2b 3e 5e 9f 98 3d ef 6c 1c be
       0.24091716 0.16711836 0.07452272 -0.1527593
000030 f5 9d f4 bd fc 16 1a be 13 80 1a be 0b df c7 bd
       -0.119441904 -0.1504783 -0.15087919 -0.09759339
000040 75 f8 65 3b f6 14 14 3e bd ee 73 3e e3 94 56 bd
       0.003509072 0.14461121 0.2382154 -0.052388083
000050 b6 d0 67 3d 8a 48 3a 3e ec f0 53 be a4 08 58 3d
       0.056595527 0.18191734 -0.20697373 0.052742615
000060 a3 05 82 bd 66 e5 a4 bd 46 61 38 3e e9 26 25 be
       -0.06348731 -0.08051567 0.18005857 -0.16128124
000070 c2 3e a5 3d df 3b 71 be 74 d8 83 be a7 89 37 3d
       0.08068611 -0.23557995 -0.25751078 0.04480901
000080 83 dc 08 3c d9 18 38 be 3b 02 57 3e cb 8a 14 be
       0.008353355 -0.17978229 0.20996945 -0.1450607
000090 2f 5f 09 be 80 cd ad 3d 49 3d 9c bd 96 c7 1a 3a
       -0.13415216 0.08486462 -0.07628877 0.00059043744
0000a0 0b f6 40 be 8c c9 f8 3d 18 6b bc bd 25 b6 15 3e
       -0.18843858 0.12147817 -0.09200114 0.14620264
0000b0 db 41 be bd 47 c8 02 3e 53 a2 e7 bb b2 9b d7 bd
       -0.09289905 0.12771712 -0.007068911 -0.105277434
0000c0 55 b6 73 bb 0c a5 12 3c c6 12 e9 3d ce 25 db 3d
       -0.0037187536 0.008950483 0.11380534 0.1070057
0000d0 c4 4d 77 be a4 c4 17 3e 5b 7f 08 3e e4 c8 41 3c
       -0.24150759 0.14821106 0.13329832 0.011827681
0000e0 83 04 5f be 40 a2 11 bd 9f b8 ef 3b 65 65 8f 3a
       -0.21779065 -0.035555124 0.0073157097 0.0010940252
0000f0 4d 2b 01 be 6d 1f 90 3d de 3e ce bd 1a e7 14 3e
       -0.12614174 0.07037244 -0.10070585 0.14541283
000100 70 cc 30 bd cf 82 21 bc 55 aa ab bd f6 3b 9e 3c
       -0.043163717 -0.009857847 -0.08382098 0.019315701
000110 10 4e fc 3d e5 c7 1a 3e 09 ad 71 be 28 75 cb bd
       0.12319577 0.15115316 -0.23601164 -0.09934455
000120 d3 cf 91 bd 63 d1 46 be 08 94 68 be 13 27 de 3d
       -0.071197174 -0.19415812 -0.2271272 0.108472966
000130 08 45 bd 3d 06 62 1b 3e 5a 28 51 bd e5 0a 2c be
       0.09241682 0.15174112 -0.051063873 -0.16801031
000140 40 ee cc bd 9f 71 fb bd 12 fc 5f bc be f1 80 3e
       -0.1000638 -0.12277531 -0.013670938 0.25184435
000150 cd f3 44 3e bc c4 70 3d 0f 06 6f 3c 5a f0 16 3e
       0.19233628 0.05878137 0.014588847 0.14740124
000160 4f f4 56 3e 11 63 7f be b1 b4 2c be 96 ac 77 3d
       0.20991634 -0.24940135 -0.16865803 0.060467325
000170 a2 4d 15 3e 95 08 3c be 0c 06 d4 3d 3a 7d cd 3d
       0.14580396 -0.18362649 0.10352716 0.10033651
000180 5f aa 50 be 35 1e 29 be cd 3a 6d 3e 55 dd 92 bd
       -0.20377491 -0.1651543 0.23166962 -0.07171122
000190 4a 13 61 be 08 11 0b 3e 95 28 8b 3e 41 c6 d1 bd
       -0.21980014 0.13580716 0.271794 -0.10242892
0001a0 0a fc 79 bd a5 79 60 be 84 87 6b 3e 4d 37 3d 3d
       -0.06103138 -0.21921404 0.23000914 0.046195317
0001b0 02 2c 46 be c9 f6 0b bb fe 19 6f 3e d6 60 ed 3d
       -0.19352725 -0.0021356812 0.23349759 0.115907356
0001c0 f4 4b ae 3d e9 b3 2c bd c1 19 08 3e 11 aa 19 be
       0.08510581 -0.042163763 0.13291074 -0.15006281
0001d0 1a bc ae 3d 38 f8 6d be 3c 29 83 3e fa 11 8d bd
       0.08531971 -0.23239219 0.25617397 -0.068881944
0001e0 fc 74 fd 3d c1 83 6b 3d 77 38 34 be 16 47 62 3d
       0.123758286 0.057498697 -0.17599665 0.055243574
0001f0 07 34 3d 3e df 66 fb bd 67 12 73 3e 16 a9 48 3e
       0.18476878 -0.122754805 0.23737489 0.19595751
000200 39 18 76 3d 6c ab 4d 3e 22 4e 11 bc 7f f2 31 be
       0.060081694 0.20084924 -0.008868726 -0.17377661
000210 12 6b 10 3e 0c 3b 05 3e 11 c2 25 3e cc 47 b9 bd
       0.14103344 0.13010806 0.16187312 -0.09046897
000220 d2 0f 4f be 96 c3 65 be 9b 72 34 3e 33 29 cc 3d
       -0.20220879 -0.22437891 0.17621844 0.099687956
000230 1c 06 2e 3d 58 26 5d be 6f 93 7e 3e 1f eb 44 3e
       0.042486295 -0.21596658 0.24860929 0.19230317
000240 a8 5f 01 be f2 21 2e 3e 2f 13 a2 3d ba 92 1a be
       -0.12634146 0.17005137 0.07913815 -0.15095034
000250 16 63 11 3e dc fe 5f 3e 0d 9f 27 3e ba e0 74 3e
       0.14197955 0.21874565 0.16369267 0.23913851
000260 13 ad 4c 3e ac 11 22 3e e7 b3 86 bd 7a 73 27 3e
       0.19987898 0.15827054 -0.065772824 0.16352645
000270 68 69 53 be 84 1d b5 3c 3b 9d 63 3e 35 ca bf 3d
       -0.20645678 0.0221088 0.22227947 0.0936474
000280 4a c8 8a bd f6 20 12 be 09 1d 9d bd 83 d3 24 be
       -0.06776483 -0.14270386 -0.07671554 -0.1609631
000290 f4 a7 65 3e 14 0d 1f be 7b 2a d6 3d d9 89 75 be
       0.2242735 -0.15532333 0.10457321 -0.23978366
0002a0 91 3d f3 bc b0 02 69 3e 71 ad 9b 3d 91 48 ea 3d
       -0.029692443 0.22754931 0.07601441 0.11439622
0002b0 3f dc 3a 3e 60 f8 05 be b8 d4 f6 bb 90 89 3e 3e
       0.1824808 -0.13083029 -0.0075326823 0.18607163
0002c0 29 a1 e7 bd 60 ac 6f 3e 82 19 d9 bd d5 7c a2 bd
       -0.11310036 0.234056 -0.10600568 -0.07933966
0002d0 87 94 e8 3d 1d ef 7e 3e be e9 b6 3d 8b e6 5b 3e
       0.11356454 0.24895902 0.089313015 0.21474664
0002e0 4c 59 96 3c 86 a8 2c be 03 2a 87 bd 7c 1f 88 3d
       0.018353127 -0.16861162 -0.0659981 0.0664663
0002f0 30 86 2a be 59 c7 5d 3e 90 76 ad 3c f5 2d 0b be
       -0.16652751 0.21658076 0.021174699 -0.1359175
000300 4c a7 51 3e e5 ba fe bd 4f 05 89 3e 64 44 c5 bc
       0.20473975 -0.12437991 0.26761863 -0.024080463
000310 51 d2 43 3e 0c 10 04 be c6 29 96 bd a7 1a 1a 3e
       0.19123198 -0.12896746 -0.073321864 0.1504923
000320 7d 14 5e 3e 48 f5 8c bd 51 19 7d 3e da 5c 25 be
       0.21687503 -0.06882721 0.24716689 -0.16148701
000330 5e f6 71 3e 3f 4e 29 be 71 a0 07 3e 00 2c 68 be
       0.23629138 -0.16533755 0.13244797 -0.22673035
000340 9f 41 a8 bd e2 31 74 3e 50 9c 11 3e 11 e7 fc bd
       -0.08215641 0.23847154 0.14219785 -0.1234876
000350 88 19 37 be ea 02 3d be fa 05 9b 3d 5f c5 56 3e
       -0.17880833 -0.18458143 0.07569499 0.20973729
000360 a9 4f a1 bc d4 07 cb bd 3d 92 4f 3e ff 2b 48 3e
       -0.019691305 -0.099136025 0.20270629 0.19548033
000370 d2 12 36 be 74 17 c7 3d 04 de bf bd 51 2f 07 be
       -0.17780617 0.0972127 -0.09368518 -0.13201644
000380 46 dd 8a bd 69 cb 32 3e fa 19 87 3e 21 1c 64 bd
       -0.06780486 0.17460407 0.26387006 -0.05569089
000390 84 b4 6e 3e f3 e3 2f 3d 62 e3 60 3e d6 4b 93 3d
       0.23311049 0.042942 0.2196174 0.07192199
0003a0 79 8f b4 bd 4f b0 5b 3d 50 33 9b 3c ff 04 bb 3d
       -0.08816428 0.053634938 0.018945366 0.09131812
0003b0 94 84 1e 3c 6c fa f8 3c 9e d6 03 be d2 34 35 be
       0.009675164 0.030392848 -0.12874839 -0.1769593
0003c0 14 6f d3 bc c9 30 7d 3e 10 87 a3 bc ec 87 8d 3d
       -0.025809802 0.24725641 -0.019961864 0.06910691
0003d0 cf 97 2e be 48 6c bf bd 88 da 28 3e 7d 02 04 3e
       -0.17050098 -0.09346825 0.16489613 0.12891574
0003e0 6d 14 56 3e e1 ab 30 be 94 e2 c5 bd 9c e1 3c 3e
       0.2090623 -0.17253067 -0.09662357 0.18445438
0003f0 79 79 00 3e 96 4b a1 3b 89 87 5c be 11 34 51 3d
       0.12546338 0.0049223406 -0.21536078 0.051075045

arith.constant4 f4 [48, 48]
000000 f8 05 c0 bd 67 6c 4c be a5 ed 17 bc 68 d5 5b 3e
       -0.093761384 -0.19963227 -0.009272967 0.21468127
000010 c8 d7 a0 bd 73 55 f7 3b 56 39 c1 bd 38 49 49 3c
       -0.07853657 0.007548028 -0.09434764 0.012285523
000020 49 32 dd bc 73 e9 d2 bd 13 ee 21 be eb 00 26 3e
       -0.027001517 -0.10298433 -0.15813474 0.16211288
000030 2a 91 6d be 39 50 36 3e 12 94 44 3e 4d 06 01 bd
       -0.23199907 0.1780404 0.1919711 -0.03150015
000040 dc 77 04 be de 92 3d be 2d 16 27 3e ab c5 01 be
       -0.12936348 -0.18513057 0.16317053 -0.1267306
000050 fd d6 47 3e 52 55 2c be 23 a4 78 be d9 7b b7 3d
       0.19515605 -0.16829422 -0.24281363 0.08959169
000060 53 bf 75 3d d6 5e fc bd fe 80 54 be 0e b5 5c be
       0.059996914 -0.12322776 -0.20752332 -0.21553442
000070 72 cf 87 bd ef e0 ea 3d f2 53 29 3e b6 a0 5e be
       -0.06631364 0.11468684 0.16535929 -0.21740994
000080 3b 55 97 3b e5 92 3f be f2 90 2b bd 59 1f 18 3e
       0.0046183146 -0.1870838 -0.041886277 0.14855708
000090 d9 12 ff 3d db cf a3 3d f1 f1 19 3e f6 34 e0 bd
       0.12454767 0.0799863 0.150337 -0.109476015
0000a0 1b 9d e2 3c 76 30 6b 3e 17 c1 4d 3d fd 85 4f 3c
       0.027662804 0.22967705 0.050232973 0.012666223
0000b0 0c 3c 2b be f1 b6 fb bd a1 32 39 3e 6f db 75 3e
       -0.16722125 -0.12290753 0.1808572 0.24009489
0000c0 62 c3 a4 bd b4 83 68 bd f9 07 82 3d b6 c2 c4 bc
       -0.08045079 -0.056766227 0.06349177 -0.024018627
0000d0 61 01 fe bc eb ab 01 3e 12 db 6f bd 08 cb 59 3e
       -0.031006517 0.12663238 -0.05855853 0.21268857
0000e0 38 e7 2d be 8f 1a 16 3e a4 51 49 3e 72 aa b5 bd
       -0.16982734 0.14658569 0.1966005 -0.088704005
0000f0 5f fc f4 3d 0a 18 0a be 6a 49 4e 3e 4f 7c 75 3d
       0.119621985 -0.13485733 0.20145193 0.059933003
000100 37 34 48 be 56 4c 16 be 50 7b 1a 3e 57 97 f1 bd
       -0.19551168 -0.14677557 0.15086102 -0.11796444
000110 cb 47 61 be d1 f9 3e 3e 2d 61 cb 3c 94 1d 39 be
       -0.22000043 0.18649985 0.02482661 -0.1807769
000120 8a 94 c8 bd 60 65 0b be 59 20 26 be a6 49 02 be
       -0.097939566 -0.1361289 -0.16223277 -0.12723407
000130 26 9b a7 bd 5f b1 2d bd 83 42 1e 3e b1 84 2e be
       -0.08183889 -0.042405482 0.1545506 -0.17042805
000140 89 87 0a bd fb a3 a3 bd 9e fb 1e 3e b7 c3 13 be
       -0.033820663 -0.07990261 0.15525672 -0.14430128
000150 47 84 5e be 40 ea 0e bd bc cd f5 3d 08 0c 4a be
       -0.21730147 -0.034891367 0.12002131 -0.19731152
000160 8f 26 31 3d ff d5 72 3e 24 08 66 3d f4 9c 8b 3d
       0.043249663 0.23714446 0.056160107 0.06817046
000170 b1 46 a5 3d 22 fa b8 3d 1b b4 75 3e 4c 07 44 be
       0.08070124 0.09032084 0.23994486 -0.19143409
000180 f2 a8 0b 3e f9 f6 7e 3e 32 f8 4c 3e 10 7a 6d 3e
       0.13638666 0.248989 0.20016554 0.23191094
000190 6e 68 c2 bd b8 f4 3a be a7 53 42 3d ac 4d 4e be
       -0.09492575 -0.18257415 0.04744306 -0.20146817
0001a0 21 58 62 3e 78 dc 53 be cf fe 07 3e 03 d5 44 3e
       0.22103931 -0.20689571 0.13280796 0.19221883
0001b0 42 8d 2f 3e 3a 30 52 3e ed 65 4b be d7 d8 94 bd
       0.1714373 0.2052621 -0.198631 -0.072679214
0001c0 fc b0 8a 3d 47 81 d6 3c 1d 3e d7 3d a2 3e e0 3d
       0.06772038 0.026184691 0.10509894 0.10949446
0001d0 76 aa 01 bd 54 42 0f 3e 06 5b 90 3a 74 51 a9 3b
       -0.031656705 0.13990146 0.0011013455 0.0051671807
0001e0 f5 29 0a 3e ec 63 c2 3b 4e f0 07 be 79 62 7d 3e
       0.13492568 0.005932322 -0.13275263 0.24744596
0001f0 38 5d 99 bd 0b d7 8a be e5 04 30 3e 17 23 84 3d
       -0.07488483 -0.2711719 0.17189367 0.06452005
000200 1f 2a b6 bd 45 37 76 bd b9 d8 66 bd ac 66 87 3d
       -0.08894753 -0.060111303 -0.056359027 0.0661138
000210 f9 fb 96 3d 31 7c f4 bd ae a1 09 3e 85 a3 78 3d
       0.07372279 -0.1193775 0.13440582 0.06070282
000220 1a e7 3c bd 2a d9 28 bd 25 0b 5f 3e 3d 29 12 be
       -0.046118833 -0.04122273 0.21781595 -0.14273544
000230 5c a0 37 3e 22 3a 80 3c 32 53 44 be 0d 42 be bd
       0.17932266 0.01565272 -0.19172361 -0.09289942
000240 55 6d c6 3c d1 7e 7a 3c cf 5b 71 be 4f 20 01 bd
       0.024222055 0.015289024 -0.23570178 -0.031524953
000250 24 b7 e1 bd 74 29 76 3e 42 96 2c be 89 53 9a bd
       -0.110212594 0.2403925 -0.16854194 -0.07535464
000260 97 04 d3 3c ab f1 8e bd 4f 92 59 be 47 86 30 3e
       0.025759025 -0.06979688 -0.21247219 0.17238723
000270 44 05 81 be 54 3d 65 be b6 fd c3 3d a3 eb 97 bd
       -0.2519933 -0.22386676 0.09569876 -0.07417991
000280 8c e7 41 bc 61 7b 1f 3e 88 58 f1 bd 74 de 36 bd
       -0.01183499 0.15574409 -0.11784464 -0.04464574
000290 b6 07 49 3e 83 a8 22 be 2e 15 44 bd 4b cb a0 3d
       0.19631848 -0.15884595 -0.04787176 0.07851275
0002a0 be dd 71 3e ec 2a 95 3d 92 9e 1e be 95 42 64 3e
       0.23619744 0.07283577 -0.15490177 0.22291024
0002b0 a3 93 b6 bc c3 f7 8f 3e 45 15 18 bd 8c 67 0b 3e
       -0.022287196 0.28118715 -0.03712966 0.13613719
0002c0 b3 6a c0 bd b8 f7 d5 bd 46 e7 30 bc 12 b9 10 be
       -0.09395351 -0.10447639 -0.010797327 -0.14133099
0002d0 f1 46 ea 3d 5c ba cd 3c 57 9c 0e be 1b c9 b9 bd
       0.11439312 0.025113277 -0.13926826 -0.09071561
0002e0 13 8d 54 3e fb d9 0b be 78 90 14 be d5 0e 0e bd
       0.2075694 -0.13657372 -0.14508235 -0.034682114
0002f0 34 4d 1b 3d 09 87 84 3d 8a 55 2a bd cf fb 31 3d
       0.037915424 0.064710684 -0.041585483 0.043453034
000300 ea 9a ac 3d 52 8f 6a bd 05 65 0d 3e 1d 42 5a 3e
       0.08427985 -0.057265587 0.13808067 0.21314283
000310 f8 4d 8c bd 83 1b 03 be 0a f9 bf bd 95 d0 8b bd
       -0.06850809 -0.12803464 -0.09373672 -0.06826893
000320 fd c4 5f 3d 03 d0 f1 bd cb 40 cf 3d df 77 6a be
       0.054631222 -0.11807253 0.1011978 -0.2289729
000330 49 07 2e be bf 4b 0b 3e 42 9f 06 3e fe b2 0e be
       -0.16994967 0.13603114 0.1314669 -0.13935468
000340 3f a4 fc 3d da b4 f1 3d b8 c3 2f 3d eb b7 ca bd
       0.12336015 0.11802073 0.04291126 -0.09898361
000350 71 a6 03 3e d0 71 4e 3e 4f de 07 be 70 21 69 3c
       0.12856461 0.20160604 -0.13268398 0.0142291635
000360 40 e6 39 be 2f 56 2c 3d 09 4d 44 3e 5d f4 86 3c
       -0.1815424 0.04207438 0.19170012 0.016473943
000370 9d 5e 79 be ce 61 64 be 11 80 5b 3d 93 2f 98 bc
       -0.24352498 -0.22302935 0.05358893 -0.018577373
000380 17 a8 7b 3d e3 47 59 3e 00 9b 5c 3c 7d 97 cf 3d
       0.0614396 0.21218829 0.013464689 0.10136316
000390 5f 6b 42 3d bf 1c 30 3e c9 da 5e bc 09 4b 76 be
       0.04746568 0.17198466 -0.013601967 -0.24052061
0003a0 71 9c 81 3d 8b 38 60 3e 8b 32 70 be 85 95 ee 3d
       0.06328667 0.2189657 -0.2345678 0.11649612
0003b0 4e 65 b5 bc 89 0c b2 3d 0d 40 3b be b5 dd 24 be
       -0.022143032 0.08693797 -0.18286152 -0.161002
0003c0 10 0c 34 bd 30 28 d5 bd e0 e5 af bd 74 dc 32 3e
       -0.043956816 -0.10408056 -0.08588767 0.17466909
0003d0 2c 68 6d be a0 a8 7b 3d 04 d1 56 be e0 a5 3a bd
       -0.2318427 0.06144011 -0.2097817 -0.045568347
0003e0 e0 5f ac 3c 38 af be 3d f0 b4 76 3e a0 0b d2 bc
       0.02104181 0.09310764 0.2409246 -0.025640309
0003f0 7c 55 6b be 80 36 cf 3d 80 95 45 be 00 a0 98 bd
       -0.22981828 0.10117817 -0.19295311 -0.074523926

arith.constant5 f4 [48, 48]
000000 93 76 28 be 66 e4 70 be 08 54 00 be 9e cd 1e 3e
       -0.16451482 -0.23524627 -0.12532055 0.15508124
000010 4c ba 51 be ba 00 5a 3e 75 4f 24 be b3 86 86 3c
       -0.20481223 0.2128934 -0.16045935 0.016421651
000020 9e 80 e2 3d cf ea 22 be 66 df 80 3e 71 a2 87 bd
       0.11059688 -0.15909885 0.2517044 -0.0662278
000030 c7 35 44 3e 87 36 41 3d 57 a0 55 3e 32 95 ff bd
       0.1916114 0.047171142 0.20861946 -0.124796286
000040 56 87 5d bc 41 5b 36 3e 63 cf 72 3e 24 53 ab bc
       -0.013521036 0.17808248 0.23711924 -0.020913668
000050 30 61 40 3e 56 0c ee 3b 17 18 1f 3e 62 5b e2 3c
       0.18787074 0.007264654 0.15536533 0.027631465
000060 eb f5 7e be f8 f3 02 be 8b ed 50 3e 0b 58 86 bd
       -0.24898498 -0.12788379 0.20403115 -0.065597616
000070 5a 17 fe 3c 9b e2 d2 bd 2d fb 8f bd 19 63 f9 bd
       0.031016994 -0.10297128 -0.0703033 -0.121771045
000080 81 90 55 bd 64 66 26 bd 82 ed 6a be 02 d2 08 be
       -0.052139763 -0.04062499 -0.22942165 -0.13361362
000090 5b 3c e9 bc 9a 91 6a be 00 4a 0d be eb 27 61 3e
       -0.028471163 -0.22907105 -0.1379776 0.21987884
0000a0 12 91 6c be 01 23 28 be d1 cf 3a 3d bb 91 da 3c
       -0.23102215 -0.16419603 0.045608345 0.026680818
0000b0 9a 72 a6 3c 7a 7d 35 bd f2 45 9e bd ba 1e 18 be
       0.020318318 -0.044309117 -0.07728185 -0.14855471
0000c0 bc ab c4 3d 4f 92 a3 bd de a8 68 be 96 38 16 3e
       0.09603068 -0.079868905 -0.22720668 0.14670023
0000d0 bb 3b 7e 3e 4e 6a ba bd 03 ff 22 be d6 97 6c 3e
       0.24827473 -0.09102307 -0.15917592 0.23104796
0000e0 00 e3 c2 3d 6e ab d5 bd e0 91 9e 3d f3 dc 5e be
       0.09515953 -0.10433088 0.07742667 -0.21763973
0000f0 ec cf 68 bd bc 13 1b be e3 86 9a bd 7b 0a 2b be
       -0.056838915 -0.15144247 -0.07545259 -0.16703217
000100 86 3b 08 3e 4d 84 9f 3d bd 01 a1 3d 37 4b 2a bd
       0.13303956 0.07788906 0.0786166 -0.041575637
000110 95 67 a7 3d 1d c3 54 bd b0 85 ca bc 69 00 93 3d
       0.081740536 -0.051943887 -0.02472195 0.071778126
000120 d5 a5 1e be 2b b6 82 3e 6e 69 2c 3d 8d a5 3f 3d
       -0.15492947 0.25529608 0.042092733 0.04678874
000130 5a 8b 28 be 7e 91 25 bd 6d a2 f9 3d aa 47 cc bd
       -0.16459408 -0.040421955 0.121891834 -0.09974606
000140 9f e3 14 be 0f e4 b2 bd 80 b0 11 3c 30 8d c0 3d
       -0.14539956 -0.08734905 0.008892179 0.094019294
000150 05 de 35 3e f4 f9 17 3e 7c 43 bb 3d f5 bc 41 bd
       0.17760475 0.14841443 0.09143731 -0.047299344
000160 1e a4 f2 bc f0 c6 70 bd df 29 00 bc 2a b8 76 3e
       -0.029619273 -0.05878347 -0.007822483 0.2409369
000170 4d cd 46 3e b0 e5 86 bc 72 86 6d be b7 7f ac bd
       0.19414254 -0.016466945 -0.23195818 -0.08422797
000180 1c ef 67 be bf 20 e0 3c b8 be be bd a1 e8 34 be
       -0.22649807 0.027359365 -0.093137205 -0.17666866
000190 e8 01 6c 3d 0a 97 2c bd 7d 0e 2a 3e 70 e5 a5 bd
       0.057619005 -0.04213623 0.1660709 -0.08100402
0001a0 42 8e b4 3d 83 31 ea bc 9a 6d ee bd 5d ed 28 be
       0.08816196 -0.028588062 -0.116419986 -0.16496797
0001b0 28 2c f2 3d 72 94 31 3b 5a 5e 16 be db cd 32 be
       0.118248284 0.0027096537 -0.1468443 -0.1746134
0001c0 92 43 67 be 5e 48 49 be 45 53 52 3d 9c 34 da 3d
       -0.2258437 -0.19656512 0.051348943 0.10654566
0001d0 20 ee 4c be 1d 8c 1f 3e c9 09 5c 3e b9 cb 2f 3e
       -0.20012712 0.15580793 0.21488108 0.17167558
0001e0 23 2a 8b 3d 35 18 05 3d 7e a0 85 3d e0 d2 87 3b
       0.06795146 0.03249379 0.06524752 0.0041450113
0001f0 af 67 30 be bb ad 31 3e 7d f8 d4 bd 65 fc eb 3c
       -0.17227052 0.17351429 -0.10398958 0.028806875
000200 94 ff 0a 3e e2 b2 f0 3d a5 40 3b be 40 e7 32 3e
       0.13574058 0.11752869 -0.18286379 0.17471027
000210 85 78 d3 3d e6 0e 2f 3c 59 e8 6b be b3 ec 15 3e
       0.10325722 0.010684704 -0.23037852 0.14641075
000220 81 de 45 be 2f 46 3e 3e 5b 34 3e 3d aa de ca 3b
       -0.1932316 0.1858146 0.04643665 0.0061910944
000230 4b ef d1 3d 9d 78 b3 bb b2 e9 72 be 66 37 5c be
       0.1025072 -0.0054770247 -0.2372196 -0.21505508
000240 8a bb 36 be 20 f7 c7 3c 7c 96 b8 bd 4a ad 3a be
       -0.17844978 0.02440983 -0.090130776 -0.18230167
000250 78 54 f5 bd 14 83 88 3c 3c 8a e3 bd 38 48 75 be
       -0.11979002 0.016664065 -0.111103505 -0.2395333
000260 9a 28 bf 3d 47 79 60 3e 7b ff 0c be 2f 56 8e 3d
       0.09333916 0.21921264 -0.13769333 0.06950032
000270 e5 1b b5 3d 53 3f 42 3e 4c 53 4a bd f2 ff 48 be
       0.08843211 0.18969469 -0.049395844 -0.19628885
000280 3d c0 8d 3b ba 4b 35 3e 45 de 06 3e 25 ba 3f be
       0.004325895 0.17704669 0.13170727 -0.18723352
000290 7b df 26 3d d5 a3 4d be 33 f2 71 3e f1 7d 86 3d
       0.04074047 -0.20082028 0.23627548 0.0656699
0002a0 6c 4d 20 be d2 21 22 be 5e f5 f3 bd 80 08 54 3e
       -0.15654534 -0.15833214 -0.119120345 0.20706367
0002b0 a0 e9 78 3d 75 4e fb bc 8a c3 67 3e 6e 85 a2 3d
       0.060769677 -0.03067706 0.22633186 0.07935606
0002c0 e7 2d 1d 3e ef f4 02 bd d8 22 6d bd 08 3c 0c 3e
       0.15349542 -0.031971868 -0.057894558 0.13694775
0002d0 6e 48 60 3e 2e dd 61 3e d5 65 ec 3d 88 bf 82 be
       0.2190263 0.2205703 0.115428604 -0.25536752
0002e0 cd 33 4e 3e 8f 45 6a be 42 f0 f6 bd e4 fb 95 3d
       0.20136948 -0.22878097 -0.12057544 0.07323435
0002f0 a3 42 0d be 75 55 ed bd 1b d6 a9 bd 10 70 04 be
       -0.13794951 -0.11588565 -0.082927905 -0.12933373
000300 66 69 64 3e 4c 48 91 3c 00 7a cd ba 67 d7 b8 3d
       0.22305831 0.01773467 -0.0015676618 0.0902546
000310 8b 65 2f be 30 f3 2b be 51 df af 3b 78 c6 39 3e
       -0.1712858 -0.16791987 0.0053671976 0.18142116
000320 93 26 89 3d 57 9c c3 bd 13 90 c7 bd 27 a7 dd bd
       0.066968106 -0.09551304 -0.09744277 -0.108228974
000330 85 59 58 bb 07 8e 13 3e d6 25 c6 bc 91 b9 0f be
       -0.0033012342 0.14409648 -0.024187963 -0.14035632
000340 e4 eb cc 3d 9a 66 46 be 06 7d 4e be cf f0 52 3d
       0.1000593 -0.19375077 -0.2016488 0.051499184
000350 31 d0 74 bc 96 b4 6b 3e 3d de e9 bb 88 94 17 bd
       -0.014942215 0.23018107 -0.0071370886 -0.037006885
000360 6f a1 2c 3c 8f d0 19 bd 51 2d f8 ba 8c 13 3d 3e
       0.010536536 -0.037552413 -0.0018934404 0.18464488
000370 f1 f4 22 3e ed e8 3d be 56 ce 39 3e 8b bb 22 3e
       0.1591375 -0.18545885 0.18145117 0.15891854
000380 ef ed 65 be 85 b8 0b 3d b3 41 68 3d 67 12 50 3c
       -0.22454046 0.03411152 0.05670328 0.0126997
000390 02 36 ad 3d e5 69 c3 bd 93 a0 01 3e e7 5c 5d 3e
       0.08457567 -0.09541682 0.1265891 0.2161747
0003a0 95 8a b6 bd c3 8c 27 be bc 1c 4e 3e b9 c7 e9 3d
       -0.08913151 -0.1636229 0.20128149 0.11415047
0003b0 e1 46 dc bd 43 e4 6d be a2 68 a5 3d aa 92 e6 3d
       -0.107557066 -0.23231606 0.08076598 0.11258443
0003c0 ba e4 2a be b7 44 d1 bd e8 da 83 bc f8 be e3 bd
       -0.16688815 -0.102181844 -0.016095594 -0.11120409
0003d0 1a 30 73 be b8 a8 de bc b0 ed 4a be e4 4b 11 3e
       -0.23748818 -0.02718006 -0.19817233 0.14189106
0003e0 cf c6 2b 3e b5 8a 69 3c f8 3c 7d 3e 37 5a 4f be
       0.16775058 0.014254262 0.24730289 -0.20249258
0003f0 4c a8 9f 3d 2d 80 12 3e 6f 0d 8c bd 52 8a 1d be
       0.07795772 0.14306708 -0.068385 -0.15384796

arith.constant6 f4 [48, 32]
000000 93 16 d9 bc e8 7e fe bd 00 62 43 be 2d 1c a4 3d
       -0.026500022 -0.12426549 -0.19080353 0.080131866
000010 7a 6a 8b 3d b6 c8 20 be 5f 14 09 3e 32 6b d2 bd
       0.06807418 -0.15701565 0.13386677 -0.10274352
000020 30 fa 86 bd f4 ad a8 bd 49 c9 00 3e 7c 5f 15 3d
       -0.06590688 -0.08236304 0.12576784 0.036468014
000030 14 7b ac 3d b9 2e 5b be 15 09 65 3e 89 5a 3b be
       0.08421913 -0.21404542 0.22366746 -0.18296255
000040 35 2d 03 3e 69 5e c8 3d 76 84 82 3d b5 17 1c 3e
       0.12810214 0.09783632 0.06372921 0.15243419
000050 1e 14 5d be d4 73 83 be 8c b1 10 3e b0 fa b4 bd
       -0.21589705 -0.25674307 0.14130229 -0.08836877
000060 cf ec 35 3e 44 18 5a 3b 86 cd ac bd f3 fa 7e bc
       0.17766117 0.0033278624 -0.08437638 -0.015562761
000070 f8 68 d2 3c 8b 13 53 be 44 9e 82 bd 26 03 98 bd
       0.025684819 -0.20612924 -0.06377843 -0.074224755
000080 42 13 fc 3d 4a 60 65 be 99 b9 7f 3c b6 0b b9 bd
       0.12308361 -0.22400013 0.015608215 -0.09035437
000090 48 a3 65 bc ac 16 13 be 89 31 2c 3e 8a eb 66 3e
       -0.01401598 -0.14364117 0.16815771 0.22550789
0000a0 98 a2 7c 3e d8 51 86 be 0a ea bc bd 43 b0 5e bd
       0.246714 -0.26234317 -0.09224327 -0.054367315
0000b0 14 10 58 bd b8 86 85 be 39 82 e4 bd 1f 5b 8f 3b
       -0.05274971 -0.26079345 -0.111576505 0.004374876
0000c0 83 1f 58 be 60 e5 1f 3e 31 5a 07 be 3b 8e 05 3d
       -0.21105771 0.15614843 -0.13217999 0.032606345
0000d0 fa 80 ce 3d e0 4b 8f 3d fb 61 8f 3d ae 0a 65 be
       0.10083194 0.06996894 0.0700111 -0.22367355
0000e0 54 ff 2d be e9 91 20 3d 9b c3 4b 3e b4 38 42 3e
       -0.16991931 0.03920165 0.19898836 0.18966943
0000f0 b7 b4 20 3e c3 07 1a be 42 fc 4b 3d ca f1 54 3e
       0.15693937 -0.15042023 0.04980112 0.2079536
000100 d1 76 68 3e 3b ee 3a 3e cd 8e 11 be ad c0 c7 3d
       0.22701575 0.1825494 -0.1421463 0.09753547
000110 4c b4 ab 3d 28 78 14 3d 74 7e 12 bd 43 6c 89 3e
       0.08383998 0.036247402 -0.035765126 0.2684041
000120 13 d9 77 be 5b 3c 59 3e bd d4 17 bd 02 56 83 bd
       -0.24203901 0.2121443 -0.037068117 -0.06412889
000130 57 3b fe bc 0e e1 d1 bd df dd 17 be 22 df 91 bd
       -0.031034155 -0.10248004 -0.14830731 -0.07122637
000140 34 f0 6b bc 24 5f 31 3e 1f fe 6e 3e 1d 81 96 3d
       -0.014400531 0.1732145 0.23339127 0.07348845
000150 04 ee 04 bd c9 22 a2 3c dd 23 6d 3e 9f 28 e4 3d
       -0.032453552 0.019791977 0.23158212 0.1114056
000160 cf 8c 21 be 30 89 2e bb e7 73 7a be 39 7b 0b be
       -0.1577637 -0.0026632063 -0.24458276 -0.13621224
000170 6a 13 84 be fa 85 81 3c 00 a9 0e be 6e eb 25 be
       -0.25796062 0.015810955 -0.13931656 -0.1620309
000180 aa 56 1c ba 7e ed 81 3e 70 d5 1e be 32 64 1b be
       -0.00059638417 0.25376505 -0.15511107 -0.1517494
000190 8d c3 14 bd 60 fe cc bd 88 10 cf bc cd 72 d0 bd
       -0.036319304 -0.10009456 -0.025276437 -0.101781465
0001a0 2b f1 02 be aa 11 95 3c b3 f7 ec bb e4 99 63 be
       -0.12787311 0.0181969 -0.0072316765 -0.22226673
0001b0 94 df a2 3d 81 6e 65 be f8 d0 88 bd 49 67 4f 3d
       0.079528004 -0.22405435 -0.066804826 0.05063561
0001c0 ee 2f 1f 3e 8b 31 84 be c3 80 78 3e 68 89 22 be
       0.15545627 -0.25819048 0.24267869 -0.15872729
0001d0 76 6d 50 3e 8c 18 4b be 4d 56 9d be bb 03 d7 3d
       0.20354256 -0.19833583 -0.30729905 0.104987584
0001e0 0a 17 e9 bd a7 ba fc 3d c4 33 8e be 3d 99 75 be
       -0.113813475 0.123402886 -0.2777387 -0.23984237
0001f0 46 dd 1f 3e bd 0d 0e 3e e7 e3 8e be df b2 43 be
       0.15611753 0.13872428 -0.2790825 -0.19111203
000200 30 7a 06 be 37 f4 3d 3e e2 65 75 3e 2c db 40 be
       -0.13132548 0.18550192 0.23964646 -0.18833607
000210 de 48 86 3e b7 05 3b 3e 72 3e a3 3c d2 a3 48 be
       0.26227468 0.18263899 0.019927237 -0.19593742
000220 63 20 74 3d 03 ba 80 be 54 c7 9d 3d b1 fb 2b be
       0.0596012 -0.25141916 0.077040344 -0.16795231
000230 db f4 3f 3e c2 7c 8a be 57 3a 57 3d 1c 40 bc 3c
       0.18745749 -0.27048308 0.05254587 0.022979788
000240 e5 30 0b 3e bd c2 80 3e 92 ad 08 3e d2 21 52 3e
       0.1359287 0.25148574 0.13347462 0.20520714
000250 23 6e 12 3e 6b a3 54 be 90 8d 51 be fa 3c 52 3e
       0.14299826 -0.20765464 -0.20464158 0.20531073
000260 55 a5 79 3e d9 1a 80 bc fe 5f f4 bd 68 16 6a be
       0.24379475 -0.015637802 -0.119323716 -0.2286011
000270 c6 87 66 bd f5 3a 30 3d de 7c 24 bc c6 f8 12 be
       -0.056281827 0.043024976 -0.010039536 -0.14352712
000280 85 bc 44 3b a1 d2 8c 3e 8e db 81 3e 67 8a 74 3e
       0.0030019593 0.27504447 0.2536282 0.23880921
000290 12 7a 2f 3e 35 1a dd 3d a9 f6 67 be a1 b3 54 be
       0.1713641 0.10796014 -0.22652687 -0.20771648
0002a0 44 63 68 bd 71 e0 7e be 5d e1 8b be ea 9e c4 3d
       -0.056735292 -0.24890305 -0.27320376 0.09600623
0002b0 bb c5 32 be 70 dc 41 3e ed 92 17 3e c1 08 ae 3d
       -0.1745824 0.18931746 0.14802141 0.084977634
0002c0 bc 1c 24 3e cd 43 fe bd e8 85 6d bc fe 31 7c 3e
       0.16026586 -0.12415276 -0.014497258 0.24628446
0002d0 9d 1a 09 bd 12 12 bd 3c c7 98 85 3e 2c ae 82 bd
       -0.033472646 0.023079906 0.26093122 -0.06380877
0002e0 85 91 50 3d 69 4c a9 bd bd a2 80 3e 60 59 39 be
       0.05092003 -0.08266527 0.2512416 -0.181005
0002f0 f0 a5 0a be ed 20 d6 bd ae c2 83 be df f1 51 3e
       -0.13539863 -0.10455499 -0.25734466 0.20502423
000300 7e 7a e1 bd 1c 3e 7e 3c 26 4a 7d 3e 63 9a 71 bd
       -0.11009692 0.015517738 0.24735317 -0.058985125
000310 80 6f 4f 3e 4e 0c b0 3d fe be 3f 3e 9d 57 4b be
       0.20257378 0.08596097 0.18725201 -0.1985764
000320 ad ba b9 3d 94 65 54 3e 5b dc 40 bd 75 fa 08 bd
       0.09068809 0.20741874 -0.047085147 -0.03344198
000330 0c cc 84 bc e4 89 29 bd 06 36 25 be 2a 85 e2 3c
       -0.016210578 -0.04139127 -0.1613389 0.027651388
000340 cb dd 88 3e 22 6d a0 bd f0 32 07 be 17 7a 16 3d
       0.26731715 -0.078333154 -0.13203025 0.036737528
000350 7a ca 58 3d 02 f3 e7 3d a4 ea 4f be 13 5c b8 3d
       0.05292747 0.11325647 -0.20304352 0.09001937
000360 f8 83 6c 3e 3d 1c 02 be bd 48 c1 3d 7b 61 38 be
       0.23097217 -0.12706085 0.09437702 -0.18005936
000370 ab 50 83 3e 9b fb ea bd a0 f7 e8 3d c1 00 3c 3d
       0.25647482 -0.11473771 0.11375356 0.045899156
000380 12 f5 ce 3b 5a 72 48 be 13 b7 7f 3e 67 60 c7 3c
       0.0063158358 -0.19574872 0.24972181 0.02433796
000390 95 ed 10 3e ad dd 1a bd 94 97 09 3e ee c1 52 3e
       0.1415313 -0.037809063 0.13436729 0.20581791
0003a0 67 89 d8 bd 83 55 d6 3c 04 49 2b be 4e 53 2a 3e
       -0.105730824 0.026163822 -0.16727072 0.1663334
0003b0 1e 57 5d bd 08 38 e7 bc ef 2e 32 ba 80 12 4e be
       -0.05403816 -0.02822496 -0.0006797155 -0.20124245
0003c0 70 3d 44 3d d6 dd 10 3e 96 fe 76 3e 81 05 84 3e
       0.047910154 0.14147124 0.24120554 0.2578545
0003d0 4e 5e 78 bc ff 90 92 3d 65 45 c3 3d 8d ee 5b 3e
       -0.015159203 0.07156562 0.0953472 0.21477719
0003e0 bb d1 ce 3d 65 b1 a5 bd a5 1c 3b 3e 17 45 67 be
       0.10098597 -0.08090476 0.18272646 -0.2258495
0003f0 d7 83 c6 3d fc 44 4d 3d f7 47 16 3e 19 8c 8b 3e
       0.09693115 0.050114617 0.1467589 0.27255324
