model/model.tflite (tflite, 147188 bytes, 16 tensors)

arith.constant f4 [3, 32]
-0.16708988 -0.17085311 0.25342298 -0.17200623 0.46237078 -0.29377508 0.14898397 0.35459048
-0.32719067 -0.018835122 -0.15847278 -0.12882118 -0.31048164 0.41924635 0.058416314 -0.18835744
-0.13063733 -0.33964425 0.41938272 0.33613124 0.09970495 0.17225353 0.36081782 -0.30995637
-0.091653906 -0.08848292 0.19840379 0.1761757 0.27471492 0.060226925 0.15308686 -0.11545266
-0.35350132 0.15599348 -0.29315665 -0.21012375 -0.26900828 -0.21943372 -0.2985981 -0.13695177
-0.3833655 -0.11122244 0.22012539 -0.29175472 0.14538234 -0.099560976 -0.03258102 -0.04660579
0.19343698 -0.24352542 0.26206934 0.10183747 -0.08696551 -0.39938912 0.33786422 -0.29244912
-0.37809876 0.37204644 -0.15855774 -0.05435578 -0.21197471 -0.099503756 0.32607082 0.40807712
-0.026172439 0.14122365 0.056518726 0.06835339 -0.27315587 -0.2573286 0.12132578 0.06847655
-0.28931203 0.15134782 -0.2869135 -0.21498251 -0.035489224 -0.16752811 0.39676476 -0.29016715
0.3130882 0.18030712 0.13546778 -0.33714718 0.057387833 -0.1268016 0.26740643 -0.22998367
-0.20192708 0.35945618 -0.034732293 0.1375621 0.1474081 0.2584958 0.29202515 -0.27446112
00000000: 9c19 2bbe 1ef4 2ebe a8c0 813e 6722 30be
00000010: ddbb ec3e b069 96be 418f 183e e28c b53e
00000020: 8985 a7be 1d4c 9abc b046 22be b3e9 03be
00000030: 73f7 9ebe 75a7 d63e f245 6f3d c6e0 40be
00000040: cbc5 05be dae5 adbe 55b9 d63e 6519 ac3e
00000050: 1c32 cc3d 3b63 303e 1dbd b83e 9ab2 9ebe
00000060: 0bb5 bbbd 8836 b5bd 5d2a 4b3e 6767 343e
00000070: 6fa7 8c3e 82b0 763d cdc2 1c3e 7272 ecbd
00000080: 20fe b4be c1bc 1f3e a118 96be ae2a 57be
00000090: 74bb 89be 3cb3 60be dae1 98be 163d 0cbe
000000a0: 7c48 c4be 97c8 e3bd 8d68 613e e060 95be
000000b0: 1cdf 143e a0e6 cbbd ad73 05bd b6e5 3ebd
000000c0: 5814 463e ba5e 79be f42d 863e 2a90 d03d
000000d0: f91a b2bd bb7c ccbe 8afc ac3e e4bb 95be
000000e0: 2996 c1be df7c be3e f65c 22be 2ba4 5ebd
000000f0: e60f 59be a0c8 cbbd c1f2 a63e 7cef d03e
00000100: 9567 d6bc ef9c 103e 2e80 673d ddfc 8b3d
00000110: 16db 8bbe 93c0 83be a779 f83d 6f3d 8c3d
00000120: b520 94be ecfa 1a3e 54e6 92be 6024 5cbe
00000130: 265d 11bd 7d8c 2bbe c024 cb3e ca90 94be
00000140: 194d a03e 6ea2 383e 11b8 0a3e 8e9e acbe
00000150: 810f 6b3d 47d8 01be 7fe9 883e d780 6bbe
00000160: f9c5 4ebe a40a b83e 7343 0ebd 14dd 0c3e
00000170: 26f2 163e 9059 843e 5284 953e 2b86 8cbe

arith.constant1 f4 [32, 48]
-0.1572839 0.001363048 -0.1518 0.26857045 -0.23312241 0.016134512 0.0734369 0.16168334
0.08067933 0.12041653 -0.07430422 -0.04659053 0.043860245 0.1073743 0.046657536 -0.27143034
-0.25580668 -0.21091618 0.14668474 0.19739611 0.053489182 0.06379799 -0.25444087 -0.19720232
-0.1301558 -0.03868268 0.09909375 -0.2629219 -0.21330863 -0.19889712 -0.05232785 0.004571666
0.1526026 0.013326982 0.00042963855 -0.1766389 0.16586262 -0.020910136 0.11156642 0.083846785
-0.16479866 -0.08385924 0.0041991114 -0.002438306 0.2534619 -0.050326046 0.2668844 0.08984581
0.08247957 0.09116184 0.18549106 0.17937478 0.2522597 -0.19218072 0.059506185 -0.14176667
-0.07726093 -0.10882795 -0.0241643 0.096763715 0.16117837 -0.23733665 -0.02472433 -0.028868724
0.18088453 -0.25527063 -0.19445384 0.18446569 -0.18907382 0.11032292 -0.053488657 0.071013875
-0.21960582 0.00942857 -0.23442724 -0.222098 0.112872556 -0.10659447 0.1741944 -0.13520582
0.04628298 -0.1488962 0.1546773 0.21488863 0.22272418 -0.014664691 -0.12250203 -0.1932309
-0.20198509 -0.23982719 0.24024299 -0.22438455 0.2104419 0.12740181 0.022609914 -0.043721244
0.14637458 -0.24307007 0.18602912 0.14933658 -0.28437817 0.19386737 -0.13769738 -0.0279325
0.10814598 0.25118405 -0.25734776 0.20492671 -0.13106285 0.24879695 0.17485301 0.15470347
-0.19376537 0.17834137 0.16793475 -0.2399216 -0.1815398 0.16789117 0.15800227 0.079067566
0.102544606 0.067941554 0.08893501 0.0667976 0.23616235 0.02775561 0.21473005 -0.14055718
0.2674839 0.16598292 0.12056784 0.12791905 -0.21932198 -0.19860241 -0.25492343 0.058412638
0.21764503 0.15120356 0.08911133 0.20557559 0.22772746 0.11878709 -0.19188717 -0.13806619
0.13223904 0.071169406 0.19280362 0.06862429 0.06950229 -0.005384518 -0.25080216 0.19204158
0.12198706 -0.03857222 0.013723931 0.022581719 -0.029177295 0.21203874 -0.16480827 -0.17086309
-0.20167165 0.25506684 0.14918801 -0.15495639 0.18978675 0.01211554 0.12834966 -0.12859213
-0.010349875 -0.0506548 -0.20447767 -0.08173173 0.07620052 0.14871216 -0.035830542 -0.18009971
0.05148944 0.2325541 -0.07963266 0.09136498 0.16920978 -0.24045981 0.06861301 -0.124607705
0.015130244 0.061305404 -0.22381136 -0.19458553 0.1337449 -0.028836917 0.015897753 0.19070442
-0.13144252 -0.19804546 -0.14824645 0.030878454 -0.17970698 0.28036258 0.16666313 -0.21644434
0.0346791 -0.19976565 0.085633345 -0.07518954 0.15335675 -0.08292846 -0.15328084 -0.18149346
0.034013346 -0.18082847 -0.12406494 0.052392166 0.31713542 0.033672128 0.09011328 -0.08093943
0.21330123 -0.31727275 0.052885648 -0.17658414 -0.10168116 -0.049799014 0.2408315 0.2741854
0.33603704 -0.22428408 -0.017104862 0.098370954 -0.11681416 0.13031279 0.08929301 0.11380153
0.2862267 0.036220115 0.054283813 -0.08886617 0.023308147 0.13335615 0.1204333 0.12407813
0.20245814 0.28788933 -0.14551248 -0.13336465 0.064347506 0.21091501 -0.002778364 -0.11750955
-0.0839711 0.10408715 -0.07021087 0.11574733 0.21083947 0.020168407 0.043749385 -0.27132577
00000000: 080f 21be 4da8 b23a 7671 1bbe 1182 893e
00000010: a4b7 6ebe 862c 843c 1666 963d 5190 253e
00000020: 343b a53d f19c f63d d02c 98bd b6d5 3ebd
00000030: cda6 333d 0fe7 db3d f91b 3f3d ebf8 8abe
00000040: 18f9 82be 69fa 57be 8634 163e 3522 4a3e
00000050: 7917 5b3d 85a8 823d 1346 82be 68ef 49be
00000060: 9047 05be bb71 1ebd aaf1 ca3d b39d 86be
00000070: 946d 5abe b0ab 4bbe ba55 56bd eacd 953b
00000080: db43 1c3e 6a59 5a3c 1c41 e139 d4e0 34be
00000090: e4d7 293e bc4b abbc ef7c e43d ddb7 ab3d
000000a0: fbc0 28be 65be abbd b398 893b fdcb 1fbb
000000b0: c2c5 813e af22 4ebd 12a5 883e 1401 b83d
000000c0: 0ceb a83d 0fb3 ba3d 5ef1 3d3e 06ae 373e
000000d0: 2f28 813e 06cb 44be c2bc 733d 482b 11be
000000e0: fa3a 9ebd 30e1 debd 36f4 c5bc 0e2c c63d
000000f0: f10b 253e 6108 73be ae8a cabc 1a7e ecbc
00000100: cb39 393e d5b2 82be e81e 47be 93e4 3c3e
00000110: 919c 41be fcf0 e13d ec16 5bbd b96f 913d
00000120: 59e0 60be 4a7a 1a3c b20d 70be a86d 63be
00000130: ba29 e73d 344e dabd 0460 323e 6573 0abe
00000140: 3993 3d3d 3f78 18be ba63 1e3e c40b 5c3e
00000150: cf11 643e 2c44 70bc 58e2 fabd 52de 45be
00000160: 2ed5 4ebe 4295 75be 4202 763e 10c5 65be
00000170: 157e 573e 9f75 023e 6d38 b93c 0c15 33bd
00000180: 38e3 153e 5ce7 78be 6b7e 3e3e b0eb 183e
00000190: 049a 91be 2b85 463e 8b00 0dbe b3d2 e4bc
000001a0: a47b dd3d 329b 803e 16c3 83be 4fd8 513e
000001b0: 5735 06be a1c4 7e3e ab0c 333e 966a 1e3e
000001c0: 6e6a 46be 1f9f 363e 16f7 2b3e 02ae 75be
000001d0: 92e5 39be aaeb 2b3e 59cb 213e 2dee a13d
000001e0: e802 d23d f124 8b3d 8f23 b63d 2ecd 883d
000001f0: 8bd4 713e bc5f e33c 32e2 5b3e 39ee 0fbe
00000200: a6f3 883e 6df7 293e 46ec f63d 36fd 023e
00000210: f195 60be 6e5e 4bbe 5385 82be 1742 6f3d
00000220: 57de 5e3e 1bd5 1a3e 0080 b63d 6882 523e
00000230: 6331 693e a546 f33d 127e 44be 3961 0dbe
00000240: ac69 073e 44c1 913d 506e 453e e48a 8c3d
00000250: 3757 8e3d 9c70 b0bb 2469 80be 8ca6 443e
00000260: 5ad4 f93d e7fd 1dbd 57da 603c 4cfd b83c
00000270: 3905 efbc af20 593e 80c3 28be bcf6 2ebe
00000280: 0383 4ebe 1f98 823e bec4 183e e3ac 1ebe
00000290: 7557 423e 4280 463c 186e 033e a8ad 03be
000002a0: 8692 29bc 687b 4fbd 9862 51be f762 a7bd
000002b0: 050f 9c3d 0048 183e 0cc3 12bd 0f6c 38be
000002c0: 97e6 523d a922 6e3e 7316 a3bd 901d bb3d
000002d0: 5445 2d3e 193b 76be fa84 8c3d 5332 ffbd
000002e0: d8e4 773c 601b 7b3d ce2e 65be 6e41 47be
000002f0: 6cf4 083e 663b ecbc 013c 823c 0548 433e
00000300: de98 06be 6ecc 4abe ebcd 17be d0f4 fc3c
00000310: 1b05 38be af8b 8f3e bda9 2a3e 96a3 5dbe
00000320: ac0b 0e3d 5e8f 4cbe 8960 af3d f9fc 99bd
00000330: 8d09 1d3e 65d6 a9bd a7f5 1cbe 6cd9 39be
00000340: 9451 0b3d 192b 39be c215 febd 2b99 563d
00000350: 935f a23e c9eb 093d 508d b83d 92c3 a5bd
00000360: a36b 5a3e 9371 a2be 9f9e 583d 79d2 34be
00000370: 363e d0bd 0dfa 4bbd 889c 763e 0762 8c3e
00000380: 0c0d ac3e baaa 65be 7f1f 8cbc b676 c93d
00000390: 433c efbd b770 053e 41df b63d c710 e93d
000003a0: 4e8c 923e 8b5b 143d b458 5e3d 77ff b5bd
000003b0: baf0 be3c 848e 083e bca5 f63d ad1c fe3d
000003c0: 3051 4f3e 3b66 933e 3901 15be be90 08be
000003d0: a0c8 833d 1bfa 573e 3715 36bb d9a8 f0bd
000003e0: 0af9 abbd a52b d53d b7ca 8fbd f00c ed3d
000003f0: 4de6 573e 3738 a53c 8e32 333d 36eb 8abe

arith.constant2 f4 [48, 48]
-0.21916765 -0.03200382 0.21224195 -0.04874009 0.041158497 -0.1469453 0.07076824 -0.045891345
0.18589234 0.06666219 0.12245464 0.11051369 -0.23192489 -0.24716312 0.15395975 0.062903166
-0.23024803 0.22540605 -0.16001797 0.23245877 -0.11020571 -0.055183947 -0.2122767 -0.027605176
0.07569075 -0.08476287 0.1837073 -0.01785338 -0.17022479 0.06286913 -0.13658494 -0.18276393
0.22588372 -0.15518689 -0.017748654 -0.16198665 -0.12963212 0.19147456 -0.064723134 0.12281692
-0.23653042 -0.010483623 -0.066530585 -0.15691072 -0.075644076 -0.117607236 -0.2481637 -0.1716981
-0.025745451 0.08270027 0.15774608 -0.22381939 0.13465734 0.09675368 -0.18062516 0.12459296
0.16754796 -0.13984682 0.18999347 0.11713638 -0.13036883 -0.133704 0.18625967 -0.028531384
-0.1693576 -0.214657 0.08008452 -0.1541663 0.11356726 -0.0019768612 -0.19942187 -0.07396945
0.10279677 -0.22405702 -0.06173631 0.24724618 -0.13432586 -0.12378961 -0.005740972 -0.0057251216
-0.0054499507 -0.19690895 0.11643547 0.138028 -0.2225541 0.02830958 -0.07976124 -0.22999437
-0.17693631 0.011468161 0.0170764 0.22616273 -0.16515283 -0.051784065 -0.21089481 -0.005764494
0.108659625 -0.02946196 0.16984446 -0.12226825 -0.2542972 0.15746178 -0.23261578 0.15111575
-0.16834232 -0.07659615 0.09446718 -0.18671155 -0.1207707 0.036223758 -0.19391213 0.17186157
-0.11462878 -0.108292945 0.19700642 -0.17906077 -0.18049087 0.17055406 0.091758445 0.031870227
0.16914454 0.09136926 0.19793114 0.14486317 -0.115905836 0.20474446 -0.12231372 -0.25277692
0.21539621 0.030782312 0.08353279 -0.2005924 0.08189506 -0.25159848 -0.010670275 0.1080131
0.06726748 -0.14929876 -0.012808388 -0.21665663 -0.2255715 0.045321647 0.10135297 -0.04155491
-0.12743735 0.15091477 0.17625886 -0.20606971 0.07961187 -0.19889222 0.20923784 0.08681715
0.017704828 0.14416645 -0.19057131 0.04981951 -0.18161322 -0.03107056 0.023244435 -0.184782
-0.031498607 -0.16260996 -0.084915794 -0.22747661 0.010994188 -0.037452344 0.110856205 0.1811279
0.13668407 0.21494678 0.062167775 0.19019093 0.12950087 0.14707482 0.04821803 -0.13538256
-0.08657039 -0.06522465 0.10591668 -0.24057624 0.024369832 0.10771648 0.23235935 0.14575566
0.1118932 0.1720022 0.35194585 0.20354584 -0.185564 -0.24441913 -0.11990437 -0.20651889
-0.21401912 -0.20712131 0.015883354 0.014234926 0.024011565 -0.06509561 0.04783342 0.1394936
-0.05415833 0.20374545 0.25178972 -0.048931483 -0.074451245 0.23829186 0.21871822 -0.13790911
0.03771531 0.15183446 0.22132587 -0.17259781 0.14173678 -0.17841539 -0.05300909 -0.09848453
0.17832176 -0.2126447 0.14557323 -0.16470893 -0.19165462 0.034965277 0.04299532 -0.08275791
0.0140562905 -0.13059258 0.113120146 -0.10082503 0.25414503 0.10911446 -0.09404078 -0.15144272
-0.029288335 0.25454676 -0.12034844 0.15700778 0.18714306 -0.029487908 0.138346 0.19975227
0.13843632 0.08059436 -0.16718523 0.14834271 -0.12402041 0.07398028 -0.16126762 -0.019283127
-0.25673053 -0.2512021 0.026133921 0.22166844 0.122694895 0.078656316 -0.19468498 -0.008354339
00000000: 7c6d 60be 7016 03bd f455 593e b0a3 47bd
00000010: d095 283d d478 16be f0ee 903d 90f8 3bbd
00000020: 905a 3e3e 3086 883d 80c9 fa3d 0055 e23d
00000030: b87d 6dbe 5418 7dbe a0a7 1d3e 60d3 803d
00000040: 24c6 6bbe d8d0 663e c0db 23be ac09 6e3e
00000050: 88b3 e1bd 9008 62bd 105f 59be 4024 e2bc
00000060: c003 9b3d 2898 adbd c41d 3c3e 4041 92bc
00000070: 684f 2ebe 88c1 803d ecdc 0bbe 7826 3bbe
00000080: 104e 673e 50e9 1ebe a065 91bc d4df 25be
00000090: 48be 04be e811 443e 908d 84bd 7087 fb3d
000000a0: 0835 72be 80c3 2bbc 3041 88bd 34ad 20be
000000b0: 48eb 9abd 10dc f0bd a01e 7ebe a0d1 2fbe
000000c0: 20e8 d2bc c25e a93d 3088 213e e930 65be
000000d0: 9de3 093e cb26 c63d cdf5 38be 982a ff3d
000000e0: b191 2b3e 0134 0fbe a68d 423e 33e5 ef3d
000000f0: 687f 05be b4e9 08be dbba 3e3e a6ba e9bc
00000100: 146c 2dbe 0bcf 5bbe 5a03 a43d c5dd 1dbe
00000110: f495 e83d 3a8e 01bb 3f35 4cbe 4c7d 97bd
00000120: 1d87 d23d 346f 65be 37df 7cbd 1a2e 7d3e
00000130: b88c 09be 6885 fdbd c31e bcbb cd99 bbbb
00000140: 8095 b2bb 80a2 49be b875 ee3d 3657 0d3e
00000150: 39e5 63be 7ee9 e73c dc59 a3bd a583 6bbe
00000160: cb2e 35be f4e4 3b3c cee3 8b3c 3497 673e
00000170: d31d 29be 871b 54bd cff4 57be 15e4 bcbb
00000180: f088 de3d 355a f1bc b5eb 2d3e c767 fabd
00000190: 3e33 82be a93d 213e d532 6ebe 16be 1a3e
000001a0: ee61 2cbe 71de 9cbd 0278 c13d 5031 3fbe
000001b0: a156 f7bd 5d5f 143d e790 46be 7bfc 2f3e
000001c0: 7ec2 eabd b1c8 ddbd 0dbc 493e b55b 37be
000001d0: 99d2 38be b9a5 2e3e daeb bb3d 5b8a 023d
000001e0: 3a34 2d3e ce1f bb3d 76ae 4a3e 0357 143e
000001f0: 0a60 edbd 88a8 513e 9e7f fabd fa6b 81be
00000200: d390 5c3e 302b fc3c 3d13 ab3d 1868 4dbe
00000210: 99b8 a73d 84d1 80be 61d2 2ebc f935 dd3d
00000220: 88c3 893d c6e1 18be 46da 51bc 3cdb 5dbe
00000230: 37fc 66be 31a3 393d 2592 cf3d 7b35 2abd
00000240: f07e 02be 6789 1a3e 347d 343e f003 53be
00000250: 8c0b a33d 67aa 4bbe 7242 563e 31cd b13d
00000260: b709 913c 5fa0 133e 2025 43be 8b0f 4c3d
00000270: d1f8 39be b087 febc 1d6b be3c 7e37 3dbe
00000280: af04 01bd 3a83 26be 55e8 adbd a1ef 68be
00000290: f720 343c a167 19bd 9408 e33d 9879 393e
000002a0: e9f6 0b3e 021b 5c3e a3a3 7e3d 69c1 423e
000002b0: e09b 043e c89a 163e 4580 453d baa1 0abe
000002c0: d14b b1bd 8094 85bd d8ea d83d 9e59 76be
000002d0: 3ea3 c73c 759a dc3d 9cef 6d3e f940 153e
000002e0: 4328 e53d 5821 303e 3f32 b43e 526e 503e
000002f0: 7d04 3ebe 0249 7abe 6c90 f5bd b079 53be
00000300: d427 5bbe 9c17 54be cf1d 823c 9b39 693c
00000310: e7b3 c43c d950 85bd faec 433d 69d7 0e3e
00000320: 20d5 5dbd a6a2 503e 95ea 803e 616c 48bd
00000330: e579 98bd c802 743e abf7 5f3e 0c38 0dbe
00000340: 5e7b 1a3d 7e7a 1b3e 40a3 623e 7bbd 30be
00000350: 7223 113e 86b2 36be 0f20 59bd 42b2 c9bd
00000360: fb99 363e 88bf 59be 2611 153e 75a9 28be
00000370: 1c41 44be c037 0f3d dc1b 303d fb7c a9bd
00000380: 5b4c 663c 10ba 05be 89ab e73d 5a7d cebd
00000390: 4c1f 823e 6777 df3d 7498 c0bd cd13 1bbe
000003a0: 17ee efbc f453 823e 3e79 f6bd a6c6 203e
000003b0: 6ea2 3f3e a090 f1bc 93aa 0d3e dc8b 4c3e
000003c0: 40c2 0d3e a80e a53d 9b32 2bbe 27e7 173e
000003d0: 6afe fdbd f982 973d 5723 25be a6f7 9dbc
000003e0: 2f72 83be 909d 80be ce16 d63c 0dfd 623e
000003f0: 7647 fb3d 9016 a13d 805b 47be a3e0 08bc

arith.constant3 f4 [48, 48]
0.10036743 0.1141237 0.048841655 -0.19817573 0.15590775 -0.21372145 -0.051619112 0.096955895
-0.21802491 0.24201292 -0.050554514 0.004535258 0.046066105 0.119714856 -0.22207463 -0.20029062
-0.121251106 -0.100651145 0.0912649 -0.11998904 -0.121701 -0.005647123 -0.11193049 0.13007438
0.24285668 -0.2079286 -0.18106115 -0.12471855 -0.17488247 -0.12243247 -0.1427868 -0.18717486
0.10829419 0.21795744 0.013408184 0.15119702 0.2083844 -0.13255072 0.20538205 0.216735
0.19875675 0.18525308 -0.06995517 -0.09857613 0.043557823 -0.13221067 -0.21731812 -0.1712668
-0.11159006 -0.094940804 -0.02797987 0.06811232 -0.007817783 0.026029965 0.15619777 0.18957254
-0.032598622 -0.2028188 -0.19788973 -0.16633429 0.0033246735 -0.06768204 -0.08188099 0.11939109
-0.16291913 0.23496774 0.21532182 0.14126809 -0.24927096 -0.057628505 -0.15315586 0.16239494
0.1454323 -0.1320451 0.033654768 -0.066888 -0.23489295 0.16715457 -0.10193975 -0.004989946
-0.012255597 0.11157638 0.15963571 -0.085653566 -0.01166686 -0.2448142 0.2288859 -0.09600548
0.17089604 -0.038291797 0.09677656 -0.032591324 -0.24049468 -0.1684299 0.047350194 0.009780543
-0.0643295 -0.14317188 0.22334659 -0.06425272 -0.12574951 -0.2289256 0.18743749 0.225671
-0.23872866 0.03714377 -0.18037102 0.1750359 0.15635628 0.2357574 0.12573558 -0.23788828
-0.14170043 -0.021032482 0.18894541 0.16092037 -0.086253546 0.12001624 -0.24022022 -0.1422163
0.2661702 0.15387999 0.19772135 -0.016436063 0.21913095 -0.12971999 0.067814164 0.011235823
-0.2087174 0.10351224 0.16957547 0.22668295 -0.23011094 -0.08886745 -0.0051580574 0.1408127
-0.11495047 0.18212767 -0.21450041 0.12135407 0.15344249 0.03635856 -0.16057396 0.17414354
-0.116728835 -0.2005008 0.09219402 0.14776011 -0.15649328 0.20836183 0.21252367 0.038085647
0.18377785 -0.16575201 0.065886855 0.13642648 -0.08795215 0.19187634 -0.08341514 -0.13222012
0.1529001 -0.001767699 -0.23533003 -0.221157 0.0056468365 0.2529569 0.16260026 -0.09522412
0.11606722 -0.19199175 0.12767643 -0.16392952 -0.19470558 0.1937978 -0.1383634 0.19428246
-0.22691871 0.16572335 -0.18654847 -0.032314777 0.028718475 0.21658498 -0.24197963 0.013884423
-0.093578845 -0.17717116 -0.04109092 0.2185103 -0.05160744 -0.001049606 0.2474179 -0.22784702
-0.059016366 -0.21943694 0.047786653 -0.22418298 -0.074773505 0.12421528 0.17348954 -0.17815724
0.09326366 -0.23942764 -0.18052548 0.08237584 -0.18076766 -0.15096469 0.12068118 -0.08650607
-0.024154669 -0.04870753 0.13589114 0.0642928 0.045875654 0.00056972395 0.19250713 0.09227095
-0.116550446 -0.025633188 -0.07482659 -0.12527457 -0.20161866 -0.097985215 -0.023025014 -0.13849944
-0.22816652 -0.15076943 -0.009010838 0.14587758 -0.0635724 0.17543451 -0.0850528 -0.15425064
0.03435254 0.18307137 -0.24186361 0.05296523 0.096725255 -0.1281439 0.09711898 -0.049466338
-0.08544918 0.105598725 -0.20583618 0.03232504 -0.025982969 -0.09691423 -0.01681774 -0.16500832
-0.1726171 0.2009154 -0.03937731 -0.1321363 -0.23258066 -0.029336436 0.10462357 -0.081103735
00000000: 708d cd3d b0b9 e93d 300e 483d 94ee 4abe
00000010: 48a6 1f3e ccd9 5abe 906e 53bd d090 c63d
00000020: ec41 5fbe 3cd2 773e 4012 4fbd 809c 943b
00000030: d0af 3c3d 102d f53d 8867 63be fc18 4dbe
00000040: 8052 f8bd 3022 cebd 18e9 ba3d d0bc f5bd
00000050: 603e f9bd 800b b9bb d03b e5bd 3832 053e
00000060: 6caf 783e 3ceb 54be 1868 39be 706c ffbd
00000070: 6414 33be e0bd fabd b436 12be c4aa 3fbe
00000080: 58c9 dd3d 3c30 5f3e 00ae 5b3c 64d3 1a3e
00000090: b862 553e 60bb 07be ac4f 523e c8ef 5d3e
000000a0: e486 4b3e fcb2 3d3e a844 8fbd 48e2 c9bd
000000b0: b069 323d 3c62 07be a488 5ebe 9060 2fbe
000000c0: 5489 e4bd 5370 c2bd 0a36 e5bc 797e 8b3d
000000d0: 2916 00bc cb3c d53c 4ff2 1f3e 4e1f 423e
000000e0: 2286 05bd bbaf 4fbe 9ba3 4abe 8953 2abe
000000f0: c4e2 593b e29c 8abd 38b1 a7bd 5183 f43d
00000100: 46d4 26be 629b 703e 537d 5c3e 95a8 103e
00000110: e340 7fbe de0b 6cbd e4d4 1cbe dc4a 263e
00000120: 34ec 143e d536 07be 95d9 093d 93fc 88bd
00000130: c787 70be 912a 2b3e cac5 d0bd b382 a3bb
00000140: b3cb 48bc 2882 e43d 8b77 233e 236b afbd
00000150: 5c26 3fbc 93b0 7abe 1161 6a3e 859e c4bd
00000160: 5fff 2e3e dcd7 1cbd ca32 c63d 7b7e 05bd
00000170: 3d44 76be e378 2cbe 47f2 413d 923e 203c
00000180: 2fbf 83bd a69b 12be f8b4 643e ee96 83bd
00000190: 7bc4 00be 796b 6abe 9def 3f3e 4c16 673e
000001a0: 4975 74be 1124 183d 2eb3 38be 9c3c 333e
000001b0: dc1b 203e 636a 713e d4c0 003e fc98 73be
000001c0: eb19 11be 504c acbc e87a 413e 4fc8 243e
000001d0: b3a5 b0bd 13cb f53d 4afc 75be 26a1 11be
000001e0: 7647 883e b792 1d3e 7777 4a3e eca4 86bc
000001f0: dd63 603e 51d5 04be 27e2 8a3d 7516 383c
00000200: 04ba 55be 3afe d33d 31a5 2d3e 931f 683e
00000210: 34a2 6bbe 2300 b6bd ec04 a9bb 3431 103e
00000220: 276b ebbd ad7f 3a3e ffa5 5bbe 7c88 f83d
00000230: 0720 1d3e b7ec 143d 806d 24be af52 323e
00000240: 870f efbd 1550 4dbe 38d0 bc3d 6d4e 173e
00000250: c63f 20be ce5c 553e ce9f 593e b2ff 1b3d
00000260: 4330 3c3e e5ba 29be b0ef 863d 62b3 0b3e
00000270: 4220 b4bd 3b7b 443e 8fd5 aabd b664 07be
00000280: d891 1c3e 23b2 e7ba 5bfa 70be fb76 62be
00000290: 1909 b93b 9183 813e af80 263e dd04 c3bd
000002a0: a7b4 ed3d 7c99 44be 9cbd 023e 24dd 27be
000002b0: e660 47be ee72 463e 23af 0dbe fbf1 463e
000002c0: 615d 68be 62b3 293e 9006 3fbe 805c 04bd
000002d0: 0243 eb3c 74c8 5d3e 82c9 77be 7e7b 633c
000002e0: 44a6 bfbd 5b6c 35be f44e 28bd 2ac1 5f3e
000002f0: 5362 53bd ef92 89ba 1e5b 7d3e bb50 69be
00000300: 25bb 71bd 14b4 60be f0bb 433d 3990 65be
00000310: da22 99bd 9564 fe3d 3ea7 313e da6e 36be
00000320: 0501 bf3d 852c 75be acdb 38be aab4 a83d
00000330: 281b 39be 7d96 1abe b227 f73d 182a b1bd
00000340: 03e0 c5bc 8c81 47bd 0c27 0b3e f2ab 833d
00000350: 1ce8 3b3d 8759 153a 9720 453e 8df8 bc3d
00000360: 00b2 eebd b1fc d1bc af3e 99bd fa47 00be
00000370: 1f75 4ebe 79ac c8bd f49e bcbc ccd2 0dbe
00000380: 7ca4 69be 4d63 1abe 32a2 13bc ef60 153e
00000390: 3f32 82bd 1ba5 333e 2a30 aebd e1f3 1dbe
000003a0: 40b5 0c3d 1077 3b3e 18ab 77be 12f2 583d
000003b0: e417 c63d 2838 03be 51e6 c63d 379d 4abd
000003c0: fbff aebd 2544 d83d b8c6 52be 4367 043d
000003d0: 3cda d4bc f87a c6bd 5bc5 89bc f1f7 28be
000003e0: 89c2 30be c4bc 4d3e 1a4a 21bd bd4e 07be
000003f0: a029 6ebe f752 f0bc e244 d63d b719 a6bd

arith.constant4 f4 [48, 48]
0.22164695 -0.036340635 -0.19436564 0.18674228 0.18893959 -0.06255466 0.13051279 -0.14480901
-0.17214032 -0.24373183 -0.082408234 0.08699536 0.14947827 -0.08891065 0.019852957 -0.056175172
-0.1241251 -0.2085086 -0.014788428 -0.0361858 0.051762212 0.09291792 0.10737223 0.059054773
-0.23584493 0.22358711 -0.17937638 -0.12733611 -0.24449383 -0.067741446 0.26260236 0.20846339
-0.20799488 0.004081021 -0.060343035 -0.004052982 0.1225171 0.19215882 0.17758328 -0.22027446
0.17658477 0.03183532 -0.038300294 -0.15383361 -0.23888284 0.18186538 -0.082497545 -0.040014435
0.027396386 -0.22746058 -0.2362714 0.08514568 -0.021119362 0.15165216 0.08420171 -0.15748626
0.24446972 -0.1964433 -0.17090927 -0.12458928 -0.10132248 -0.063705035 -0.23399286 0.09019357
0.1759284 -0.098776914 -0.03272164 -0.045058664 0.0077449596 0.17660467 0.026614863 0.17122842
0.11011964 -0.14066392 -0.024765713 0.013707142 0.113132715 0.13730878 0.060091868 -0.13508241
-0.15204936 0.22480224 -0.1449061 -0.009094921 0.18068698 -0.009248035 -0.18585515 -0.23449089
0.10560914 -0.054048155 -0.07739872 -0.07887005 -0.056309644 -0.112066165 -0.20871426 -0.16083017
0.09769547 -0.14156455 -0.1850224 -0.097992815 0.2110828 -0.04411769 -0.016989708 -0.17681456
0.13532887 0.035556607 -0.11084103 0.13478586 -0.17119586 -0.12465602 0.051367488 -0.054790854
-0.07609597 0.031586863 -0.115365766 -0.050269973 0.1438297 0.19766325 -0.060499012 -0.2261352
0.06911129 0.051229224 -0.07653139 -0.24882293 -0.10863453 -0.053129133 -0.038155735 0.006623061
-0.098587155 -0.12610418 -0.18466479 0.010549375 -0.09898925 -0.034592927 0.13207366 0.031329826
0.16791499 -0.027705789 0.03368195 -0.005963543 -0.24318215 -0.02222842 -0.07240653 0.23827368
0.015949197 -0.06446277 0.18029359 0.13601135 -0.20424744 0.004065752 0.12486529 -0.16834196
-0.23316076 -0.25341645 -0.2413626 0.22745252 -0.07665155 0.058201514 -0.03414321 0.14461702
0.07292627 0.21980919 -0.16264558 0.09590128 0.077532634 -0.2567196 -0.15553911 -0.11549377
0.13495174 0.14309129 0.2014035 -0.059676755 -0.21973877 -0.11291886 0.089059494 0.18536669
-0.099145465 0.06362981 0.027057843 0.10912215 0.15504633 -0.23585346 0.0353835 0.1488157
0.024396447 -0.21889554 -0.08067112 0.056397587 0.086198315 -0.21036075 -0.16303746 -0.12367912
0.11216713 -0.17193872 0.18778776 0.097163185 -0.13437258 -0.09199971 0.08520582 0.23029917
0.0029103407 -0.14413477 0.1809672 -0.00964691 0.20504954 -0.10430866 -0.2119445 -0.081587374
0.021837516 -0.06539403 -0.12525474 -0.14077896 -0.08296501 -0.12025998 -0.19059698 0.11139255
-0.15558429 -0.1023993 0.07181185 -0.157777 0.10416278 -0.15869363 -0.251636 -0.080196954
0.18266921 -0.05862613 -0.21013081 -0.13408224 -0.25696406 0.16771217 0.25131676 -0.04761855
0.0032622814 0.112417005 0.20133285 -0.022326533 0.16078053 -0.105883464 0.025808068 0.14939317
-0.019199552 0.22533725 -0.014596655 0.12850851 0.18021883 -0.06645954 -0.048796862 0.109760165
-0.14712837 0.21974282 -0.042461243 0.040204026 -0.17068619 -0.14843142 -0.132992 -0.027676284
00000000: 6bf7 623e ebd9 14bd c907 47be 5e39 3f3e
00000010: 6179 413e a81c 80bd 25a5 053e d048 14be
00000020: 8d45 30be d694 79be a6c5 a8bd a02a b23d
00000030: d510 193e c916 b6bd aba2 a23c f017 66bd
00000040: 4d35 febd 4783 55be 2a4b 72bc 9037 14bd
00000050: 9d04 543d c04b be3d f9e5 db3d 6be3 713d
00000060: 5581 71be 05f4 643e 71ae 37be 6664 02be
00000070: 975c 7abe 07bc 8abd d173 863e 6d77 553e
00000080: 9cfc 54be 16ba 853b 422a 77bd e1ce 84bb
00000090: 3fea fa3d 48c5 443e 64d8 353e a18f 61be
000000a0: a3d2 343e c165 023d c5e0 1cbd 8f86 1dbe
000000b0: b49d 74be eb3a 3a3e 79f4 a8bd 2de6 23bd
000000c0: 636e e03c 6deb 68be 21f1 71be dc60 ae3d
000000d0: 8302 adbc b44a 1b3e f271 ac3d 1444 21be
000000e0: 4556 7a3e 6f28 49be d702 2fbe aa28 ffbd
000000f0: 2982 cfbd c977 82bd d39b 6fbe 68b7 b83d
00000100: 9326 343e 8d4b cabd 2007 06bd 6f8f 38bd
00000110: 6ec9 fd3b dbd7 343e 6a07 da3c 8156 2f3e
00000120: 6886 e13d 340a 10be 77e1 cabc ec93 603c
00000130: 20b2 e73d ac9a 0c3e e422 763d 0b53 0abe
00000140: d4b2 1bbe 8f32 663e 4462 14be dd02 15bc
00000150: 0206 393e 1285 17bc d050 3ebe 611e 70be
00000160: 9b49 d83d 9961 5dbd 3883 9ebd 9f86 a1bd
00000170: f1a4 66bd f282 e5bd 31b9 55be aab0 24be
00000180: 9014 c83d 4cf6 10be 8376 3dbe 75b0 c8bd
00000190: 1726 583e c0b4 34bd 002e 8bbc e00e 35be
000001a0: a793 0a3e cea3 113d 9f00 e3bd 4e05 0a3e
000001b0: f84d 2fbe a84b ffbd b766 523d 606c 60bd
000001c0: 34d8 9bbd 3a61 013d e344 ecbd e3e7 4dbd
000001d0: 1848 133e 3c68 4a3e d0cd 77bd fc8f 67be
000001e0: 388a 8d3d bcd5 513d 7dbc 9cbd 70cb 7ebe
000001f0: c87b debd ef9d 59bd 3049 1cbd 4306 d93b
00000200: 10e8 c9bd 7421 01be c418 3dbe 49d7 2c3c
00000210: e0ba cabd 50b1 0dbd 513e 073e b453 003d
00000220: e8f1 2b3e 40f7 e2bc 16f6 093d d369 c3bb
00000230: be04 79be 6018 b6bc e049 94bd 04fe 733e
00000240: e4a7 823c 0f05 84bd e29e 383e 8f46 0b3e
00000250: 3e26 51be 003a 853b 60b9 ff3d d661 2cbe
00000260: b2c1 6ebe cdbf 81be c227 77be 50e9 683e
00000270: 7dfb 9cbd b664 6e3d c0d9 0bbd 7c16 143e
00000280: 5e5a 953d a915 613e 908c 26be e467 c43d
00000290: 6ec9 9e3d c070 83be a545 1fbe ff87 ecbd
000002a0: ca30 0a3e 8686 123e b83c 4e3e 9d6f 74bd
000002b0: 3303 61be 0142 e7bd d364 b63d c4d0 3d3e
000002c0: c70c cbbd 5950 823d 69a8 dd3c 6f7b df3d
000002d0: 77c4 1e3e 9283 71be 4aee 103d 2563 183e
000002e0: 0fdb c73c 2726 60be e636 a5bd 2801 673d
000002f0: be88 b03d cf68 57be 4bf3 26be 7a4b fdbd
00000300: e1b7 e53d b410 30be 6f4b 403e 7efd c63d
00000310: f798 09be 586a bcbd 6480 ae3d 8cd3 6b3e
00000320: 6abb 3e3b 1198 13be 774f 393e 130e 1ebc
00000330: 82f8 513e c79f d5bd fb07 59be 4817 a7bd
00000340: 97e4 b23c 4eed 85bd c742 00be 5c28 10be
00000350: 8fe9 a9bd dd4a f6bd db2b 43be c721 e43d
00000360: 7d51 1fbe b9b6 d1bd 1712 933d 4b90 21be
00000370: 4c53 d53d 9580 22be 6fd6 80be 4d3e a4bd
00000380: a30d 3b3e f421 70bd 882c 57be db4c 09be
00000390: cb90 83be bdbc 2b3e 97ac 803e ab0b 43bd
000003a0: 00cc 553b e33a e63d 332a 4e3e 22e6 b6bc
000003b0: a7a3 243e 6ed9 d8bd 716b d33c 86fa 183e
000003c0: 6148 9dbc cfbe 663e cf26 6fbc bc97 033e
000003d0: 498b 383e f01b 88bd 38df 47bd f0c9 e03d
000003e0: d2a8 16be 4304 613e d7eb 2dbd faac 243d
000003f0: 5cc8 2ebe 68fe 17be 0e2f 08be 60b9 e2bc

arith.constant5 f4 [48, 48]
-0.1871362 -0.1898187 -0.08972932 -0.012355558 0.1535591 -0.023741892 -0.0086848335 -0.026321545
-0.16848087 0.008634339 -0.21563476 0.16042513 -0.19412723 0.19386391 0.21945177 0.060224622
0.07364335 -0.15404846 0.072571956 0.14421558 -0.0675892 -0.04348273 0.22553979 0.111589275
0.15147606 -0.22583185 -0.017488131 -0.26032877 -0.089578055 0.023252223 0.2318216 0.19794981
-0.11668483 -0.21386343 0.09832474 -0.11512155 0.0024858108 0.13013557 0.20159484 -0.05764347
-0.1905389 -0.20932561 -0.024746181 -0.09564371 -0.055444583 -0.0332964 0.024165688 0.18040717
-0.22036485 0.20428137 0.24909072 -0.22243829 0.03316758 0.11346014 0.22672018 0.24346305
0.13780218 0.22275308 -0.1954024 -0.09497914 0.20896512 -0.14602189 0.24288927 -0.17760828
0.020379907 -0.1483516 -0.17638627 -0.23798329 -0.053322792 -0.23190163 -0.10479716 0.15513742
0.12589702 0.18398042 0.0092575075 -0.10505296 -0.14113177 -0.056204222 -0.07003864 0.027194427
0.16644575 0.19925855 0.032026824 -0.052348185 0.18941686 0.022010552 0.010106538 -0.21200825
0.053812608 0.1583277 -0.07159591 0.19946979 -0.021927562 -0.20888342 -0.2085023 0.11043596
-0.12217018 -0.090755604 -0.19466387 -0.1470561 -0.12729113 0.06590332 -0.17006908 -0.20367247
-0.09533631 0.0714819 -0.1414472 0.18617198 -0.19992574 -0.23512368 0.07476606 -0.057897836
-0.06036562 0.1998073 0.12305305 0.20648134 0.16388321 0.20209125 0.12565471 0.09378231
0.1107677 0.15971981 -0.170586 -0.21609984 0.15899538 -0.006434797 -0.07665604 0.22289307
0.034959983 0.18218347 0.10194339 0.13803142 0.086031 0.23278405 0.072282344 0.124449186
0.12256161 0.09898188 -0.1876564 -0.22894321 0.020174352 0.209484 -0.12928414 -0.05402741
0.09312876 -0.06915574 0.09537222 -0.19005048 0.052834217 0.095237054 -0.23555166 0.23100469
0.0447973 0.14265981 0.08523117 -0.21552284 0.19743724 -0.2032912 -0.23950239 0.02096777
0.0735581 -0.18783736 0.23052949 -0.001354721 -0.153003 -0.22825958 -0.123482086 0.23185524
-0.15171227 0.20765065 0.2406513 -0.08431136 -0.20953529 0.23878367 0.20531818 0.20631048
-0.041947488 -0.22633131 0.20669308 -0.0460069 -0.03273172 0.20477884 -0.2514281 0.03749078
0.09056798 0.22789995 0.15198857 0.16408892 -0.10451723 0.13518162 0.07182478 0.20421386
-0.15319975 0.048197363 -0.21552475 -0.19272359 0.18293566 -0.17550892 -0.19444811 0.16245571
-0.12338462 -0.13842596 -0.034457132 0.23034537 -0.23352015 0.004897106 0.14101177 0.22921975
0.056318432 -0.14258064 0.2109948 -0.23945256 -0.017778683 0.04453747 -0.17186417 0.0677727
0.1214111 0.21320125 -0.0040458767 0.022958554 0.037560374 0.02780183 -0.23692453 0.090343386
-0.00041036977 -0.06812957 0.15000175 0.14464442 -0.05597604 0.1278392 0.08351481 0.25735694
0.008505532 0.06333777 0.072271384 0.23815937 -0.03620762 0.14664005 0.11062974 0.05665917
-0.1661613 0.19549897 -0.021289997 -0.0027724802 -0.021736741 0.019160548 0.006495747 -0.08611382
-0.22602457 0.031298578 0.14074999 -0.19748901 -0.081831574 0.10064864 0.18783295 0.03648307
00000000: a2a0 3fbe d55f 42be 01c4 b7bd f76e 4abc
00000010: 993e 1d3e 5b7e c2bc d54a 0ebc 48a0 d7bc
00000020: 4086 2cbe 0b77 0d3c 5ccf 5cbe 7c46 243e
00000030: 4ac9 46be 4384 463e f7b7 603e 18ae 763d
00000040: 53d2 963d e1be 1dbe 9ba0 943d 40ad 133e
00000050: 356c 8abd f21a 32bd e7f3 663e eb88 e43d
00000060: 8a1c 1b3e 7740 67be 4543 8fbc d049 85be
00000070: b374 b7bd 727b be3c a462 6d3e 5bb3 4a3e
00000080: 75f8 eebd 04ff 5abe 7b5e c93d d9c4 ebbd
00000090: fce8 223b 4242 053e e16e 4e3e 8f1b 6cbd
000000a0: a11c 43be 7459 56be 81b8 cabc d9e0 c3bd
000000b0: dc19 63bd ce61 08bd 1ff7 c53c a8bc 383e
000000c0: 53a7 61be 232f 513e a311 7f3e ddc6 63be
000000d0: bada 073d ca5d e83d 5629 683e 614e 793e
000000e0: 041c 0d3e 6219 643e 9117 48be 6c84 c2bd
000000f0: f4fa 553e c386 15be f7b7 783e f2de 35be
00000100: c3f3 a63c 7be9 17be 9a9e 34be e4b1 73be
00000110: 0069 5abd 9f77 6dbe e59f d6bd 58dc 1e3e
00000120: 26eb 003e 5d65 3c3e cdac 173c 0226 d7bd
00000130: d984 10be 6636 66bd 6b70 8fbd d9c6 de3c
00000140: c170 2a3e 6f0a 4c3e 8f2e 033d 0d6b 56bd
00000150: 7ef6 413e 794f b43c e595 253c b118 59be
00000160: 9c6a 5c3d a820 223e e0a0 92bd cf41 4c3e
00000170: 6ea1 b3bc 89e5 55be a081 55be 402c e23d
00000180: 5c34 fabd 13de b9bd f755 47be e095 16be
00000190: 9b58 02be 52f8 863d 9726 2ebe 848f 50be
000001a0: af3f c3bd 1a65 923d 89d7 10be dea3 3e3e
000001b0: 55b9 4cbe 43c4 70be f31e 993d 4826 6dbd
000001c0: f141 77bd 499a 4c3e 3d03 fc3d d86f 533e
000001d0: 00d1 273e 02f1 4e3e a1ab 003e f110 c03d
000001e0: 2dda e23d 978d 233e 19ae 2ebe 4749 5dbe
000001f0: afcf 223e fdda d2bb d8fd 9cbd 153e 643e
00000200: 3332 0f3d 4e8e 3a3e b2c7 d03d 1c58 0d3e
00000210: 0531 b03d f15e 6e3e c408 943d 37df fe3d
00000220: 9501 fb3d 03b7 ca3d 0029 40be 1770 6abe
00000230: af44 a53c f982 563e 1063 04be d84b 5dbd
00000240: 4bba be3d 86a1 8dbd 8352 c33d 989c 42be
00000250: b168 583d a50b c33d 7434 71be 7e8c 6c3e
00000260: 607d 373d 6a15 123e ae8d ae3d 05b2 5cbe
00000270: fd2c 4a3e 912b 50be 1d40 75be 9ac4 ab3c
00000280: a1a5 963d 7058 40be ec0f 6c3e e590 b1ba
00000290: d2ac 1cbe e1bc 69be 2de4 fcbd 766b 6d3e
000002a0: 765a 1bbe 5fa2 543e 4b6d 763e 6fab acbd
000002b0: 6b90 56be b583 743e ee3e 523e 0e43 533e
000002c0: 21d1 2bbd 65c3 67be 5aa7 533e bb71 3cbd
000002d0: b211 06bd 8bb1 513e 2fbb 80be ef8f 193d
000002e0: b57b b93d 9b5e 693e e4a2 1b3e ed06 283e
000002f0: 210d d6bd 0d6d 0a3e df18 933d 701d 513e
00000300: 65e0 1cbe 996a 453d 85b2 5cbe 5559 45be
00000310: 7c53 3b3e 9cb8 33be 681d 47be ca5a 263e
00000320: 13b1 fcbd 89bf 0dbe ec22 0dbd a8df 6b3e
00000330: e81f 6fbe e777 a03b 6465 103e 95b8 6a3e
00000340: 28ae 663d a900 12be 050f 583e 0d33 75be
00000350: 9aa4 91bc ec6c 363d 29fd 2fbe 6acc 8a3d
00000360: 62a6 f83d 6e51 5a3e 4693 84bb 9413 bc3c
00000370: e8d8 193d aac0 e33c 589c 72be f405 b93d
00000380: e626 d7b9 8487 8bbd 0f9a 193e ab1d 143e
00000390: 2247 65bd 47e8 023e d009 ab3d 4ac4 833e
000003a0: c95a 0b3c 3cb7 813d 0503 943d 0de0 733e
000003b0: 714e 14bd cf28 163e d891 e23d 7213 683d
000003c0: 3026 2abe e230 483e 5c68 aebc 80b2 35bb
000003d0: 4011 b2bc 95f6 9c3c 46da d43b 715c b0bd
000003e0: fc72 67be f032 003d c420 103e 8f3a 4abe
000003f0: 5097 a7bd e020 ce3d 4857 403e 466f 153d

arith.constant6 f4 [48, 32]
-0.0179728 0.26641726 0.18771735 0.016301729 0.04692707 0.18271904 -0.10357268 -0.27582493
0.08104057 0.030136093 -0.20096241 0.11290739 0.24515332 0.2527403 0.04231923 0.020734143
-0.19435681 0.1607778 -0.15209538 0.083742425 0.15160711 0.13059999 -0.14001295 -0.23865768
-0.20601375 0.1006665 -0.24444203 -0.19547465 -0.18627703 -0.22015186 0.14706491 -0.0013705362
-0.2092798 -0.24393117 0.24881461 -0.23012428 0.23488557 -0.01714677 0.12918401 -0.11069154
-0.003956164 0.018136308 0.18899126 -0.04378125 -0.12560473 -0.2052273 -0.00943949 -0.23019831
0.008157155 -0.25690028 -0.26477197 -0.16169217 0.13931435 0.1140924 -0.23360805 -0.25964516
0.014307428 -0.11472094 0.29136723 -0.06996756 -0.022034237 0.28093985 0.017439766 0.24882208
0.24306509 -0.13334261 0.09033745 0.16577561 -0.031433154 0.054557357 -0.04636427 -0.21201888
0.22129837 -0.20229734 -0.14274423 0.08571492 -0.24529932 0.15000953 0.22242382 -0.098488376
0.078222305 -0.10517752 -0.0444715 0.16436248 0.13790622 0.016120527 -0.032929376 0.17937343
-0.19556378 0.25073707 0.069262475 0.26025623 0.13682027 0.14370073 0.018001307 0.05725225
0.07317262 0.020664219 -0.0006546673 -0.24191399 0.12911668 -0.059431486 0.05297713 -0.15085055
0.19386949 0.24718635 -0.17734693 0.12286993 0.2180196 -0.0071928143 -0.071281716 0.069
0.035935815 -0.26660538 -0.036153954 -0.19954415 -0.108153366 -0.060969207 0.017357958 -0.05391249
-0.18662822 0.12714387 0.12974185 -0.14191256 0.16588031 -0.1612994 0.21652137 0.24285404
-0.14401859 0.033038132 0.2647097 -0.10419226 0.1860021 -0.13178298 -0.17151049 -0.17732815
0.21776986 -0.12506498 -0.20647828 0.075409114 0.18361512 0.11208988 -0.007906686 0.21247108
-0.23733494 0.24467678 0.054207955 0.277793 -0.17790559 0.0671377 -0.183222 -0.06602119
-0.24310412 0.118053295 -0.23215526 0.23637687 0.0971314 0.10624069 0.003055181 0.22633252
0.17630422 0.14225298 0.044882737 -0.061842248 -0.14046732 -0.03998502 -0.25686535 -0.24061656
0.22847044 -0.08922987 0.17446572 0.05234105 -0.009210929 0.13783644 0.008760709 -0.12139169
0.00869228 0.2394013 -0.1378689 0.2539608 0.14960611 -0.038295135 0.27129972 0.25236383
0.11530881 -0.18874016 -0.2484634 -0.0034593474 0.15208995 0.25512314 0.12481676 0.11984875
-0.11638093 -0.1136457 0.008456892 -0.11856042 -0.24757081 -0.10747675 -0.2326549 -0.21108755
0.121134855 -0.11765026 0.27828702 0.11651072 0.04844945 0.16090709 -0.043039083 -0.22779678
-0.018271407 0.053387552 0.067315556 0.14346692 0.07394432 -0.23583424 -0.07988013 0.1484775
0.05793511 -0.05808902 0.0016962969 0.0005510596 0.24608698 0.0759839 -0.19734223 0.25210792
-0.03148134 0.008022813 -0.20689477 0.12851734 -0.19979304 0.2367039 -0.03350229 0.120221086
0.06612287 0.2603479 -0.2703019 0.15420583 -0.052376986 -0.057127565 0.14668815 0.26708016
0.24109028 0.006295426 -0.14176188 0.23666681 -0.01345926 -0.16634962 -0.051049724 0.21702965
-0.097686864 0.009208953 -0.2642972 0.12944435 0.08785642 0.058721475 -0.2546443 0.160965
00000000: b23b 93bc d867 883e fa38 403e 348b 853c
00000010: 9936 403d b31a 3b3e ea1d d4bd ed38 8dbe
00000020: 99f8 a53d f8df f63c 17c9 4dbe fd3b e73d
00000030: 7909 7b3e 2d67 813e ee56 2d3d a6da a93c
00000040: 7905 47be f0a2 243e e4be 1bbe 2681 ab3d
00000050: e53e 1b3e 01bc 053e 8e5f 0fbe ae62 74be
00000060: 45f5 52be 3d2a ce3d 034f 7abe 822a 48be
00000070: 68bf 3ebe 7d6f 61be 2f98 163e 90a3 b3ba
00000080: 724d 56be 18c9 79be 42c9 7e3e b3a5 6bbe
00000090: d885 703e 6277 8cbc d048 043e 3fb2 e2bd
000000a0: b5a2 81bb 9892 943c ed86 413e f853 33bd
000000b0: 879e 00be 1b27 52be 17a8 1abc 1bb9 6bbe
000000c0: 96a5 053c 6f88 83be 3190 87be a292 25be
000000d0: 6ca8 0e3e 47a9 e93d f336 6fbe 36f0 84be
000000e0: b469 6a3c d0f2 eabd 162e 953e 274b 8fbd
000000f0: 2581 b4bc 59d7 8f3e d7dd 8e3c 37cb 7e3e
00000100: 0ee6 783e f78a 08be d702 b93d 15c1 293e
00000110: 0dc0 00bd 8977 5f3d 76e8 3dbd 7a1b 59be
00000120: 0a9c 623e 0927 4fbe 8b2b 12be 4e8b af3d
00000130: bf2f 7bbe 199c 193e 12c3 633e 46b4 c9bd
00000140: 0433 a03d 5067 d7bd bf27 36bd a34e 283e
00000150: 4a37 0d3e 320f 843c f4e0 06bd abad 373e
00000160: df41 48be 9c60 803e 7cd9 8d3d 4e40 853e
00000170: 9d1a 0c3e 4926 133e 7a77 933c 5681 6a3d
00000180: 87db 953d 0248 a93c fb9d 2bba 4db8 77be
00000190: 2a37 043e 6e6e 73bd 8cfe 583d 9178 1abe
000001a0: b985 463e 6b1e 7d3e 6f9a 35be 3ba3 fb3d
000001b0: 8840 5f3e b3b1 ebbb 26fc 91bd df4f 8d3d
000001c0: 6f31 133d 8080 88be 2b16 14bd 4d55 4cbe
000001d0: 837f ddbd d9ba 79bd 4732 8e3c 58d3 5cbd
000001e0: 781b 3fbe 0132 023e 0cdb 043e 8751 11be
000001f0: 87dc 293e ab2b 25be c7b7 5d3e bbae 783e
00000200: 9c79 13be fe52 073d 0888 873e c062 d5bd
00000210: 5677 3e3e 1ef2 06be 72a0 2fbe 8395 35be
00000220: 10ff 5e3e 0911 00be 0b6f 53be 1870 9a3d
00000230: 9a05 3c3e 618f e53d 0b8b 01bc 0592 593e
00000240: ee07 73be 8d8c 7a3e 2909 5e3d e23a 8e3e
00000250: e22c 36be 7e7f 893d 8c9e 3bbe 1e36 87bd
00000260: 49f0 78be edc5 f13d 1cba 6dbe c70c 723e
00000270: d4ec c63d b894 d93d 6e39 483b b6c3 673e
00000280: 1889 343e c4aa 113e f6d6 373d 4c4e 7dbd
00000290: aad6 0fbe 55c7 23bd db83 83be 3064 76be
000002a0: 28f4 693e 26be b6bd 24a7 323e 9263 563d
000002b0: 70e9 16bc ff24 0d3e 1489 0f3c 359c f8bd
000002c0: 116a 0e3c 9d25 753e 812d 0dbe 2607 823e
000002d0: 5832 193e 5cdb 1cbd cce7 8a3e d535 813e
000002e0: 0627 ec3d 1a45 41be 316d 7ebe 38b6 62bb
000002f0: 78bd 1b3e 809f 823e ee9f ff3d 4373 f53d
00000300: 2059 eebd 14bf e8bd c78e 0a3c cecf f2bd
00000310: 3483 7dbe c51c dcbd 163d 6ebe 5627 58be
00000320: 8d15 f83d 9ff2 f0bd a37b 8e3e 2c9d ee3d
00000330: ee72 463d d4c4 243e c049 30bd 8f43 69be
00000340: ebad 95bc e8ac 5a3d bddc 893d fee8 123e
00000350: 1f70 973d 887e 71be 3298 a3bd 7c0a 183e
00000360: 5e4d 6d3d c1ee 6dbd 4756 de3a fc74 103a
00000370: 3afe 7b3e 729d 9b3d 1514 4abe 4a14 813e
00000380: 94f2 00bd 1e72 033c 39dc 53be 0d9a 033e
00000390: 8c96 4cbe 8262 723e b239 09bd 7936 f63d
000003a0: 6d6b 873d 524c 853e 0365 8abe 22e8 1d3e
000003b0: 4089 56bd 98fe 69bd 6b35 163e bbbe 883e
000003c0: 5fe0 763e dc49 ce3b 072a 11be c958 723e
000003d0: 3a84 5cbc 8e57 2abe 8419 51bd 053d 5e3e
000003e0: 0d10 c8bd 26e1 163c f651 87be 0f8d 043e
000003f0: 11ee b33d ee85 703d bd60 82be 02d4 243e

arith.constant7 f4 [32, 720]
0.06897627 0.05457316 0.012452073 0.06206466 0.026318587 -0.08191237 0.06781395 0.063422054
-0.08128241 0.07793153 -0.09320364 0.028446065 -0.06060711 0.017064894 -0.023929546 0.0578496
-0.050736316 -0.07797212 -0.03589158 -0.064981855 0.053135578 0.042228445 -0.08342061 -0.055765968
0.052353695 -0.025724448 -0.0024448265 0.014510965 -0.07052095 0.06405771 -0.07645273 0.061443754
-0.025069062 -0.005577519 0.035152066 -0.009144774 0.022812309 0.068269044 -0.034246814 -0.048111014
0.042706642 0.06476703 0.028483493 -0.015082799 0.016263193 0.026403679 -0.03135816 0.0420572
-0.002458594 0.0029465288 0.07728371 -0.03287253 0.00014501848 0.059737086 0.058059234 0.01774274
-0.07712652 -0.021405153 -0.020583417 0.028609829 0.04717395 0.025067948 0.056214124 0.01605641
0.01554746 0.026223896 -0.07283527 -0.042481612 -0.067482874 0.07174276 -0.068782635 -0.0025794548
-0.017193038 0.06018582 0.043425646 -0.040702928 -0.028468039 0.034250136 0.0069650174 0.050818905
0.013079437 -0.08977005 0.0844994 -0.05257788 -0.01781119 0.023862353 0.09026706 -0.086189084
0.009533615 0.062636405 0.052681528 -0.020681687 -0.0141862435 -0.017518727 0.03940259 -0.026959121
-0.051300954 -0.0844213 -0.0741266 0.005442158 0.053379647 -0.025642931 -0.025302669 -0.056237362
-0.031124087 0.01652237 0.0009891909 0.04653975 -0.061919786 -0.0645655 0.046021797 -0.053090993
-0.0012617751 -0.082175836 0.019107772 0.056691755 0.052343123 0.0052168723 -0.043508258 -0.031539153
0.07140213 0.008794379 0.0048071253 0.03523646 0.081691355 -0.0022734331 0.059923507 -0.08940075
0.08025798 0.0077713034 -0.054169778 0.01042652 0.08233235 0.026401484 -0.0067976452 0.041564878
-0.024355667 0.029044436 -0.037463978 0.02387535 0.07470793 0.0086017465 0.085783735 0.015769308
0.07221408 0.08314583 -0.022340663 0.030476112 -0.0021311329 0.049295355 -0.046520546 -0.035670456
-0.046986695 -0.090139136 0.005027473 -0.003673841 0.051914897 -0.078395605 -0.031908285 0.08169934
0.05998506 0.030360308 0.008886121 0.078701496 0.05547837 0.08049806 0.07150114 0.062033925
0.051322915 0.037481546 0.09816982 0.03597891 0.089088306 0.06818065 0.038345788 -0.07739319
-0.06334205 -0.060605682 -0.050767083 -0.017021894 -0.033696957 0.039704476 0.09149193 -0.017692627
-0.023286598 0.036608063 0.004605946 -0.0740028 -0.008323702 -0.08031461 0.0732426 0.033132333
0.070976935 0.060100753 0.08569692 -0.035564687 -0.020598494 -0.046544824 0.026362529 0.034955412
0.015649289 -0.049053647 0.00090141967 0.088172294 0.050875645 -0.07670625 0.09265419 0.022664022
-0.018548537 0.042247962 -0.023258226 0.00727043 -0.06903263 -0.008262858 0.08258423 -0.028741732
-0.026892839 0.009631267 0.06599435 0.024746476 0.076379545 0.036348093 -0.0821683 -0.033558846
0.06314219 -0.05000174 -0.05734921 0.0088824965 0.014561416 -0.08950358 0.025617857 0.048372213
-0.041632336 0.08035077 0.060502928 -0.0007546707 -0.04439958 -0.08520277 -0.06355863 0.053523935
0.0005596593 0.04945203 -0.057345904 -0.004449529 -0.0014836318 -0.040026017 -0.08439362 -0.08751365
0.04201195 0.06286579 -0.02482993 -0.027740538 0.046835907 -0.08434423 -0.024255143 -0.02495879
00000000: 6e43 8d3d 1b88 5f3d c803 4c3c 8337 7e3d
00000010: 149a d73c acc1 a7bd 0ae2 8a3d 6ce3 813d
00000020: 6477 a6bd 919a 9f3d 8de1 bebd b907 e93c
00000030: 293f 78bd adcb 8b3c e507 c4bc b4f3 6c3d
00000040: e2d0 4fbd d9af 9fbd 0d03 13bd 3515 85bd
00000050: b1a4 593d bcf7 2c3d 6dd8 aabd db6a 64bd
00000060: d470 563d 14bc d2bc 6239 20bb 66bf 6d3c
00000070: 4a6d 90bd b030 833d 4093 9cbd 72ac 7b3d
00000080: a25d cdbc 9fc3 b6bb 9dfb 0f3d f6d3 15bc
00000090: e1e0 ba3c a4d0 8b3d 6346 0cbd 0e10 45bd
000000a0: 29ed 2e3d 94a4 843d 3756 e93c d81d 77bc
000000b0: 633a 853c 874c d83c 6a71 00bd 2c44 2c3d
000000c0: 5d20 21bb 8d1a 413b ec46 9e3d 59a5 06bd
000000d0: 1a10 1839 e0ae 743d 85cf 6d3d 3959 913c
000000e0: 82f4 9dbd dc59 afbc 8e9e a8bc 295f ea3c
000000f0: 7939 413d 4c5b cd3c c840 663d bb88 833c
00000100: c6ba 7e3c 7fd3 d63c a82a 95bd 3301 2ebd
00000110: 7634 8abd deed 923d e9dd 8cbd 120c 29bb
00000120: 6ad8 8cbc 6885 763d 17df 313d 1db8 26bd
00000130: ce35 e9bc df49 0c3d cd3a e43b 7c27 503d
00000140: 234b 563c 5cd9 b7bd 050e ad3d e75b 57bd
00000150: c6e8 91bc fb7a c33c f0dd b83d e783 b0bd
00000160: e132 1c3c 8447 803d 96c8 573d a46c a9bc
00000170: 6b6d 68bc 6f83 8fbc 9c64 213d 60d9 dcbc
00000180: f320 52bd 13e5 acbd b0cf 97bd 2154 b23b
00000190: 9ea4 5a3d 2011 d2bc 8b47 cfbc 2659 66bd
000001a0: f1f7 febc ec59 873c bda7 813a 77a0 3e3d
000001b0: 9a9f 7dbd eb3a 84bd 5a81 3c3d f175 59bd
000001c0: 2662 a5ba ce4b a8bd e787 9c3c 9d35 683d
000001d0: be65 563d 4cf2 aa3b b735 32bd 332f 01bd
000001e0: 483b 923d 4d16 103c 1785 9d3b 1b54 103d
000001f0: cc4d a73d e1fd 14bb 5a72 753d be17 b7bd
00000200: 4c5e a43d 6ba6 fe3b 21e1 5dbd ffd3 2a3c
00000210: dd9d a83d ed47 d83c c8be debb ef3f 2a3d
00000220: 8985 c7bc 99ee ed3c d473 19bd 3d96 c33c
00000230: 7900 993d 57ee 0c3c 62af af3d a32e 813c
00000240: fae4 933d 5c48 aa3d c403 b7bc 0aa9 f93c
00000250: 7aaa 0bbb ede9 493d 548c 3ebd 2f1b 12bd
00000260: 1f75 40bd de9a b8bd 80bd a43b d3c4 70bb
00000270: b7a4 543d e08d a0bd 43b2 02bd fc51 a73d
00000280: e5b2 753d 2eb6 f83c 1897 113c 402e a13d
00000290: 4a3d 633d 2bdc a43d 316f 923d 4917 7e3d
000002a0: fa37 523d 4086 193d 420d c93d 9f5e 133d
000002b0: ee73 b63d 4ca2 8b3d 7910 1d3d 5280 9ebd
000002c0: 7ab9 81bd aa3d 78bd 25f1 4fbd 8071 8bbc
000002d0: d205 0abd 29a1 223d 1f60 bb3d 21f0 90bc
000002e0: 89c3 bebc 56f2 153d 7aed 963b c88e 97bd
000002f0: 2360 08bc fc7b a4bd 3700 963d c5b5 073d
00000300: 5b5c 913d 352c 763d de81 af3d 47ac 11bd
00000310: 2cbe a8bc c9a5 3ebd 3bf6 d73c 682d 0f3d
00000320: f032 803c 7aec 48bd 404d 6c3a ad93 b43d
00000330: fb62 503d 2b18 9dbd 7bc1 bd3d e6a9 b93c
00000340: 1af3 97bc 330c 2d3d 0988 bebc ca3c ee3b
00000350: fb60 8dbd f060 07bc ec21 a93d c873 ebbc
00000360: 5f4e dcbc 76cc 1d3c 0c28 873d 1fb9 ca3c
00000370: e16c 9c3d bde1 143d db47 a8bd 0075 09bd
00000380: b150 813d a0ce 4cbd 01e7 6abd e487 113c
00000390: 0193 6e3c a74d b7bd 8adc d13c f121 463d
000003a0: ab86 2abd f28e a43d ebd1 773d 18d5 45ba
000003b0: 56dc 35bd ca7e aebd 072b 82bd ea3b 5b3d
000003c0: 1ab6 123a 368e 4a3d 8ae3 6abd 5bcd 91bb
000003d0: 6c76 c2ba 52f2 23bd 90d6 acbd 5b3a b3bd
000003e0: b914 2c3d c8bf 803d 2368 cbbc 2040 e3bc
000003f0: 02d7 3f3d abbc acbd b9b2 c6bc 6076 ccbc

arith.constant8 f4 [3]
0.08430305 -0.05738743 -0.06842775
00000000: 14a7 ac3d 150f 6bbd d923 8cbd

arith.constant9 f4 [32]
-0.052924465 -0.044574212 0.07921862 -0.043381386 0.120616704 -0.071995266 0.07187515 0.109364234
0.029260578 -0.015685864 -0.016906716 0.089404844 -0.055838358 0.085696414 -0.026116554 -0.0062052663
-0.081897326 -0.04485298 0.08575466 0.099324815 0.053951077 0.06491615 0.084448956 -0.031157134
0.08757606 -0.05040234 0.11331886 0.06314124 0.07476454 -0.014601033 -0.075864926 -0.04167627
00000000: 53c7 58bd 7393 36bd 5f3d a23d aeb0 31bd
00000010: e405 f73d 4172 93bd 4733 933d 5bfa df3d
00000020: e1b3 ef3c a47f 80bc f47f 8abc e319 b73d
00000030: c3b6 64bd 9a81 af3d 62f2 d5bc 8c55 cbbb
00000040: c9b9 a7bd c2b7 37bd 24a0 af3d cf6a cb3d
00000050: cefb 5c3d c2f2 843d 93f3 ac3d 3f3d ffbc
00000060: 145b b33d af72 4ebd b813 e83d 3250 813d
00000070: 271e 993d 2c39 6fbc 125f 9bbd bdb4 2abd

arith.constant10 f4 [48]
0.0 -0.053248614 -0.058165286 0.10605495 -0.06714351 0.069977835 0.06847076 -0.02704652
-0.08001941 -0.03495026 0.024340672 -0.0168038 0.106063806 -0.08035663 -0.0036159442 -0.05545752
-0.02878415 -0.075542785 -0.005529891 -0.041348778 0.11734886 -0.052390065 0.0973032 -0.082739204
0.062474128 -0.07562447 -0.012776798 0.06850756 0.10375806 -0.06516728 0.06426472 0.10465306
0.13343254 -0.06510551 0.049274556 -0.020216048 -0.059319258 0.04762232 0.122497685 0.01216105
0.030732783 0.06066229 -0.03210016 0.016213154 0.08289688 0.09878251 0.07361659 0.0050377394
00000000: 0000 0000 381b 5abd b93e 6ebd 5633 d93d
00000010: 8982 89bd 8a50 8f3d 663a 8c3d aa90 ddbc
00000020: 37e1 a3bd 0128 0fbd 1766 c73c 1fa8 89bc
00000030: fb37 d93d 0492 a4bd 7af9 6cbb 6d27 63bd
00000040: bdcc ebbc 2db6 9abd 1634 b5bb 565d 29bd
00000050: 9954 f03d f796 56bd e646 c73d 2c73 a9bd
00000060: dfe4 7f3d 01e1 9abd c655 51bc b14d 8c3d
00000070: 1b7f d43d 6c76 85bd 399d 833d 5854 d63d
00000080: 8aa2 083e 0a56 85bd 1ed4 493d 209c a5bc
00000090: c0f8 72bd 9f0f 433d 11e0 fa3d 243f 473c
000000a0: 51c3 fb3c 0579 783d 757b 03bd 73d1 843c
000000b0: d7c5 a93d 7c4e ca3d 4bc4 963d 9f13 a53b

arith.constant11 f4 [48]
0.0 0.09440789 0.10323319 -0.08073078 -0.021951195 0.014174037 -0.0034900128 -0.07837705
-0.05064196 -0.07623145 -0.029159427 0.042685494 0.106292285 -0.04334895 -0.07975178 -0.057772752
0.07540411 -0.020051584 -0.06898369 -0.0005416274 -0.046029195 0.125252 -0.030062392 0.05905826
-0.0111808395 0.08509478 -0.02228496 0.023138737 0.030011324 0.0 0.12869985 -0.030332318
-0.02499415 -0.048439126 0.03404904 0.0708678 -0.046657495 0.052203625 0.03399136 -0.010439161
-0.023776893 -0.009789647 0.1564083 -0.05065326 0.13378376 -0.057103362 0.022296667 -0.06727066
00000000: 0000 0000 ed58 c13d ec6b d33d 2e56 a5bd
00000010: fed2 b3bc 383a 683c b3b8 64bb 2684 a0bd
00000020: f26d 4fbd 3c1f 9cbd c0df eebc fcd6 2e3d
00000030: c5af d93d ab8e 31bd e754 a3bd 1fa3 6cbd
00000040: 786d 9a3d 3843 a4bc 5247 8dbd 00fc 0dba
00000050: 1c89 3cbd 0f42 003e 6845 f6bc 13e7 713d
00000060: d72f 37bc 2c46 ae3d f38e b6bc 738d bd3c
00000070: 4fda f53c 0000 0000 e5c9 033e 7b7b f8bc
00000080: 88c0 ccbc 1b68 46bd 0277 0b3d 2323 913d
00000090: ee1b 3fbd 78d3 553d 863a 0b3d 0409 2bbc
000000a0: c2c7 c2bc c164 20bc 7f29 203e cb79 4fbd
000000b0: 9cfe 083e 37e5 69bd 80a7 b63c 33c5 89bd
