model/model.tflite (tflite, 195596 bytes, 6 tensors)

arith.constant f4 [3, 32]
0	0xbe94c877	-0.29059193
1	0x3d8d54de	0.06900953
2	0xbeb5e30a	-0.3552478
3	0xbe72fe02	-0.23729709
4	0xbe488cd7	-0.19584976
5	0x3e8742dd	0.264182
6	0xbeb64186	-0.35596865
7	0xbebec886	-0.37262362
8	0x3d62d28a	0.055376567
9	0x3cab49a0	0.02090913
10	0xbdb09177	-0.08621495
11	0xbecf24cc	-0.4045776
12	0x3a932951	0.0011227523
13	0x3d644198	0.055726618
14	0x3d1ec324	0.03876032
15	0xbce2a960	-0.027668655
16	0xbe0ab1e3	-0.13544421
17	0x3e9d2987	0.30695745
18	0x3eaee049	0.3415549
19	0xbe91539e	-0.28384107
20	0xbdd6fc21	-0.104973085
21	0x3e052f08	0.13006222
22	0x3d9bd28e	0.076085195
23	0x3e57c294	0.2107032
24	0xbd4d2cb6	-0.050091468
25	0x3e3e0c8b	0.18559472
26	0x3e85763d	0.2606677
27	0xbe943e87	-0.28953955
28	0xbe0bdcae	-0.13658401
29	0x3e94e919	0.2908409
30	0xbea76372	-0.32693058
31	0x3eb822ea	0.35964137
32	0x3e43174a	0.19051853
33	0x3e56ac8c	0.20964259
34	0xbe9fbe36	-0.31199807
35	0xbec2f781	-0.38079455
36	0x3c9a4507	0.018831743
37	0xbceca8cb	-0.02888908
38	0xbd961ddb	-0.07329913
39	0x3e0ca38c	0.13734263
40	0x3ddb7eda	0.107175544
41	0x3e05495d	0.13016267
42	0x3bc13c73	0.0058970987
43	0x3b3f9420	0.0029232576
44	0x3dc1f057	0.09469669
45	0x3e42841a	0.18995705
46	0xbedc664b	-0.43046793
47	0x3ec033a0	0.37539387
48	0xbe57b9c9	-0.21066965
49	0xbe5982ab	-0.21241252
50	0xbecdeb7b	-0.4021872
51	0x3e810f94	0.25207198
52	0x3ea42be3	0.32064733
53	0xbe3cc9ba	-0.18436328
54	0xbe9460d0	-0.28980112
55	0xbe1fec6f	-0.15617536
56	0xbe8b956b	-0.27262434
57	0x3da8fe7a	0.082516626
58	0xbec9c9d3	-0.39411792
59	0xbebf2258	-0.3733089
60	0xbd0af799	-0.033927534
61	0xbe442b75	-0.19157203
62	0x3dbf7eef	0.093503825
63	0xbd255aa3	-0.04036964
64	0xbe907470	-0.28213835
65	0x3c9a27d9	0.018817829
66	0xbebad34d	-0.36489335
67	0xbdbab45f	-0.09116434
68	0xbecd3e61	-0.40086654
69	0x3e9d0af0	0.30672407
70	0xbe24824f	-0.16065334
71	0x3e3a15c8	0.18172371
72	0x3e75549c	0.23958057
73	0xbd4bdd2e	-0.04977148
74	0x3e07fde6	0.13280448
75	0x3e1eec7f	0.15519904
76	0x3ec8fef0	0.39257002
77	0x3dfb356f	0.12266051
78	0x3e89c221	0.2690592
79	0xbeb2cd91	-0.3492246
80	0x3ec024c1	0.3752804
81	0x3e964127	0.29346582
82	0xbeb4d370	-0.35317564
83	0xbea61805	-0.324402
84	0xbd857b53	-0.06517663
85	0x3ad08f9c	0.001591194
86	0x3dabe047	0.08392387
87	0x3eb6025f	0.35548684
88	0xbbaa4ded	-0.0051972778
89	0xbe9c5cee	-0.3053965
90	0xbecdbe16	-0.40184087
91	0xbddf3fb5	-0.10900823
92	0xbe28a7f5	-0.1647032
93	0x3e4ec076	0.20190606
94	0x3d9be937	0.076128416
95	0xbd8a22cb	-0.067449175

arith.constant1 f4 [32, 64]
0	0xbe089cbe	-0.13341042
1	0xbe7892e0	-0.24274778
2	0x3e50530e	0.20344183
3	0xbdb89809	-0.090133734
4	0x3d9c1284	0.07620719
5	0x3d8d68c6	0.069047496
6	0x3d419f22	0.0472709
7	0xbe2323a5	-0.15931566
8	0xbe540d56	-0.20708212
9	0x3e6ad7b5	0.22933848
10	0xbdfe0094	-0.12402454
11	0x3db113ff	0.08646392
12	0x3d7297e6	0.059226893
13	0xbd59f457	-0.053211536
14	0xbd6f7e87	-0.058470275
15	0x3dfcbab5	0.12340299
16	0xbda62e13	-0.08114257
17	0x3d70bb03	0.0587721
18	0xbe6e2715	-0.23257096
19	0x3e78b2ec	0.24287003
20	0x3ce40caa	0.02783807
21	0xbe0feccc	-0.14055175
22	0x3e084d24	0.13310677
23	0xbe5816d6	-0.21102461
24	0x3e026c29	0.12736572
25	0x3e1931e4	0.14960438
26	0xbdf3d59d	-0.11905978
27	0x3d77add0	0.060468495
28	0xbca2266f	-0.019793717
29	0x3de3d940	0.111254215
30	0xbc899110	-0.016792804
31	0xbd8c3201	-0.06845475
32	0x3e81587c	0.2526282
33	0xbe6ff9dd	-0.23435159
34	0x3e422c23	0.1896215
35	0xbd075f3b	-0.033049803
36	0xbcaf8928	-0.021427706
37	0xbd44835c	-0.047976837
38	0x3dcde85f	0.10054087
39	0xbbb7832c	-0.0056003537
40	0x3da0bcf2	0.078485385
41	0x3e2593d5	0.16169675
42	0x3e7a7bab	0.24461238
43	0xbe6ff5c3	-0.23433594
44	0xbcfcccfb	-0.030859461
45	0x3ddaee7c	0.106900185
46	0x3c8fa7a2	0.017535988
47	0xbcdb7dc5	-0.02679337
48	0xbe7072ad	-0.23481245
49	0xbe5eb387	-0.21748172
50	0x3d2fff06	0.04296782
51	0x3e7575df	0.23970746
52	0x3d0b8b96	0.034068666
53	0x3e2d4a03	0.16922764
54	0x3d0fb05b	0.035080295
55	0x3e6c074c	0.23049659
56	0x3d2e1ceb	0.042508047
57	0xbdb31078	-0.087433755
58	0x3e2096f0	0.15682578
59	0x3e604d9e	0.21904609
60	0x3e7231f3	0.23651867
61	0x3d064d4e	0.032788567
62	0x3d9c338d	0.0762702
63	0xbe574fa8	-0.2102648
64	0xbcb4faff	-0.02209234
65	0x3e180fd1	0.14849783
66	0xbd8ed48d	-0.069741346
67	0x3de3468b	0.110974394
68	0x3e7cfe9b	0.247065
69	0xbdac3db5	-0.08410207
70	0x3d7de459	0.061985347
71	0xbe11cd20	-0.14238405
72	0xbe5f0956	-0.21780905
73	0xbe82bdd8	-0.25535464
74	0x3e4b74d8	0.19868791
75	0xbe440dd5	-0.19145902
76	0x3e2417a4	0.16024643
77	0x3e6a3936	0.22873387
78	0x3e3cadbb	0.18425648
79	0x3e6de0fa	0.23230353
80	0xbd29beea	-0.041441835
81	0xbde1f0c3	-0.1103225
82	0x3d0e2c66	0.03471031
83	0x3cead797	0.028667254
84	0xbd26c6e9	-0.04071704
85	0x3e17b3c9	0.14814676
86	0xbc78d7d4	-0.015188176
87	0xba9f3c9c	-0.00121488
88	0x3d13819f	0.03601229
89	0xbe80e2fa	-0.2517317
90	0x3e20fd2f	0.15721582
91	0xbe32822f	-0.17432474
92	0x3e6a7641	0.22896673
93	0x3e2eea93	0.1708167
94	0xbe17f247	-0.14838515
95	0x3de402d4	0.11133352
96	0xbdd1497f	-0.102190964
97	0x3dcaff09	0.09911925
98	0x3d8cff84	0.06884673
99	0x3d84d89c	0.064866275
100	0x3d91a17b	0.07110878
101	0xbd579828	-0.052635342
102	0x3cd7b92c	0.026333414
103	0x3e4892d8	0.19587266
104	0x3e5ad7e0	0.21371412
105	0x3d81a75d	0.0633075
106	0x3e30fc31	0.17283703
107	0x3e498984	0.19681364
108	0xb89d9839	-7.514697e-05
109	0x3e363974	0.17795354
110	0x3dfebbca	0.12438162
111	0xbe2578a9	-0.1615931
112	0xbe22291c	-0.15835994
113	0x3e1dec12	0.15422085
114	0x3e71282d	0.23550482
115	0x3da25ace	0.07927476
116	0x3e202caa	0.15642038
117	0x3e176407	0.14784251
118	0x3e7ed68c	0.2488653
119	0xbd120fc3	-0.035659563
120	0x3e346792	0.17617634
121	0xbd321864	-0.043480292
122	0xbe2728d8	-0.16324174
123	0x3e30c2a4	0.1726175
124	0xbe112583	-0.14174466
125	0x3d1d7c99	0.038448904
126	0xbd57a2cd	-0.052645493
127	0xbdebe707	-0.11518674
128	0x3e513907	0.2043191
129	0x3ddf2f83	0.10897734
130	0x3e647984	0.2231198
131	0xbc005c92	-0.0078345705
132	0xbe0c0a48	-0.13675797
133	0x3d56ca62	0.0524391
134	0xbe0a91fa	-0.13532248
135	0xbe46b1ae	-0.19403717
136	0x3d794141	0.060853247
137	0x3e4ee3ff	0.20204161
138	0x3e6c6320	0.23084688
139	0x3dc0a9a0	0.094073534
140	0xbe3dc264	-0.18531185
141	0xbdbebe2e	-0.09313618
142	0x3d8830c5	0.06649927
143	0x3dd18ea3	0.10232284
144	0x3de8d20e	0.1136819
145	0x3dfeafa9	0.12435848
146	0x3e2baa34	0.16764146
147	0xbdbdf6d9	-0.09275598
148	0x3d8be90f	0.06831562
149	0xbd6f921c	-0.05848895
150	0x3e292591	0.16518237
151	0xbe06ad07	-0.13151942
152	0xbd99b9f3	-0.0750617
153	0xbdc3c492	-0.09558977
154	0xbdff1a56	-0.12456195
155	0xbda07b54	-0.07836023
156	0x3e15e351	0.14637496
157	0x3e258cf8	0.16167057
158	0xbe806a61	-0.2508116
159	0x3e65d408	0.22444165
160	0x3dcb9dc5	0.099422015
161	0x3ce7c20a	0.028290767
162	0x3de0f2c8	0.10983807
163	0x3cb3547d	0.021890873
164	0xbe65630b	-0.22401063
165	0xbe0a6c14	-0.13517791
166	0xbe14428b	-0.14478509
167	0x3d61baed	0.055109907
168	0x3e4fb87e	0.20285222
169	0x3d07e3d6	0.033176266
170	0x3df30069	0.118653126
171	0xbe6f14cb	-0.23347776
172	0x3e27e4be	0.16395852
173	0x3e83d364	0.25747216
174	0xbe6da3d2	-0.23207024
175	0xbe2bad74	-0.16765386
176	0x3d983bc2	0.07433273
177	0x3e230a3b	0.15921871
178	0xbdeafafa	-0.11473651
179	0x3c786002	0.015159609
180	0x3e223059	0.15838756
181	0x3dbca943	0.092119716
182	0xbd8c4ef7	-0.06850999
183	0x3e0a6a88	0.13517201
184	0xbdb753c3	-0.08951523
185	0x3d7cb0a4	0.061691895
186	0xbe0f7414	-0.14009124
187	0x3dccbe8d	0.09997282
188	0xbe24ff51	-0.1611302
189	0xbdbe77b8	-0.09300178
190	0x3d9115fe	0.07084273
191	0x3dc24d0d	0.094873525
192	0xbda21231	-0.07913626
193	0x3db7e2d5	0.08978812
194	0xbe3a264d	-0.18178673
195	0xbd835ec1	-0.06414557
196	0xbd5f077f	-0.05445051
197	0x3e47120d	0.1944048
198	0xbe53f15e	-0.20697543
199	0xbe37274c	-0.17886084
200	0x3ba67559	0.005079907
201	0xbe736658	-0.2376951
202	0xbd62b72f	-0.05535048
203	0x3e4cc6ab	0.19997661
204	0x3dc7ac0a	0.09749611
205	0x3db8d033	0.09024086
206	0x3e4bb621	0.19893695
207	0xbe309b27	-0.17246686
208	0x3e0af8be	0.1357145
209	0x3e135d74	0.14391118
210	0xbda47568	-0.08030206
211	0x3e459abb	0.19297306
212	0xbe3d105f	-0.18463276
213	0x3e203df2	0.1564863
214	0xbd84f478	-0.06491941
215	0xbe82ba06	-0.2553255
216	0x3e45fc9c	0.19334644
217	0xbe7913ac	-0.2432391
218	0xbe03cb21	-0.12870456
219	0x3cfe7879	0.031063305
220	0xbd923769	-0.07139475
221	0xbd63ffbf	-0.05566382
222	0xbdc632f2	-0.09677686
223	0x3e585a29	0.21128143
224	0xbd2e2737	-0.042517867
225	0xbd5407fa	-0.05176542
226	0xbe5b456d	-0.21413203
227	0x3e741df4	0.23839551
228	0x3e0b6433	0.13612442
229	0x3e5d8d79	0.21635999
230	0xbdd8a68d	-0.10578642
231	0x3e734cd3	0.23759775
232	0x3ddb4791	0.107070096
233	0xbe1b340e	-0.15156576
234	0x3e5744f5	0.21022399
235	0x3e515232	0.20441511
236	0xbbf88c96	-0.0075851185
237	0xbdc658d8	-0.09684914
238	0xbd6fcd45	-0.05854537
239	0x3cb9b1a8	0.02266772
240	0xbe0e0a33	-0.13871078
241	0x3d325f14	0.043547705
242	0x3e22cd65	0.15898664
243	0xbe23c0e7	-0.15991555
244	0xbe2606f4	-0.1621359
245	0xbe464d80	-0.19365501
246	0xbb231561	-0.002488457
247	0x3dfa57aa	0.12223752
248	0x3e6129b7	0.21988569
249	0xbdce1190	-0.100619435
250	0xbbc8e910	-0.006131299
251	0xbe764c76	-0.24052605
252	0x3d44c5af	0.04804009
253	0xbd4c9141	-0.049943212
254	0xbdcea92c	-0.10090861
255	0xbe0fe8b0	-0.14053607

arith.constant2 f4 [64, 720]
0	0x3cfd6327	0.030931069
1	0x3d9b32be	0.07578038
2	0x3c0d0704	0.00860763
3	0x3d2005e1	0.039068107
4	0xbbae4060	-0.0053177327
5	0x3cce8c62	0.025213424
6	0xbd8d52f6	-0.06900589
7	0x3d7ace31	0.061231796
8	0x3db593c6	0.08866076
9	0x3d443da9	0.047910366
10	0x3dad6ba4	0.084677964
11	0x3cc8386d	0.024440968
12	0xbda19b48	-0.07890946
13	0xbd3a3b47	-0.045466688
14	0x3d514c79	0.05109832
15	0x3d996b3d	0.07491157
16	0xbd3ad222	-0.045610555
17	0x3c22cafa	0.009936089
18	0xbcd0ffef	-0.025512664
19	0xbd5d360b	-0.054006618
20	0x3d2497b8	0.040183753
21	0x3da8455e	0.08216356
22	0x3d24eaf5	0.040263135
23	0xbd9fb382	-0.0779791
24	0x3ca23916	0.019802611
25	0x3cdf0996	0.02722625
26	0xbd340ca8	-0.043957382
27	0xbd0db74f	-0.034598645
28	0x3d3eab40	0.046550035
29	0x3d55eb05	0.052226085
30	0xbd95b04f	-0.07309019
31	0x3bc5743b	0.0060258186
32	0xbcca18bb	-0.024669996
33	0xbd3c982f	-0.04604357
34	0xbd014eba	-0.03156922
35	0x3b82a761	0.0039872383
36	0xbd5d5fb2	-0.05404634
37	0x3d01451c	0.03156005
38	0x3da2b154	0.07943979
39	0xbd08791b	-0.03331862
40	0x3cd41100	0.025887012
41	0xbc4af016	-0.0123863425
42	0xbcb785b6	-0.022402626
43	0xbceeddfc	-0.029158585
44	0x3c76676c	0.015039306
45	0xbd3efbf6	-0.046627007
46	0xbd59f708	-0.053214103
47	0xbca235dd	-0.019801075
48	0x3c1a9eda	0.009437287
49	0x3d707f23	0.058714997
50	0xbd432d56	-0.047650658
51	0x3c93df66	0.01805086
52	0xbcff9f5a	-0.031203914
53	0xbc75821f	-0.014984637
54	0x3c74d3d2	0.01494308
55	0x3d853664	0.06504515
56	0xbd9503a1	-0.07276083
57	0x3c8c9464	0.017160602
58	0xbd11a431	-0.035556976
59	0xbc306144	-0.010765377
60	0xbdbc4436	-0.09192698
61	0xbd2875f7	-0.041128125
62	0x3bc3a51a	0.0059706094
63	0xbd368188	-0.044557124
64	0xbaa27863	-0.0012395497
65	0xbcf97c62	-0.030454818
66	0x3cd5ee60	0.026114643
67	0x3d015ac1	0.03158069
68	0xbd57cff4	-0.052688554
69	0xbce89b3b	-0.028394332
70	0xbcb85388	-0.022500768
71	0xbd8eb48f	-0.069680326
72	0xbcec169f	-0.02881938
73	0x3da0c237	0.078495435
74	0xbd4a0e75	-0.049330194
75	0xbd9e7e87	-0.07738977
76	0xbd0f0e7f	-0.034925934
77	0x3d98a083	0.0745249
78	0xbc82a9de	-0.01595014
79	0xbd95c33b	-0.07312628
80	0xbd550f39	-0.05201647
81	0x3dae3a3e	0.085072026
82	0xbdb1aacc	-0.08675155
83	0xbd1e52a9	-0.03865305
84	0xbdb1f54b	-0.08689364
85	0x3d832fec	0.06405625
86	0x3c13bc9c	0.009017136
87	0x3d2c6095	0.042084295
88	0x3d6835d2	0.056691952
89	0xbd9a52c5	-0.07535318
90	0x3d842089	0.06451518
91	0xbc780c05	-0.015139584
92	0xbd033c81	-0.032040123
93	0x3d38fc6d	0.045162607
94	0x3ca51361	0.020150842
95	0xbd6e88da	-0.05823598
96	0xbcc67cef	-0.024229495
97	0x3d17c31b	0.0370513
98	0x3ca2b3f0	0.019861192
99	0xbd8ca59f	-0.06867527
100	0xbc550a8d	-0.013003004
101	0xbda909ee	-0.08253847
102	0xbc0051fc	-0.007832047
103	0xbd9f3452	-0.07773651
104	0x3ce69d4d	0.028151179
105	0x3d94ce7d	0.07265947
106	0xbce65ae5	-0.028119514
107	0x3d42f269	0.04759446
108	0xbd3999c7	-0.04531267
109	0x3c3b39fb	0.011427398
110	0x3da88050	0.08227599
111	0x3d41d41b	0.04732142
112	0xbbc5957d	-0.0060297833
113	0x3d4b4199	0.049623106
114	0xbcb45dce	-0.022017386
115	0xbd9b1cfd	-0.075738885
116	0x3d20b385	0.039233703
117	0x3d9805b8	0.07422966
118	0x3d4aa2ad	0.049471546
119	0xbd951141	-0.072786815
120	0xbc6fd552	-0.014638262
121	0x3da967a0	0.08271718
122	0xbd7d1a87	-0.061792877
123	0xbcf9f65b	-0.03051298
124	0x3d3e666b	0.046484392
125	0x3d43b758	0.047782272
126	0xbd3bc813	-0.045845103
127	0x3d085622	0.033285268
128	0xbb16bce0	-0.0023000762
129	0x3d1a6916	0.037697874
130	0x3da98d29	0.08278877
131	0xbd85b643	-0.06528904
132	0x3cbc367b	0.022975197
133	0xbd88f2b3	-0.06686916
134	0xbbe10e1d	-0.0068681375
135	0xbd55456c	-0.05206816
136	0xbd9e96d5	-0.07743613
137	0x3d43d97c	0.04781483
138	0xbc8e8367	-0.017396642
139	0xbcf390b6	-0.02973209
140	0xbd251857	-0.040306415
141	0x3db75e6a	0.08953555
142	0xbd8fc3d6	-0.070197746
143	0xbd0d2846	-0.034462236
144	0xbdaf02d5	-0.08545462
145	0xbd1c53f0	-0.038165987
146	0x3d0e14e8	0.034687907
147	0x3d42f5ae	0.04759758
148	0xbdbb4aaa	-0.091451004
149	0xbc502b70	-0.012705669
150	0xbda7a81b	-0.081863604
151	0x3dbb50cd	0.09146271
152	0xbcd9af86	-0.026572954
153	0xbb10c328	-0.0022088978
154	0x3d8d1a23	0.06889751
155	0x3d8370b5	0.064179815
156	0x3d016baa	0.031596817
157	0xbd41b529	-0.04729191
158	0xbd900dff	-0.070339195
159	0x3c8a003f	0.01684582
160	0xbb03bbac	-0.0020100875
161	0xb969df28	-0.00022303744
162	0xbc6fac1f	-0.014628439
163	0xbd4b1948	-0.049584657
164	0x3c68ef33	0.014217186
165	0xbd277e5a	-0.040891983
166	0xbd9553f9	-0.07291407
167	0x3d228885	0.039680976
168	0x3d668c4e	0.05628615
169	0xbd38f1a9	-0.04515234
170	0xbc94e6e4	-0.018176503
171	0xbb83614b	-0.004009401
172	0xbd9bed7f	-0.07613658
173	0xbcd5e188	-0.026108518
174	0xbd9e280d	-0.07722483
175	0x3d73513b	0.05940364
176	0xbd2974c3	-0.04137112
177	0x3dbf1b9f	0.0933144
178	0x3d1547e6	0.03644552
179	0x3d933d85	0.07189468
180	0x3d68e25f	0.05685651
181	0x3c8a6c2f	0.01689729
182	0x3d3836ab	0.04497401
183	0xbc055893	-0.0081387935
184	0xbd9eadbe	-0.077479824
185	0xbd3f4a02	-0.04670144
186	0xbcfed9aa	-0.03110965
187	0xbd55d81e	-0.05220806
188	0xbcc5c5df	-0.024142204
189	0x3caf51dc	0.021401338
190	0xbd5b5966	-0.053552054
191	0x3d6b42da	0.0574368
192	0xbd67818b	-0.056520026
193	0x3c7b0be9	0.015322664
194	0x3d0d3872	0.03447766
195	0xbd9c1c5f	-0.07622599
196	0x3d67b160	0.056565642
197	0x3d464be3	0.048412215
198	0x3c312fbf	0.010814606
199	0x3be47faa	0.0069732266
200	0x3d2270a7	0.039658215
201	0xbd68b941	-0.056817297
202	0x3bac291d	0.0052539245
203	0xbd50033e	-0.050784342
204	0x3c718d15	0.014743109
205	0x3dba43cb	0.09094962
206	0x3cfcfcbb	0.03088223
207	0xbcdd440f	-0.027009992
208	0x3c4cffdf	0.012512176
209	0xbcd33894	-0.025783814
210	0xbd895a35	-0.06706659
211	0x3d8086d7	0.06275719
212	0xbd3f3c19	-0.046688173
213	0xbcf9f138	-0.03051053
214	0x3cd0381f	0.025417386
215	0xbda7a029	-0.08184845
216	0xbbbd24d3	-0.005772212
217	0x3d89d8f6	0.06730835
218	0x3d00141d	0.03126918
219	0xbd9357c6	-0.07194476
220	0x3d5c1a69	0.053736124
221	0xbb2628fd	-0.002535402
222	0xbd80e7b5	-0.062941946
223	0x3db2b161	0.087252386
224	0xbd41c588	-0.04730752
225	0xbd1cfed6	-0.038328968
226	0xbd990c76	-0.0747308
227	0x3d98cebb	0.07461306
228	0xbda1a396	-0.0789253
229	0x3d71458a	0.05890421
230	0x3d34573b	0.044028502
231	0x3d483b59	0.048884723
232	0x3d74d3d9	0.059772346
233	0x3d47b9e1	0.048761252
234	0xbbefa7b2	-0.007313692
235	0x3c171c04	0.009222988
236	0x3cf257e6	0.029582929
237	0x3d582bfa	0.052776314
238	0xbd96fd2d	-0.07372508
239	0xbda11207	-0.078647666
240	0xbd87727e	-0.066136345
241	0x3c702fb5	0.014659812
242	0x3d79ce85	0.060987968
243	0x3d43153e	0.04762768
244	0xbd515c82	-0.051113613
245	0x3d980f87	0.074248366
246	0xbd05c9e6	-0.03266325
247	0xbc88f71f	-0.016719399
248	0xbd5b5171	-0.053544465
249	0x3d87a6d6	0.06623618
250	0xbcc1302b	-0.023582539
251	0xbd55d8f7	-0.052208867
252	0xbd7305c9	-0.05933169
253	0x3dad9035	0.08474771
254	0x3d954475	0.07288448
255	0x3cbbc707	0.022922052

arith.constant3 f4 [3]
0	0x3d33ea09	0.043924365
1	0xbce9e99d	-0.028553778
2	0xbd13ee32	-0.036115833

arith.constant4 f4 [64]
0	0x3b3e151c	0.0029004281
1	0x3d1a2b4a	0.03763894
2	0xbcec74e5	-0.028864333
3	0xbd3899fe	-0.045068733
4	0x3cecdb22	0.028913084
5	0x3c2ffc92	0.01074137
6	0x3c7b8311	0.015351073
7	0x3ab2e13a	0.0013647445
8	0xbd009deb	-0.031400602
9	0xbcd82266	-0.02638359
10	0xbcc33688	-0.023829713
11	0xbc51bfef	-0.012802108
12	0x3ce2622b	0.0276347
13	0x3d1c7680	0.038198948
14	0xbd19cd96	-0.037549578
15	0x3cbbfc64	0.022947498
16	0x3d00e7ca	0.03147105
17	0xbc90769f	-0.017634688
18	0x3cbf6ce9	0.023367362
19	0x3cf3a4db	0.029741695
20	0xbbbb6fe6	-0.0057201264
21	0xbd0ebc2f	-0.034847435
22	0x3ccf6717	0.025317712
23	0xbb5d7440	-0.0033791214
24	0xbc4e59c4	-0.012594644
25	0x3c9183c5	0.017763028
26	0xbd0f8566	-0.035039328
27	0x3cd60179	0.02612375
28	0x3ccca836	0.024982553
29	0xbcdec513	-0.027193582
30	0x3c7d9d5c	0.015479412
31	0x3bacdbc4	0.0052752215
32	0xbcc7082b	-0.024295887
33	0x3d2c79fd	0.042108525
34	0xbd0af8bb	-0.033928614
35	0x3cf95998	0.03043823
36	0xbcfebcc5	-0.031095872
37	0xbd08035c	-0.03320633
38	0x3d0608b9	0.032723162
39	0xbcbd97d6	-0.02314369
40	0xbd1e9a80	-0.03872156
41	0xbcce02cd	-0.02514782
42	0xbd0730c0	-0.033005476
43	0x3c044c4f	0.008074834
44	0xbc8de3c4	-0.017320521
45	0xbd0fdd27	-0.035123017
46	0x3d12b473	0.03581662
47	0x3cc1c721	0.023654522
48	0x3d0ea19e	0.0348221
49	0xbb1d496f	-0.0024000069
50	0x3cba879c	0.022769742
51	0xbcf1d90b	-0.02952244
52	0xbc9977bf	-0.018733857
53	0x3c9ade9f	0.018904982
54	0x3c7460f8	0.014915697
55	0x3cc0d447	0.023538722
56	0xbbe24b16	-0.0069059236
57	0xbcb26602	-0.021777157
58	0xbcdd6b4a	-0.027028698
59	0x3c8278da	0.015926767
60	0xbd0fa14c	-0.035065934
61	0x3d0b0526	0.033940457
62	0xbc82c4c9	-0.015962975
63	0x3cca8cdc	0.02472537

arith.constant5 f4 [32]
0	0xbd065d73	-0.032803964
1	0xbcc0a22b	-0.023514828
2	0xbd00c1f2	-0.03143496
3	0xbb29c146	-0.0025902553
4	0x3b6d7a8c	0.0036236374
5	0x3c83edf7	0.016104681
6	0xbd295130	-0.041337192
7	0xbd034a57	-0.032053318
8	0xbc7c3551	-0.015393571
9	0xbcde3315	-0.027123967
10	0xbd0eea59	-0.03489146
11	0xbd1b3a84	-0.0378976
12	0xbd217a58	-0.039423317
13	0xbd235416	-0.039875112
14	0x3d0cfcdd	0.034420837
15	0xbca6a03b	-0.020340076
16	0xbcd15812	-0.02555469
17	0x3c03c726	0.008043086
18	0x3d1cab2b	0.038249176
19	0xbc53ff29	-0.012939253
20	0xbcd85db5	-0.02641187
21	0x3d09ead2	0.033671208
22	0x3ce737eb	0.028224906
23	0x3c02108d	0.007938516
24	0x3c9ba1f5	0.018998126
25	0x3d445e3b	0.047941428
26	0x3d2c0b00	0.042002678
27	0xbcc6ec25	-0.024282524
28	0xbcdf0f1a	-0.02722888
29	0x3d032857	0.032020893
30	0xbd18c9a3	-0.03730167
31	0x3d2f0658	0.04273066
