model/model.tflite (tflite, 195632 bytes, 6 tensors)

arith.constant f4 [3, 32]
0	0x3e0f7f99	0.14013518
1	0x3ea7e531	0.32792047
2	0x3e994dae	0.29942077
3	0x3e6fbcf7	0.23411928
4	0x3daeff01	0.08544732
5	0x3df0de0a	0.117611006
6	0x3e4ba972	0.19888857
7	0xbec1a4e1	-0.37821105
8	0xbeadc986	-0.33942813
9	0x3b978445	0.004623922
10	0x3dc2d7ec	0.0951384
11	0xbd0a37e8	-0.033744723
12	0x3ea7d5fd	0.32780448
13	0x3e7384b4	0.23781091
14	0x3dc3b79c	0.09556505
15	0xbe9b5ea3	-0.3034564
16	0x3e629af7	0.22129427
17	0xbcc4608e	-0.023971822
18	0x3e046e27	0.12932645
19	0x3e52eeb2	0.20598868
20	0xbea623f5	-0.32449308
21	0xbe92ed99	-0.28696898
22	0xbe2dc225	-0.16968592
23	0x3e8d6117	0.27613136
24	0xbe520157	-0.20508324
25	0xbc8b616b	-0.017014226
26	0x3d825811	0.063644536
27	0x3df7c066	0.12097244
28	0xbe5f091f	-0.21780823
29	0xbe7c742f	-0.24653696
30	0x3e2de84e	0.16983148
31	0xbeb90b14	-0.36141264
32	0xbe4e346e	-0.20137188
33	0x3e8dfcba	0.27731878
34	0x3eaeee5e	0.34166235
35	0x3e9e1272	0.30873448
36	0xbec860d5	-0.39136377
37	0x3e138dde	0.14409587
38	0xbd9eb989	-0.07750232
39	0x3e9d950e	0.30777782
40	0xbd8288e2	-0.063737646
41	0x3e9219a3	0.28535184
42	0x3ea37916	0.3192832
43	0x3ebe906d	0.37219563
44	0x3ea6c004	0.3256837
45	0x3eaed96a	0.3415025
46	0xbec172dd	-0.37782946
47	0x3defe3c5	0.117133655
48	0xbecce910	-0.40021563
49	0xbe14aa79	-0.14518155
50	0x3e359de3	0.1773601
51	0xbd59a484	-0.05313541
52	0x3e9efad8	0.31050754
53	0xbd6aff24	-0.057372227
54	0x3e953035	0.29138342
55	0xbe373b93	-0.1789382
56	0xbe86446b	-0.26224074
57	0x3df5ed77	0.120081834
58	0xbeb6907b	-0.35657105
59	0xbe8e9518	-0.27848125
60	0xbe6de81c	-0.23233074
61	0x3e079d76	0.1324366
62	0x3e86a8ea	0.26300746
63	0xbe9be4b8	-0.30447936
64	0x3eadf23e	0.3397388
65	0xbe1c5b6f	-0.15269254
66	0xbeac8177	-0.33692524
67	0xbeacb87d	-0.33734503
68	0xbc7f356b	-0.015576701
69	0xbd859662	-0.06522824
70	0xbe9680ef	-0.29395244
71	0x3e4e2879	0.20132627
72	0xbece82ac	-0.4033407
73	0xbe82f4d7	-0.25577423
74	0x3eac2140	0.33619118
75	0xbdd908b3	-0.10597362
76	0x3e21bc18	0.15794408
77	0xbe9181dd	-0.2841939
78	0x3e2aef1e	0.16692778
79	0xbdd3d708	-0.10343748
80	0x3d86aee4	0.065763265
81	0xbe1e1c64	-0.15440518
82	0xbdc68d65	-0.096949376
83	0xbd43ff3c	-0.047850832
84	0x3d82a146	0.06378417
85	0xbbb75ab0	-0.0055955276
86	0xbe433f90	-0.19067216
87	0xbe02bdc7	-0.12767707
88	0xbe2c27cb	-0.16812055
89	0xbd2d548f	-0.04231697
90	0xbdfd492b	-0.12367471
91	0xbd82a0d4	-0.06378332
92	0xbd27e310	-0.040988028
93	0x3d818e40	0.0632596
94	0xbe026085	-0.12732132
95	0xbebf8c40	-0.3741169

arith.constant1 f4 [32, 64]
0	0xbd980310	-0.07422459
1	0xbd67008e	-0.056397013
2	0xbd973b83	-0.07384398
3	0x3dd8cece	0.1058632
4	0x3ce0a5c6	0.027422797
5	0x3d7b229b	0.0613123
6	0x3d42f728	0.047598988
7	0xbdc500e5	-0.09619311
8	0xbe259148	-0.16168702
9	0x3dfbe65b	0.12299796
10	0x3d76720c	0.060167357
11	0x3e15214a	0.1456348
12	0x3c3140b0	0.010818645
13	0xbdea85c0	-0.11451292
14	0xbd856ff8	-0.06515497
15	0xbd84010e	-0.06445514
16	0xbaa09791	-0.0012252202
17	0x3d0bd084	0.034134403
18	0xbe4e4f87	-0.20147525
19	0x3e33655d	0.17519136
20	0xbdbd8f37	-0.09255832
21	0xbceeb28f	-0.029137878
22	0xbe395efa	-0.18102637
23	0x3e3d3a28	0.18479216
24	0xbda10550	-0.078623414
25	0x3e856a34	0.2605759
26	0x3e7022c4	0.23450762
27	0xbd9657ff	-0.07341003
28	0xbe750b57	-0.23930107
29	0x3af7bdc1	0.0018901156
30	0xbd79cded	-0.0609874
31	0xbca68e6b	-0.020331582
32	0x3e32c9fb	0.17459862
33	0xbe72fd15	-0.23729356
34	0xbe27e8ad	-0.16397353
35	0x3da9fd7d	0.08300302
36	0x3ddd86d3	0.10816731
37	0xbd7c9216	-0.061662756
38	0xbe2da996	-0.16959223
39	0x3e26ec36	0.16301045
40	0xbc555c03	-0.013022426
41	0x3d28f02f	0.041244682
42	0x3e3f5943	0.18686394
43	0xbdd39381	-0.103308685
44	0x3dea6cc6	0.11446528
45	0x3e3a1487	0.18171893
46	0xbe42d424	-0.19026238
47	0x3de37098	0.1110546
48	0x3e04a821	0.12954761
49	0xbe46f42b	-0.1942908
50	0x3e4820a2	0.19543698
51	0xbe436115	-0.19080003
52	0xbc2996fb	-0.010350938
53	0xbe45eddb	-0.19329016
54	0xbae02fbb	-0.0017104069
55	0xbe5c4f89	-0.21514715
56	0xbe06adbe	-0.13152215
57	0xbe2e7fb2	-0.170409
58	0xbdf25db8	-0.11834282
59	0xbe3248ee	-0.17410633
60	0xbd15271a	-0.036414243
61	0xbe52783f	-0.20553683
62	0x3c0bba4e	0.008528305
63	0xbe5ac502	-0.21364215
64	0x3e458703	0.19289784
65	0x3de12ebc	0.10995242
66	0x3e72101a	0.23638955
67	0xbda84d6f	-0.08217894
68	0xbe0f19e5	-0.13974722
69	0xbda87d97	-0.08227079
70	0xbd56d9b6	-0.05245372
71	0x3e794ad7	0.24344955
72	0x3e0774bc	0.13228124
73	0x3e4cda4a	0.20005146
74	0x3e05f796	0.13082728
75	0x3e4d533d	0.20051284
76	0xbe468d40	-0.1938982
77	0x3d41ed75	0.047345597
78	0x3e32d2a2	0.17463163
79	0xbc279608	-0.010228641
80	0xbe121373	-0.14265232
81	0xbd2074e3	-0.03917397
82	0x3cbcfb4c	0.023069046
83	0x3d226d1c	0.039654836
84	0xbe0ca8a2	-0.13736203
85	0x3d89e1c6	0.06732516
86	0x3e6507df	0.22366284
87	0xba0d3597	-0.00053867087
88	0x3dda3f82	0.106566444
89	0xbe0d4f2f	-0.13799737
90	0x3dc0b279	0.09409041
91	0x3de0d1a9	0.109774895
92	0xbe5736b0	-0.21016955
93	0xbe09695a	-0.13419095
94	0xbdfebf46	-0.12438826
95	0xbd0395f9	-0.032125447
96	0x3cf90232	0.030396555
97	0x3e4e4ac5	0.2014571
98	0xbd31b84e	-0.043388657
99	0x3e4964b6	0.19667324
100	0x3e3df1d2	0.18549278
101	0x3d50471a	0.050849058
102	0xbe6b5b52	-0.22984055
103	0x3de9dd99	0.114192195
104	0x3c9211ea	0.017830808
105	0xbd990e39	-0.07473416
106	0x3ce9b067	0.028526498
107	0x3de4865b	0.11158439
108	0x3e241cee	0.16026661
109	0xbe274c1c	-0.16337627
110	0xbe0fc030	-0.14038157
111	0x3b97d49a	0.0046334984
112	0x3e4cd828	0.20004332
113	0xbde9b70f	-0.11411869
114	0xbd80d348	-0.06290299
115	0x3e480d84	0.19536406
116	0x3d61552c	0.055012867
117	0xbe202be3	-0.15641741
118	0x3d9c9e29	0.07647354
119	0xbb543b02	-0.0032383804
120	0xbe427ff1	-0.18994118
121	0x3d5e64d8	0.05429539
122	0xbe7179e7	-0.23581658
123	0x3e66c8ec	0.22537583
124	0xbe04ff07	-0.1298791
125	0x3e353f16	0.17699847
126	0xbe079f08	-0.1324426
127	0xbe66337e	-0.2248058
128	0x3db02738	0.086012304
129	0x3c38053e	0.011231719
130	0x3e6c7e02	0.23094943
131	0x3e5a32c5	0.2130843
132	0xbe3c23b8	-0.18373
133	0x3d4c200e	0.049835257
134	0x3df966c5	0.12177805
135	0x3e0a3d0b	0.13499849
136	0x3e32cae1	0.17460205
137	0xbe0285c6	-0.12746343
138	0x3e6ca4e7	0.2310978
139	0xbe42d64e	-0.19027063
140	0xbdbbdcd3	-0.09172978
141	0xbdf6df68	-0.1205433
142	0x3d33e761	0.043921832
143	0x3e4fdc2a	0.2029883
144	0x3e505d3b	0.20348065
145	0xbda9eafd	-0.082967736
146	0x3d82dda9	0.063899346
147	0xbe1db1fa	-0.15399924
148	0xbd863f15	-0.06555001
149	0x3e44c11f	0.19214295
150	0xbe743e7e	-0.23851964
151	0x3e361a73	0.17783527
152	0x3e323a77	0.17405115
153	0x3e5a4dc0	0.21318722
154	0x3dd826ec	0.10554299
155	0x3d2d03e1	0.042240027
156	0xbe6710fb	-0.22565071
157	0xbd0f32e7	-0.034960654
158	0xbb74489e	-0.0037274729
159	0xbde26087	-0.110535674
160	0x3c21c64b	0.009873937
161	0x3e499861	0.19687034
162	0xbdf3d38c	-0.11905584
163	0xbe241719	-0.16024436
164	0xbd59828d	-0.05310302
165	0x3e4840e5	0.19556005
166	0x3d4b5c78	0.049648732
167	0xbe148460	-0.14503622
168	0xbe689399	-0.22712554
169	0xbd876b22	-0.06612231
170	0x3e3fea45	0.1874171
171	0x3de7c9df	0.11317801
172	0x3dcea485	0.10089973
173	0x3e724362	0.23658517
174	0xbe437b04	-0.19089895
175	0xbe2b831f	-0.16749237
176	0x3dd89237	0.10574763
177	0xbdcefbea	-0.101066425
178	0x3dfb81a3	0.122805856
179	0x3e358f24	0.17730385
180	0xbdcc7ddb	-0.099849425
181	0x3d95b151	0.07309211
182	0xbe170f57	-0.14751945
183	0x3e0d142b	0.13777225
184	0x3e63a1eb	0.22229736
185	0xba85fb5d	-0.0010222007
186	0x3e5ed283	0.21759991
187	0x3e62fc68	0.22166598
188	0xbdc90b97	-0.09816664
189	0xbdf010d7	-0.11721962
190	0x3dee3af2	0.11632337
191	0xbe5a0ae6	-0.2129322
192	0xbcc49485	-0.0239966
193	0xbe1293f2	-0.14314249
194	0x3e46a074	0.19397146
195	0xbda30b6e	-0.079611644
196	0x3c7fc082	0.015609862
197	0xbae2aa7d	-0.0017293241
198	0x3d47e94a	0.048806466
199	0x3caf0644	0.021365292
200	0x3e36c5f1	0.17848946
201	0x3c4d2a6f	0.012522324
202	0xbe2b6f90	-0.16741776
203	0x3e67f3f7	0.22651659
204	0x3cc2a093	0.023758208
205	0xbdd83ca2	-0.1055844
206	0xbe1a9bf3	-0.15098552
207	0x3d63ed66	0.055646323
208	0xbe4f878f	-0.20266555
209	0x3e21f5b5	0.15816386
210	0x3cec356d	0.02883407
211	0xbe08cb25	-0.13358743
212	0xbe3a9965	-0.18222578
213	0xbe823741	-0.2543278
214	0xbe7ecda8	-0.24883139
215	0xbd183a7a	-0.037165143
216	0xbe00475c	-0.12527221
217	0xbd986c67	-0.07442551
218	0xbd803373	-0.06259813
219	0xbdf6d673	-0.12052622
220	0x3e123025	0.14276178
221	0xbd810e9e	-0.06301616
222	0x3e5fd858	0.21859872
223	0x3e406158	0.18787134
224	0xbe13562e	-0.14388344
225	0x3e6c94be	0.23103616
226	0xbdc2eeee	-0.095182285
227	0x3e4066f7	0.18789278
228	0xbdb854df	-0.09000563
229	0x3e692b69	0.22770466
230	0x3d4e8535	0.050420005
231	0xbd052d06	-0.03251364
232	0x3dc8b187	0.09799486
233	0x3d6d2516	0.057896696
234	0xbd54445f	-0.051823016
235	0x3be8983f	0.0070982273
236	0xbe3dfdd8	-0.18553865
237	0x3e46bf33	0.19408874
238	0x3d2d12a8	0.04225412
239	0x3e0c5d29	0.13707413
240	0x3e2956ef	0.16537069
241	0xbd93a97c	-0.07210061
242	0x3e00a3be	0.12562463
243	0xbb1dcdb9	-0.002407892
244	0x3df3cd4a	0.1190439
245	0x3e410970	0.18851256
246	0x3e475c19	0.19468726
247	0x3e320e3d	0.17388244
248	0xbe0e14c0	-0.13875103
249	0xbdacec95	-0.08443562
250	0xbda46e45	-0.08028845
251	0xbdc95a03	-0.098316215
252	0xbe3bbc5a	-0.18333569
253	0x3e0be1ed	0.13660403
254	0xbe79b0b8	-0.24383819
255	0xbe85b20a	-0.26112396

arith.constant2 f4 [64, 720]
0	0x3cdf396b	0.027249059
1	0xbcf3675a	-0.029712368
2	0xbd053959	-0.032525394
3	0x3a3d37b1	0.00072180765
4	0xbd169add	-0.036768783
5	0x3d121e58	0.03567347
6	0x3d627294	0.05528505
7	0x3d6a8283	0.057253372
8	0xbd4b8e3a	-0.049696185
9	0x3d0e29ef	0.03470796
10	0x3d261715	0.040549356
11	0x3d86e251	0.06586135
12	0xbc89dfc1	-0.016830327
13	0xbd2af0c3	-0.041733515
14	0x39a1d710	0.00030868547
15	0x3c5047ba	0.012712413
16	0x3c775b76	0.01509749
17	0xbd94b1cc	-0.072604746
18	0xbd4fbc2d	-0.050716568
19	0xbd9cdbfd	-0.07659147
20	0x3d8347f3	0.064102076
21	0x3d75a643	0.059973013
22	0xbd1a8394	-0.03772314
23	0x3d3e1c92	0.046413966
24	0xbab48750	-0.0013773236
25	0xbc8432e1	-0.016137542
26	0x3c2d8f98	0.010593317
27	0xbb95dd2f	-0.0045734863
28	0x3da68483	0.08130743
29	0xbd36dfb1	-0.044646922
30	0x3c0c93e4	0.008580182
31	0xbcd7a79d	-0.026325041
32	0x3ae90585	0.0017778134
33	0xbcbd771f	-0.02312809
34	0xbd6f865a	-0.058477737
35	0x3d9442f5	0.072393335
36	0xbd798f6d	-0.060927797
37	0xbd73c72f	-0.05951613
38	0xbc9a5114	-0.01883749
39	0xbd921cff	-0.07134437
40	0x3cb225cd	0.02174654
41	0xbda919ed	-0.08256898
42	0xbd7e8b41	-0.06214452
43	0xbdb00f2b	-0.08596643
44	0x3ce4fb59	0.027951883
45	0xbd2e3120	-0.042527318
46	0xbdb4af0e	-0.088224515
47	0xbd88b21c	-0.06674597
48	0x3c568597	0.013093374
49	0xbd5a8ff6	-0.053359948
50	0x3cc21a96	0.023694318
51	0x3cada471	0.021196576
52	0x3cc53d0f	0.024076967
53	0xbd82d772	-0.06388749
54	0xbd01bce2	-0.031674273
55	0x3d0af1f7	0.033922162
56	0x3d8f8369	0.070074864
57	0x3d4f94cb	0.05067901
58	0x3b1fd371	0.0024387504
59	0xbd42ce1f	-0.047559854
60	0x3b090b71	0.002091136
61	0xbd414538	-0.047185153
62	0xbda99ea2	-0.0828221
63	0xbdb475be	-0.0881152
64	0xbc89558b	-0.016764423
65	0xbd89e421	-0.06732965
66	0x3c4e9adf	0.012610166
67	0xbb28d705	-0.0025762927
68	0x3d43872b	0.047736328
69	0xbd3a32d3	-0.045458626
70	0xbb84d55d	-0.004053755
71	0xbd6fce0c	-0.05854611
72	0x3d269c4d	0.040676404
73	0xba865165	-0.0010247646
74	0xbae7bc5d	-0.0017680038
75	0x3d3f0589	0.046636138
76	0x3cca9dd7	0.024733467
77	0xbd75f81a	-0.06005106
78	0x3c481a6a	0.012213329
79	0xbd383ba3	-0.04497875
80	0x3d24f5ff	0.040273663
81	0x3cac4f5f	0.02103394
82	0x3be72bed	0.007054797
83	0x3c4df78e	0.012571229
84	0xbd47bd33	-0.04876442
85	0xbd81127a	-0.06302352
86	0x3cbae6c2	0.022815112
87	0x3d90bd01	0.070673
88	0xbc28baa2	-0.010298403
89	0xbd932f72	-0.07186784
90	0x3d8ef3f8	0.06980127
91	0x3c570807	0.013124472
92	0x3d460888	0.04834798
93	0x3c3ebe58	0.011642061
94	0x3d7bc3c8	0.06146601
95	0xbd3b3622	-0.045705922
96	0x3d3582f4	0.04431434
97	0x3cce00bb	0.025146833
98	0xbd374d2f	-0.044751342
99	0xbdb7f3da	-0.08982058
100	0x3d9a3980	0.075304985
101	0xbd55d2ac	-0.052202865
102	0x3d37d60e	0.044881873
103	0x3d85f0bf	0.06540059
104	0xbd711489	-0.058857474
105	0x3d92f01d	0.07174704
106	0x3d1bda2b	0.038049858
107	0x3c9a50eb	0.018837413
108	0xbd8cae34	-0.06869164
109	0xbd5b9b2b	-0.053614777
110	0xbd28bb8e	-0.04119449
111	0xbd832b20	-0.0640471
112	0x3d39a8f0	0.045327127
113	0x3a944329	0.0011311519
114	0x3c868fcd	0.016425991
115	0xbd1a56cf	-0.037680443
116	0x3c676edb	0.014125551
117	0xbd01ebcd	-0.031719018
118	0x3d4590ca	0.048233785
119	0x3cb6add1	0.022299679
120	0xbc4fdf41	-0.012687505
121	0x3c90aea5	0.017661402
122	0xbca7caf5	-0.02048252
123	0x3d9df877	0.077134065
124	0xbd1decb4	-0.038555816
125	0x3d136877	0.035988297
126	0xbd4f8ca2	-0.050671227
127	0xbdbb9241	-0.09158755
128	0xbd4e1746	-0.050315164
129	0xbcb70704	-0.022342212
130	0xbd073df5	-0.03301807
131	0x3d7e7afd	0.06212901
132	0x3d818196	0.06323545
133	0x3d90c345	0.07068495
134	0xbd3cb867	-0.046074297
135	0x3d4ee2ef	0.05050939
136	0x3c4e3ae8	0.0125872865
137	0x3b365222	0.002781995
138	0xbcf86599	-0.030321883
139	0x3cd719b8	0.02625738
140	0xbcb93a70	-0.022610873
141	0x3caef975	0.021359185
142	0xbd70030d	-0.05859666
143	0x3ca4e545	0.020128855
144	0xbc19688e	-0.009363307
145	0x3bfb4696	0.0076683266
146	0xbc05bd95	-0.008162876
147	0x3d033594	0.032033518
148	0xbda8a989	-0.08235461
149	0x3c27cdc9	0.010241934
150	0xbd144455	-0.03619798
151	0xbcc4be8a	-0.024016637
152	0x3c937d6e	0.018004145
153	0x3d554cfa	0.052075364
154	0x3d9f8577	0.07789128
155	0xbc6d65cf	-0.014489605
156	0xbc6d882b	-0.014497797
157	0x3d3cd505	0.04610159
158	0xbc504b83	-0.012713316
159	0xbd63b5d4	-0.055593327
160	0xbd8b7fa4	-0.06811455
161	0xbd13d4cf	-0.036091622
162	0xbd231140	-0.039811373
163	0xbc9cf2b4	-0.019158699
164	0xbc5abd07	-0.013350732
165	0x3da7fa55	0.08202044
166	0x3d90b21a	0.0706522
167	0xbc997160	-0.01873082
168	0xbc975806	-0.01847459
169	0xbd73eeca	-0.0595539
170	0x3d0a6ba7	0.03379407
171	0x3d14c4e0	0.036320567
172	0xbd91c888	-0.071183264
173	0x3d6cc3c4	0.057803884
174	0xbcf760d7	-0.030197544
175	0x3d98e41b	0.07465383
176	0x3ca656dd	0.020305092
177	0xbd4784ad	-0.048710514
178	0xbd37f962	-0.044915564
179	0xbcba6fa0	-0.022758305
180	0x3c064198	0.00819435
181	0x3d928059	0.071533866
182	0x3cc1ea90	0.023671418
183	0xbd5faa37	-0.05460569
184	0x3cfb156e	0.030649867
185	0x3c49ce39	0.012317234
186	0xbd108556	-0.03528341
187	0xbc9596fa	-0.018260468
188	0xbd428238	-0.047487468
189	0x3d7df266	0.061998747
190	0xbd536df7	-0.051618543
191	0x3d52e844	0.051491037
192	0x3c56f984	0.013121013
193	0xbd626f0e	-0.05528169
194	0x3d7e86b0	0.062140167
195	0x3d339114	0.04383953
196	0xbda90efa	-0.0825481
197	0xbcbdd0bf	-0.023170827
198	0xbd26b7d5	-0.04070266
199	0x3d0a7ed9	0.033812378
200	0x3d25e658	0.040502876
201	0x3d5701a8	0.052491814
202	0x3d7fcca3	0.062451016
203	0x3c16bc74	0.009200204
204	0xbd6ebf1b	-0.05828772
205	0xbcde88e3	-0.027164882
206	0xbd93fc50	-0.07225859
207	0xbcf399d5	-0.029736439
208	0xbda431a2	-0.08017279
209	0x3d99f45e	0.075173125
210	0x3d8a4428	0.06751281
211	0xbd4b5588	-0.049642116
212	0x3d25296f	0.040322717
213	0x3d2966f6	0.041357957
214	0x3d2d5426	0.04231658
215	0x3cc19b0e	0.023633506
216	0xbcb534f8	-0.022119984
217	0xbd8c4722	-0.06849505
218	0x3cd8f21e	0.026482638
219	0x3d5ef92c	0.054436848
220	0xbd83d8ce	-0.064378366
221	0xbca6351d	-0.020288998
222	0x3cc57728	0.02410467
223	0x3a504dc1	0.00079461565
224	0x3b80868d	0.0039222897
225	0xbd7b253e	-0.061314814
226	0x3d4e33f4	0.050342515
227	0xba7c64e7	-0.0009628073
228	0x3ce0839f	0.027406512
229	0x3d9fa436	0.077949926
230	0xbcc62b72	-0.024190638
231	0x3b663988	0.0035129506
232	0xbdc2ad59	-0.0950572
233	0xbcbaa3d5	-0.0227832
234	0x3db3deea	0.08782752
235	0x3da28a03	0.0793648
236	0xbdc307d5	-0.09522978
237	0xbd202ebe	-0.039107077
238	0x3cab9a8f	0.020947723
239	0x3d09872d	0.03357618
240	0xbca12b83	-0.019674068
241	0x3d05327f	0.03251886
242	0xbd12fe1e	-0.035886876
243	0xbd87fb30	-0.06639707
244	0xbd838e12	-0.06423582
245	0x3c401bc7	0.011725373
246	0x3d0635ed	0.03276627
247	0x3da2172a	0.079145744
248	0x3d42fb2b	0.047602814
249	0x3d0af783	0.03392745
250	0x3c585bf2	0.013205515
251	0xbd7af3f6	-0.061267816
252	0xbc91b1c8	-0.017784968
253	0x3d7285f5	0.059209783
254	0xbb5b4973	-0.0033460527
255	0xbd86498c	-0.06556997

arith.constant3 f4 [3]
0	0x3d40e549	0.047093663
1	0xbd051e72	-0.032499738
2	0xbbdfc177	-0.0068284827

arith.constant4 f4 [32]
0	0x3cad8b59	0.02118461
1	0x3ba61771	0.0050687124
2	0xbbd4799f	-0.006484225
3	0xbc0d0394	-0.00860681
4	0x3d1ba117	0.037995424
5	0xbbf354b2	-0.007425868
6	0x3d126b91	0.035747115
7	0xbd1187f7	-0.035530057
8	0xbca451c9	-0.02005853
9	0xbcbe7006	-0.023246776
10	0xbd2e8192	-0.042604037
11	0xbcec1af8	-0.028821453
12	0x3b270ac0	0.0025488585
13	0xbb7935cc	-0.003802645
14	0x3cdbfd61	0.026854219
15	0xbd239cdc	-0.039944515
16	0x3d0b0029	0.0339357
17	0x3d4ad685	0.049520988
18	0xbc1537c1	-0.009107531
19	0x3d301806	0.04299166
20	0xbd08b4a4	-0.033375397
21	0xbd3227c4	-0.043494955
22	0xbcac2dce	-0.021017935
23	0x3d3ea1bb	0.046540957
24	0x3c75064b	0.014955114
25	0xbceca48e	-0.02888706
26	0x3d317cc9	0.043331895
27	0x3d18fab1	0.037348453
28	0xbc53b16a	-0.012920717
29	0xbd05daa2	-0.032679208
30	0xbc52d1b3	-0.012867379
31	0xbca928ed	-0.020649398

arith.constant5 f4 [64]
0	0xbcc55a0f	-0.024090795
1	0xbd05e799	-0.03269157
2	0xbc4b731a	-0.012417579
3	0x3cf5c3b4	0.030000545
4	0x3be0ea6e	0.0068638837
5	0x3af47077	0.001864924
6	0x3d04a27d	0.032381523
7	0x3cd67c9a	0.026182462
8	0xbb57b50e	-0.0032914313
9	0xbd200292	-0.03906495
10	0xbc9fdad4	-0.019513525
11	0x3d0f1fc2	0.034942396
12	0xbca0c28c	-0.019624017
13	0x3d1fce87	0.03901532
14	0x3d01a918	0.0316554
15	0xbc5c8db9	-0.013461524
16	0x3cebb1d4	0.028771318
17	0xbc91d95d	-0.017803842
18	0xbcb12a84	-0.021626718
19	0x3cb8f251	0.022576483
20	0xbced3fad	-0.028961027
21	0xbcfc9e4d	-0.030837202
22	0x3cc76e4e	0.02434459
23	0xbd1189af	-0.035531696
24	0x3cf3cecf	0.0297617
25	0x3d0b4e82	0.034010418
26	0xbcae37f1	-0.02126691
27	0x3c1c8d64	0.0095551945
28	0x3cff01c7	0.031128777
29	0x3c0882cb	0.008331965
30	0xbcfba9ed	-0.030720675
31	0xbd088ec6	-0.033339284
32	0x3d29f259	0.041490886
33	0xbce86ba9	-0.028371649
34	0x3bccc67f	0.0062492485
35	0x3c08aa89	0.00834144
36	0x3d0267a8	0.031837136
37	0xbbd1c889	-0.0064020795
38	0xbc52a908	-0.012857683
39	0xba893ce4	-0.0010470417
40	0x3baa8b84	0.00520462
41	0xbce5400d	-0.027984643
42	0xbbc8c381	-0.0061268215
43	0xbc72adc0	-0.014811933
44	0x3cfa814e	0.030579235
45	0x3d35cc44	0.044384256
46	0xbc97c129	-0.018524723
47	0x3cc516da	0.024058748
48	0x3c937ea3	0.018004721
49	0xbcebc206	-0.028779041
50	0x3d421d64	0.04739131
51	0xbc7db41c	-0.015484836
52	0xbce84d1a	-0.028357077
53	0xbd01ab5e	-0.03165757
54	0xbcedc017	-0.02902226
55	0x3d285122	0.041093
56	0xbd086f0d	-0.03330903
57	0x3ce0cd61	0.027441682
58	0xbcdb4bce	-0.026769545
59	0xbcdb954c	-0.026804589
60	0x3ba742f6	0.005104418
61	0xbc8cc0ca	-0.017181773
62	0xbcbf5706	-0.023356926
63	0xbc7b55dd	-0.015340296
