model/model.tflite (tflite, 147188 bytes, 16 tensors)

arith.constant f4 [3, 32]
00000000: f72e 963d 9220 6dbe 68de 9d3e 28c9 0c3d
00000010: cfc9 61be e3c2 f53d db80 dcbd 741e 88be
00000020: fb8c 4b3e c6a6 79be 843c 6d3e b159 60be
00000030: 7111 093e 9f72 733d d56b 0c3e 9768 8fbd
00000040: db2a 79bd 603e b8be 361f bfbe 2fb8 2d3e
00000050: 42a4 b8be e3f6 7f3e c9c0 3abd e802 bb3e
00000060: 9cf7 78be 1bf9 853e 58d9 7abe 606c 66be
00000070: 57e0 743e bc46 c03e 3a64 b53e ada0 073e
00000080: 0e55 373e d72c 76bc 70b9 03bf d7cb 473e
00000090: fc28 1cbe f030 a8be e7a7 8cbe a2ad 84be
000000a0: 11d6 bb3e bb41 a3be 0ea8 aebe 2afe 423d
000000b0: 0879 9b3e 8e80 083e 21a7 223e a715 4d3d
000000c0: 8d98 4bbe 4629 1bbe 57b3 ca3e 831e 9ebe
000000d0: 54e7 57be bf01 9dbd c51e a1bd 95b9 85be
000000e0: d79b 87bd 22b6 94bd 25a0 5abe bd94 863e
000000f0: fb59 5cbe 557f 60be a162 53be 1b0b 903e
00000100: 4ae4 bb3e c151 ab3d 9212 dfbe 8356 d33d
00000110: 355c b93d e400 9cbe e8f2 923c 1293 b8bd
00000120: 9f80 883d 3600 e3be 3466 33be 1cae 4c3e
00000130: 248e a4be fc13 473e 75ff b83c 4dbe 10be
00000140: d224 b7bd 5d04 ac3e 648e d43d 9ee2 66be
00000150: f3c0 75bd 56fd 2abe 1775 b23d db72 aa3d
00000160: 6e8b 823e f826 b93e 4bdc 4bbe 6f9a babd
00000170: 4693 a2be 8af0 a2be 7418 6a3d abbd aabc
0.073331766 -0.23156956 0.30833745 0.034371525 -0.2204964 0.12000062 -0.10766765 -0.26585734
0.19877999 -0.24380025 0.23167616 -0.21909215 0.1338556 0.059435483 0.1371301 -0.07002371
-0.060831886 -0.35985088 -0.373285 0.16964792 -0.3606282 0.24996524 -0.04559401 0.36525655
-0.24313205 0.26166615 -0.24496973 -0.2250228 0.23913704 0.37553966 0.3542803 0.13244887
0.1790354 -0.015025339 -0.5145483 0.19511352 -0.1525001 -0.32849836 -0.2747185 -0.2591372
0.36686757 -0.31886086 -0.3411259 0.04760567 0.30365777 0.1333029 0.15884067 0.050069477
-0.19882412 -0.15152463 0.3958995 -0.30882654 -0.21084338 -0.07666349 -0.07867197 -0.2611815
-0.06621521 -0.072613016 -0.21350153 0.26285353 -0.215187 -0.21923573 -0.20643093 0.28133473
0.36697608 0.08365203 -0.43568856 0.10319235 0.0905079 -0.3046943 0.017938092 -0.090124264
0.066651575 -0.44336098 -0.17519456 0.19988292 -0.32139695 0.19441217 0.022582749 -0.14135094
-0.0894257 0.3359708 0.10378721 -0.22547385 -0.059998464 -0.16698202 0.08713739 0.08322688
0.25497 0.36162543 -0.19908254 -0.09111487 -0.31752986 -0.31824142 0.057152227 -0.020842394

arith.constant1 f4 [32, 48]
00000000: 2bd0 87be b43f 783e 1b2f 683e afe4 ebbd
00000010: bce1 6fbe 1612 fc3d d6bf 42be 3cc8 43be
00000020: 933e 53be debf afbc ae63 d93d 36e8 c7bc
00000030: db95 b0bd b6f8 023e 59f4 823d 31f9 313e
00000040: dfc2 0f3e 4154 293c cc5c 9e3b f339 203e
00000050: b711 fbbd f1b2 943d 16b0 223e 5486 44be
00000060: 823d 843e 1874 9fbd 2969 f4bd df6d adbd
00000070: 99b8 993d 764c 30bd 57f0 1cbe 6652 25be
00000080: 55b6 f93c 6dc5 89bd 6791 c83d 06f4 5d3e
00000090: a095 813e f00b c9bd 5d7a 073e bbf0 7dba
000000a0: bfd9 053d ee55 743b 4563 d7bd fb84 773e
000000b0: 2411 9d3d c0fe f73b 96ef 0b3e 7f0a 28be
000000c0: 1058 3bbe e082 a63d 29d6 2a3e e0d3 e53c
000000d0: 33b1 493e 51ab 43be 4629 19bd e197 543e
000000e0: 862f 1bbd b090 0dbe b858 003d 7622 3bbd
000000f0: 4b68 c83d 4d15 1b3e 7760 093e f57f 71be
00000100: 5ad1 ed3c bf06 97be 3c7a a2bd 2454 2b3d
00000110: 782b 86be b97d 93bc 53cb 873e 0b9d 763a
00000120: 4adc 71be 9b6e 80bc e80e 88be dbef 09bc
00000130: 30c3 cdbd 2ae7 653e f566 0e3e c525 6bbe
00000140: 601c 953c 02a4 083e 0d36 733e caa3 efbd
00000150: 88b9 b13d 81e0 6bbd e6ae 233b 41e3 24be
00000160: 1d12 f53d 6c28 1f3d 0054 35bc e1ec 673d
00000170: e2e9 7cbe f654 c8bc bfab 3b3e 92e7 3f3e
00000180: 1fae 50be ae20 55be 9a53 dc3b dd26 9cbc
00000190: 6e3d 06bd 1687 543e 158d 833e 8f03 843e
000001a0: 2776 4bbe 76cc 01bd e875 c1bd 9ad7 673e
000001b0: 429b f3bd 61ba 19bd c55b 2f3e 2183 cbbd
000001c0: d40e 68be 955f 68bc 9802 39bd 1c93 043d
000001d0: 5ddb 7bbe f9fa 853e 0eb8 02bd 95b2 7ebd
000001e0: d324 783d ebd1 943e 3a21 06bd 76c8 803d
000001f0: ef27 5bbd e8da 233e 1bcb 49be ad40 34be
00000200: 61ab 03be b619 143d 38e9 2c3e c1f5 d9bc
00000210: 902d 0e3e a9e5 48be 9df6 de3d 3967 39bd
00000220: 311b 413e a867 67be b840 02be 8382 1f3e
00000230: d1a9 14bd f1fd 6cbe e4c4 383e edaf 0f3e
00000240: a27c 913d f195 2c3e 8913 5f3e cd04 28be
00000250: bcd3 583e ea5c 9ebc b1c9 843e 4993 8d3d
00000260: 4a4f cf3d 636c 423e 4e63 64be 8e8a 3b3e
00000270: 9343 c43d a47f 47be 9abe 4b3e 8bab 113e
00000280: f144 273e f40e 41be 299a 8c3c bcca 5e3e
00000290: 1ce0 423e bcbc 3a3e def4 02be 9145 8abd
000002a0: addf 85be cdb4 8abe 0688 8a3e 2edc 8dbd
000002b0: 1ca9 8fbe f403 88be 28f4 233e c53c 85bd
000002c0: 8467 45bd 463d 843e 2b19 093e 54ca 503e
000002d0: d814 273e dd98 693d 387f 6ebd 0a53 25bd
000002e0: 08dd 8d3d dfb0 e63d 9299 453e a79b 08be
000002f0: 4913 88be 8a4f 823e 5b25 5bbe f4ed ffbd
00000300: ac58 2b3e 06df 1abe c6c9 523e ccc4 21be
00000310: 9935 673e b72e 853e 8527 4d3d 8ee5 3ebe
00000320: 7d1e 233e cccd f5bc 4fb6 0a3e 8a96 263d
00000330: 5064 2cbe f8e4 3bbe a01b 373e c478 333e
00000340: 8837 f2bd 7d38 79be 3212 65be 152f 4a3e
00000350: f6d9 5a3e 6286 06bc 4ff8 263e d67c b8bd
00000360: 8046 b33d 7bf3 6fbe a0db cfbd ffad 58bd
00000370: 0212 7cbe 11e3 2abe 7139 893e 5783 313c
00000380: 24af 6d3e 7f24 b9bb c70c 823d 50c4 75be
00000390: 1ddb 5f3c 26a2 81be 82e5 6a3d 4502 463d
000003a0: 8d4f 723e 91a2 d73d b445 eabd f4e5 09be
000003b0: 7c15 21be b604 40bd 88da 7ebd ccb0 993d
000003c0: a47a 2ebe b726 5cbd 14ec 443c 6af2 133d
000003d0: 96c5 ad3c e182 07be 23b0 76be ea89 043e
000003e0: 4327 6dbc e02d 053d 4c6f 9e3d ba5b 613e
000003f0: ddc5 363c d5e0 3bbe a2e4 253e 4b0d 523d
-0.26526007 0.24243051 0.2267422 -0.11518227 -0.23425955 0.12308137 -0.19018492 -0.19119352
-0.20629339 -0.021453794 0.106147155 -0.024402719 -0.08622333 0.12790188 0.06394262 0.17380215
0.14039181 0.010335029 0.0048328396 0.15647106 -0.12259238 0.07260693 0.15887484 -0.19191867
0.25828177 -0.07785815 -0.1193412 -0.08468222 0.07505912 -0.04304167 -0.15326057 -0.16144714
0.03048245 -0.06727109 0.09793358 0.21675119 0.25309467 -0.0981673 0.13230272 -0.0009687056
0.032678362 0.0037282663 -0.10516981 0.24171822 0.07669285 0.0075682104 0.13665614 -0.16410254
-0.18295312 0.08130431 0.16683258 0.028055131 0.19696502 -0.19108321 -0.037392877 0.20761062
-0.03788712 -0.13824725 0.03133461 -0.04568716 0.09785517 0.15144844 0.13415705 -0.23583968
0.02903049 -0.29497334 -0.079334706 0.04182829 -0.2620504 -0.018004285 0.26522312 0.00094075565
-0.2361919 -0.01567774 -0.26573873 -0.008419002 -0.10046995 0.22451463 0.13906462 -0.22963627
0.018202007 0.13343814 0.23751087 -0.11701162 0.086779654 -0.05758715 0.0024976074 -0.16102315
0.119663455 0.03885691 -0.01106739 0.05662239 -0.24698594 -0.024454575 0.18327235 0.18740681
-0.20378922 -0.20813248 0.0067238333 -0.0190615 -0.032773428 0.20754656 0.25693575 0.25783965
-0.1986929 -0.03168913 -0.09446317 0.22640839 -0.118948475 -0.03753126 0.17124851 -0.0993712
-0.22661906 -0.014182945 -0.04516849 0.032366857 -0.24595399 0.2616804 -0.03191381 -0.062182028
0.060581993 0.29066405 -0.03274653 0.06288235 -0.05350488 0.16001475 -0.19706385 -0.17602797
-0.12858345 0.036157332 0.16885841 -0.026606442 0.13884568 -0.19618858 0.108868815 -0.045264456
0.18858029 -0.22598135 -0.1272 0.1557713 -0.036294762 -0.23143746 0.18043858 0.14031954
0.0710385 0.16854073 0.21784796 -0.16408081 0.2117452 -0.019331414 0.25935128 0.06912858
0.10122545 0.18986659 -0.22303507 0.18314573 0.09583201 -0.19482285 0.19896927 0.14225595
0.16334893 -0.1885336 0.017163353 0.21757025 0.19030803 0.18236059 -0.12788722 -0.0675155
-0.26147214 -0.27091065 0.27056903 -0.069267616 -0.28058708 -0.26565516 0.16011107 -0.065057315
-0.048194423 0.25827998 0.13388507 0.20389682 0.16316545 0.057030547 -0.058226794 -0.040362395
0.06926924 0.11264204 0.19296864 -0.13340627 -0.26577213 0.25451308 -0.21400969 -0.12496558
0.16733044 -0.15124139 0.20584783 -0.15797728 0.2257904 0.26012203 0.050086517 -0.18642256
0.15929599 -0.030005358 0.13546108 0.04067091 -0.16835141 -0.18349063 0.17881632 0.17526537
-0.11826998 -0.24337955 -0.22370222 0.19744523 0.21372208 -0.00821075 0.1630566 -0.090081856
0.08753681 -0.23432724 -0.10149312 -0.05290031 -0.24616244 -0.16688181 0.26801637 0.0108345365
0.23211342 -0.0056501026 0.06350093 -0.24000669 0.0136630805 -0.25319022 0.057347782 0.04834201
0.23663159 0.10529054 -0.11439076 -0.13466626 -0.15730852 -0.046879493 -0.062220126 0.075044245
-0.17038971 -0.05374786 0.012019176 0.036119856 0.02121238 -0.1323352 -0.24090628 0.12943235
-0.014474693 0.032514453 0.07736072 0.22007647 0.011155573 -0.18347485 0.16200498 0.05128221

arith.constant2 f4 [48, 48]
00000000: 7e94 103e 6fee 2fbe 1b1e 4c3e d888 e1bd
00000010: 2cff 18bc 7011 c4bd f0d4 e43d 61d2 883c
00000020: 98d6 c0bd 55f5 90bd f922 fabb cb47 fa3c
00000030: cba5 d23d c2e2 0bbe 44b3 273e 3603 1e3d
00000040: c9f0 14be 6f60 dc3d 81e2 5a3d 3131 bf3d
00000050: c882 e33d 5b17 67bd 64a3 dabc 2063 d63d
00000060: 5c79 62be 5c4c a83b 4000 01bc 4c3b 79be
00000070: 8a44 f1bd 013b f73c 18f9 0a3e fee8 13bd
00000080: 17e2 39be c090 113d 2405 1a3e e868 c5bd
00000090: e8f3 13be 6829 87bd 2828 b6bd 9060 48bd
000000a0: bf52 9f3d 4706 ac3b 2503 9cbd 6874 41be
000000b0: ac9f 91bc 69b7 ffbd a458 e13d 9001 21be
000000c0: 3e32 503e 53fb 5cbe de1e 02bc 6fc7 2e3e
000000d0: 7541 e63d b47d 6abe 80ee 063e 173b 55bd
000000e0: 79c8 993c 7219 af3d f4d2 57be bb09 57be
000000f0: 24a7 473e 2c7a 4e3e af3e 713d 1012 bfbd
00000100: cfbb 6fbe 811e 733e 7156 f63d d029 16be
00000110: f68e 1d3e 0d59 663e 55b5 163e 4826 7bbe
00000120: b064 493d 341e 133e 02eb 303d 1d53 c0bd
00000130: 417a 8ebd 5a0b 17b9 04e8 ab3c f85a 7b3d
00000140: 1f80 5d3d e686 233d addf bc3d 71d9 01be
00000150: b02f 1f3e 40ee 3fbc e275 35bc 4e70 75be
00000160: 7a62 733e 0631 58bd 555b d8bc c807 48bd
00000170: 3aff e93c cfe7 bb3d 382a 123e f0f1 ee3d
00000180: 59dd 693c 52e9 79be 76f9 54be 2a4e 263e
00000190: 7e40 56be 2876 83be 30b0 e8bd 32d2 20bd
000001a0: b2b8 3c3e 3822 01be 266e 463e 50b2 7f3e
000001b0: 0f67 c93d 6fd0 bb3d a59c 683d 94ae 483d
000001c0: 1d02 de3d 3a34 f83d dd33 013d 503f 533e
000001d0: 1a36 503e 3f8e 353e 80c7 b6bc 95f1 1abd
000001e0: 0922 48be 1f9c b7bd e1c6 42be c5c2 afbb
000001f0: 1dc6 a3bd 94d1 033e 74e2 213e 7760 0bbe
00000200: a85d 3b3e 0cf7 753e 9f8a 223d 24c7 4ebe
00000210: 3963 183e 5ca4 66be f6e9 0dbd 9294 58be
00000220: 2560 03bd d6ff 17bc 3678 613e 312c ccbd
00000230: 43e0 2a3e 170b 35be 718d 3f3c 3016 7dbe
00000240: d17b 3f3e 2ac9 6a3e 9ada 693e 246b 11bd
00000250: 24e2 8cbd 7c19 7a3e e0d1 6e3d 3463 12bd
00000260: 17df 343e 1fb5 77be 3dbe 08be 4b2b ae3d
00000270: 8342 e53d 92bf dc3d acb8 4d3e ebad 293d
00000280: ba62 273e 463c c4bd 19ff 4ebe 63ea acbd
00000290: f311 b83d 7c85 abbd a2d8 413e 731b 733e
000002a0: 6472 4fbe 63f3 3dbe 16b1 65bb 3457 c23d
000002b0: f190 883c 4c9e 423d 1b23 2a3e 0aa8 773d
000002c0: 7041 2fbe e68a db3c 5d82 f6bd 73e6 7cbd
000002d0: 94b7 36be 1b51 d3bd 8df5 033e 84f5 143e
000002e0: 88c7 6cbd 9ac3 64be e2fd 3b3e 2ed6 2abe
000002f0: 1a38 953d 76bf 5ebd ca9e 3a3e 7173 f2bc
00000300: 4b8f 763e 3019 a63d a989 82bc 061b 5fbe
00000310: 249c 5abd 3fd8 20be f059 1e3e 2034 3abd
00000320: 6d61 c33d c096 6c3e e2e7 41be 26d4 58be
00000330: c439 373e 418f 493d 5252 66be 2019 cb3d
00000340: 1218 2dbe 1f07 e13d 1e40 2b3d e2f1 523d
00000350: 4e50 bfbc c19a 5cbd 1179 21be 73d5 45be
00000360: ee0d 6f3e 2f98 81bd 54fd 66be 58e1 643d
00000370: c8f6 74be cd0d 323e 5e2a 0f3e 6750 323e
00000380: 3a73 363e 2809 da3d b9e8 043e 9079 fe3d
00000390: f2a5 3d3e c09a 4a3c 01c4 8d3d 8058 993c
000003a0: 6068 c63d 3855 5bbe 5f20 623d e333 23be
000003b0: 4a61 75be 60c1 d9bd 2a45 17be 10b6 20be
000003c0: 419b 3f3e 51d2 adbd 6a77 a6bb 4049 99bd
000003d0: 48df 49be 9b4c a9bd 3c74 5fbe c59a 133e
000003e0: dcfa 6d3c a2ba 7fbd 755a 72be 24fc 483d
000003f0: b845 393e f81c 7ebe 4024 853d 6a8a 3cbe
0.14119145 -0.17180799 0.1993336 -0.11012429 -0.0093381815 -0.095736384 0.11173427 0.016701879
-0.094159305 -0.07078043 -0.0076335636 0.030551812 0.10285529 -0.1366072 0.16376978 0.03857728
-0.14544977 0.10760581 0.053438667 0.093355544 0.11108929 -0.056418758 -0.026689239 0.10468125
-0.22116607 0.005136056 -0.007873595 -0.24339026 -0.11780651 0.030179502 0.13571584 -0.03611087
-0.18152653 0.035538435 0.15041023 -0.0963915 -0.14448512 -0.065996945 -0.08894378 -0.048920214
0.077794544 0.0052497718 -0.07617787 -0.18892062 -0.017776333 -0.124861546 0.11003235 -0.15723252
0.20331666 -0.21580248 -0.00794193 0.17068265 0.11242954 -0.22899514 0.13176918 -0.052058306
0.01877235 0.08549775 -0.21076566 -0.20999806 0.19497353 0.20163792 0.05889767 -0.09329617
-0.23411487 0.23742105 0.12028206 -0.14664388 0.15386567 0.22494908 0.1471761 -0.24526322
0.04916829 0.1436699 0.04319287 -0.093908526 -0.06956912 -0.00014404711 0.020984657 0.06136605
0.054077264 0.03992357 0.0922235 -0.12680604 0.15545535 -0.011714518 -0.011075469 -0.23968622
0.23768035 -0.052781127 -0.026410738 -0.048835546 0.028564084 0.09175073 0.14273918 0.1166724
0.014273965 -0.24405411 -0.20798287 0.16240755 -0.2092304 -0.25676084 -0.1136173 -0.039262958
0.1842983 -0.1261071 0.19377956 0.24970365 0.0983411 0.09170615 0.056790013 0.048994616
0.10840247 0.121193364 0.0315436 0.2062962 0.20333138 0.17730044 -0.022311926 -0.037828047
-0.19544233 -0.089653246 -0.19021179 -0.0053637945 -0.079967715 0.12872916 0.15809041 -0.13611017
0.18297446 0.24020022 0.03968298 -0.20193154 0.148816 -0.22523636 -0.03464695 -0.21150425
-0.032074112 -0.009277305 0.22018513 -0.09969366 0.16687112 -0.17680012 0.011691437 -0.24715495
0.18699576 0.229283 0.22837296 -0.035502568 -0.068790704 0.24423784 0.05830562 -0.03573914
0.17663227 -0.24190186 -0.1335382 0.08504351 0.11194327 0.10778727 0.20089978 0.041425627
0.16346255 -0.09581809 -0.202145 -0.08443143 0.089877985 -0.083750695 0.18930295 0.2374094
-0.2025848 -0.18549876 -0.0035048178 0.09489289 0.016670676 0.047514245 0.16614954 0.06046299
-0.17114806 0.02679963 -0.120365836 -0.06174321 -0.17843467 -0.10318204 0.12886639 0.14546782
-0.057807475 -0.22340241 0.18358567 -0.16683266 0.07286091 -0.05438181 0.18224636 -0.029596062
0.240781 0.08110273 -0.015934782 -0.21787652 -0.053371564 -0.15707491 0.15463996 -0.045459867
0.09540067 0.23104382 -0.18936113 -0.21174678 0.1789313 0.049208883 -0.2249234 0.099169016
-0.16903713 0.10987686 0.041809194 0.05150021 -0.023353722 -0.053858522 -0.1576884 -0.19319706
0.23345158 -0.06327855 -0.22557575 0.055878967 -0.23922265 0.17388077 0.13981006 0.17413484
0.17817393 0.10646278 0.12979402 0.1242553 0.18520334 0.012365997 0.069221504 0.018718958
0.09687877 -0.21419227 0.055206653 -0.15937762 -0.23962894 -0.106325865 -0.14772478 -0.15694451
0.18711568 -0.0848738 -0.0050801532 -0.074846745 -0.19714081 -0.082665645 -0.21821684 0.14414509
0.014525142 -0.062433846 -0.23667319 0.049068585 0.18093002 -0.24815738 0.06501055 -0.18412176

arith.constant3 f4 [48, 48]
00000000: 5726 7e3e 83b3 8f3d b2e5 5bbe cb1b 81be
00000010: e638 1fbd e655 1e3e 048d 54bd c018 113e
00000020: 0742 20be d716 49be 48eb 3abd 1879 173d
00000030: a7c3 9fbb 624c b53c 9631 8dbc ae28 34be
00000040: 7c1a 933c d986 4dbe 5afb 31be ba96 90bd
00000050: 6293 05be d664 1cbe f409 48be 8cc1 513d
00000060: 58d3 e0bd 2c27 953d 5686 733e 4b5c 113e
00000070: b4ca 4cbe 61c0 8e3e 6d6d d7bd 8b1b bdbd
00000080: afaa ce3d 5558 553e 8a7b 013e a1b1 9c3b
00000090: 09fe ea3d e4ee 703e b8be 1e3e 98fd c43d
000000a0: 919b 393e e44e 1bbe d934 5dbe eee7 7b3d
000000b0: beba 0e3e 1a57 8c3d 820b 193e badb 6c3e
000000c0: 43e0 b7bd 6ec7 d1bd e074 2d3e 548d 743e
000000d0: 8346 d6ba 5dc7 c4bb 0da4 8bbc dacf cdbb
000000e0: d4f8 6b3d e785 8c3c c662 7cba f79d 3cbe
000000f0: 6f8d fa3d d921 e8bc 859e 863e a3f3 5d3e
00000100: a996 c53b 0d33 0e3e 0f9f 4f3a 20e7 533e
00000110: ed59 853e 9161 893d 7d5e 1ebc 736d 33be
00000120: 9239 57be e178 8fbd 4dfc f53d bba6 793e
00000130: 2a18 4b3e 312a 3d3e 1a8d c5bd d4c8 7c3d
00000140: 7dae f5bc d8a3 593a e9e9 bfbd dc83 ba3d
00000150: 6901 dbbd 40bc 98bb 2fd8 843e 0e5b c33d
00000160: 53f0 23be 9028 243d b0fd 1b3d 1ded 893e
00000170: 2a87 1b3e c5b0 283e a55e 833e 1c27 2abe
00000180: 437f 333e 6bcb d2bd eada e73d 82c4 8c3d
00000190: 5946 86bd 7554 6e3e 1478 41be df17 54bd
000001a0: 4119 9f3d c3e3 9fbd 6690 4c3e 8581 283e
000001b0: d8b6 bebc bf8a 383e 4eb5 993d 4d62 47bd
000001c0: 33c8 14be 33be 2c3e cb2c 63be 937f 18be
000001d0: 35de e03d c35b 84bd 4553 dd3d c05c 2dbd
000001e0: c1fe 1bbe 7d2e 2abe e017 f43d 6cb6 253e
000001f0: b133 18be b84e d03d d3a9 c4bd 4e7d 793c
00000200: 7dc2 023e 3e3c 053e 0813 7bbe 5291 443e
00000210: 71cc 0abe 658c 33bd cd6c f5bd a4ed c23c
00000220: a3c5 1fbe 6ade 7b3e ee1a 283e 6c43 e03d
00000230: 7591 9bbc 5808 533e e2bb 3ebe 82b1 483e
00000240: 807f fabd 0ece 253e 49ff bb3d 3ae4 aa3d
00000250: 7c07 60be 9a24 4d3e f3b6 9b3d 66bd 3e3e
00000260: 58d6 6dbe f47e 49be 3ee2 5fbe ac90 ea3d
00000270: 1d5a 12be 55a9 c23d 2be3 64be 9621 803c
00000280: 21c6 9c3c 4d31 53be 30fe 85bd b9ef 5dbe
00000290: 38b9 01bd bac5 44be b5f2 0e3e 16c6 343e
000002a0: 7e1e 1cbe dded d8bd a6c8 4e3d f6b4 16be
000002b0: d579 cc3d 2e4c 0f3e 8b83 edbd a802 adbd
000002c0: 0e25 86bd 3e2a 473e aa61 edbd c9fe 58be
000002d0: 3b63 1fbe d0a6 cabd 39e8 673e 202b db3c
000002e0: f264 9cbd 3cb8 b63d 9616 053e eb30 643e
000002f0: 5206 8e3d b5c1 8d3b 59d8 1f3e 2017 04be
00000300: 48fd 743e 53df 133e 48dd 1f3e 3d92 a43c
00000310: 1983 f0bd 9e5e 48be 72b9 373d c185 913d
00000320: 176a b0bd aac0 de3d 1f9a 5c3e f9ce bf3d
00000330: bcc5 533e b585 523d 138b 2abd 8cf2 1ebe
00000340: 77cf 373e e485 1cbe 6f27 2dbe a8d9 2abe
00000350: 03e6 59be c556 603d 9096 c73d 1bbd 073e
00000360: 4628 01be 6a3a 88bd 0902 073e a789 4fbe
00000370: 1721 abbd c941 253e 05ca 453e 391f 953d
00000380: faeb 6b3e e93e 3bbe 5fae 02bd d03c 5ebe
00000390: 567a 563e eca0 19be b7e9 4a3e 00f0 a73d
000003a0: 1ca0 71bd c413 163e 8a56 53be 9671 3dbe
000003b0: aa45 3cbd d791 3a3e 6f22 22bd aebb 843e
000003c0: 110f bf3c 3d5e 28bc da5e d9bd ece3 843c
000003d0: a607 f33d 01cf 773e a493 fbbd 598b a4bd
000003e0: 7385 3fbd c789 2cbc d5d9 34be 61fe 11be
000003f0: bc20 573e 4dfa 8a3d 7d7a 103e dd17 54bb
0.24819313 0.07016661 -0.2147434 -0.25216517 -0.038872622 0.15462455 -0.051892295 0.14169598
-0.15650187 -0.19637619 -0.045634538 0.03698072 -0.0048756185 0.022131149 -0.017235558 -0.17593643
0.017956965 -0.20070972 -0.1738104 -0.07059999 -0.13044503 -0.15272841 -0.19535047 0.05120997
-0.109778106 0.07282862 0.23781714 0.14195363 -0.199992 0.27881148 -0.10518918 -0.09233769
0.10091149 0.20834477 0.12644783 0.004781917 0.114742346 0.2352863 0.15502441 0.09618682
0.1812575 -0.15166813 -0.21602191 0.061500482 0.13938424 0.06852551 0.14945796 0.23130694
-0.089783214 -0.10243116 0.16939116 0.23882037 -0.0016347918 -0.0060052113 -0.017045999 -0.0062808814
0.057610348 0.017153693 -0.00096277555 -0.18419634 0.122340076 -0.028336452 0.26292816 0.21674971
0.006029923 0.13886662 0.0007920125 0.20693636 0.2604517 0.067080624 -0.009666082 -0.1752222
-0.21018055 -0.07005478 0.12011013 0.24380009 0.19833437 0.18473126 -0.096460536 0.061714962
-0.029990429 0.00083023077 -0.09370787 0.091071814 -0.10693628 -0.004661113 0.25946185 0.09538852
-0.16009645 0.040077746 0.038083732 0.26938716 0.1518828 0.16473682 0.25658146 -0.16616482
0.17529015 -0.10292705 0.113210514 0.068734184 -0.065563865 0.23274405 -0.18893462 -0.051780578
0.07768489 -0.07807114 0.19976959 0.16455658 -0.023280546 0.18021677 0.07505284 -0.04867773
-0.14529495 0.1686943 -0.22185056 -0.14892416 0.10979883 -0.06462815 0.10806898 -0.04232478
-0.152339 -0.16619296 0.11918616 0.1618287 -0.14863469 0.101712644 -0.09602704 0.015227629
0.12769504 0.13011262 -0.24518979 0.1919606 -0.1355455 -0.043835063 -0.11983643 0.023794957
-0.15602736 0.24596563 0.16416523 0.1095036 -0.018990258 0.20608652 -0.18626359 0.19598964
-0.1223135 0.16191885 0.09179551 0.08344312 -0.21877855 0.20033494 0.07603254 0.18626937
-0.23226297 -0.19677335 -0.21863648 0.11453375 -0.14292188 0.09504954 -0.22352283 0.015641015
0.019137444 -0.20624276 -0.06542623 -0.21673478 -0.03167078 -0.19216052 0.13959773 0.17653689
-0.15246007 -0.10592244 0.050484322 -0.14717469 0.09984175 0.13993904 -0.115973555 -0.08447772
-0.06550036 0.19449708 -0.115908936 -0.21190943 -0.15565197 -0.09895098 0.2264718 0.026753962
-0.07636441 0.08921859 0.12996897 0.22284286 0.06934799 0.00432607 0.15609874 -0.12899446
0.23924744 0.1444066 0.15611756 0.020089263 -0.11743755 -0.19567344 0.04485459 0.0710559
-0.08613985 0.108765915 0.21543168 0.09365649 0.20680898 0.051397044 -0.041636538 -0.15522212
0.17950235 -0.1528545 -0.16909574 -0.16684592 -0.21279149 0.05477025 0.097455144 0.13255732
-0.1261302 -0.066517666 0.1318437 -0.20267354 -0.08355921 0.16138376 0.19315346 0.07281346
0.23039237 -0.18285717 -0.031904574 -0.21702886 0.20945105 -0.15002793 0.19815718 0.08200073
-0.058990583 0.14655977 -0.20638481 -0.18500361 -0.045964874 0.18219696 -0.03958362 0.25924438
0.023322614 -0.010276374 -0.106137946 0.016221963 0.11866693 0.2420006 -0.122840196 -0.08034391
-0.046758126 -0.010530896 -0.17661221 -0.14257194 0.21008581 0.06786022 0.14109226 -0.0032362856

arith.constant4 f4 [48, 48]
00000000: 212d 62be 1c9d a73d eeac 793d c251 12be
00000010: aee1 1b3e 5eed 88bd ef38 7b3e 6581 afbd
00000020: 43ec ab3d 4d02 813c 226f 703e 594d 713b
00000030: 487f 55bd e1ba 153e fcf1 7e3e 6d47 db3d
00000040: 7809 61be 73b6 053e b032 393e 418e 59bd
00000050: 7c17 5bbe 5ea8 14be 0039 7a3e 651c edbd
00000060: 71af fb3d 54e4 c23d 4831 02be 5c91 683e
00000070: cceb 473e 8e33 68be 24b0 1d3d 0543 143e
00000080: 1a98 413e 9f25 7abc fcd0 1ebd b03c 713e
00000090: f197 96bd 23a4 77be d21f c1bd 880e 9a3d
000000a0: 8f6f 0bbe 2378 09be 35f2 bb3d c314 fcbb
000000b0: 1f4a 1e3c d49b 21be 3596 19be edf1 1a3d
000000c0: 4f26 f23c f3bc 13be b138 6d3e f462 193e
000000d0: 9dfb f73d 9135 2c3d cd34 45bd caa6 6e3e
000000e0: 5bc8 ecbd c8a5 8b3d e876 b73d 265f cebd
000000f0: aaa4 403e ebe8 00bd 375e 1e3e af4d 26be
00000100: e180 83bc 8fdc 4c3e 99e1 f0bc 4fa0 23bd
00000110: a165 83be 25a7 b4bd 70cb 7fbd c276 17be
00000120: 7d8c cfbd 8a31 b7bd 60bb 84be ef65 6dba
00000130: 5b7c 80be 3231 9a3d 4566 62bc 6bcf ff3d
00000140: 8dc8 02be 5d1f 44be b5fa e93d bc7b dfbd
00000150: 7fdf 6c3e e6a6 233e 943b 633e 41e0 63be
00000160: 97d8 543d 94c7 98bd 77f7 3dbd fc28 65be
00000170: 6580 a73d 1f93 90bc 5c35 28be ea57 353e
00000180: 6895 8a3d 435d 81bc 803e 19bd 65da c63c
00000190: b245 af3d 7883 c7bb 4f14 a7bd fccf 973d
000001a0: 03ce 503e da1e 5c3e 642b a5bc 1e91 58be
000001b0: 6451 e73c adc7 42be b7c6 773d 6dae b73d
000001c0: 9215 95bd 0bab 38be 29d4 33be 9a5c e33d
000001d0: 2fa6 633e 67dd adbd 6d27 4e3d b80f aebd
000001e0: b2fc a1bd dbba e0bd 6ef6 653e c768 3fbe
000001f0: 15ac 3ebe 15ed 723e 93dc 373e 68ee 133e
00000200: ae23 a43d 8b92 b7bd 43f1 ec3c 42d9 8bbd
00000210: fc10 1abd 4024 33bc 025d b23c 17d9 5dbe
00000220: e63f 103d 2a6f a5bd a8cd 06bd 62cd 253e
00000230: 62c0 ee3d c6ba 6e3e 7dab 66be c6ee 573e
00000240: 2bb8 6dbd b698 0b3e 0071 25bb cb65 e6bd
00000250: c478 81bc 201e 32be 9fd8 35be ccc0 25be
00000260: 73d3 023e 4d78 d73d 0c63 233e 1d4f 233e
00000270: 6e1d 6abe a776 3d3e 9dac 4bbe 35a8 51be
00000280: 2a44 b2bd aac0 3fbe ee39 a33d 344d dbbd
00000290: f10a e03d 517a cbbb 2bd9 393e f211 d8bd
000002a0: dc2a 583e 8ef5 79be 79fa 14bc 6f6c 3cbe
000002b0: e3ec 403e 10c4 5bbe 52a4 4bbd fcf1 27bd
000002c0: 7ae3 493d ff5e 00be 2fd3 083e 2d3f aabd
000002d0: ed88 523e bab7 3ebe 976f 6f3e c53d f6bd
000002e0: ec89 9f3c e251 2fbe 9fc1 483e fbeb ef3c
000002f0: c4f8 efbd 90fb 84be 8d6b 3d3c 9c18 eebd
00000300: 9711 bcbd 89a6 023e 1bdd 13be 30bd a73d
00000310: 9f12 043c 271e 58bc 446c 483d 30d2 aeb9
00000320: eb64 60be 86ab 503e 6a6d eb3c 247b 1dbe
00000330: b4f0 423e 2031 373e e0f7 7ebe ff47 a8bd
00000340: 5885 6abe a3e4 4cbe ab3d 913d f9ce af3d
00000350: 1614 e7bd 720d 003e 56ca 193e 380b 9bbd
00000360: c117 063e af4e 783d 5585 44be 4c78 bcbd
00000370: b627 cd3d a03b 673e 03da cebd 5d87 ad3d
00000380: ccfe 4c3e e5b1 36bd ca06 56be 0181 683e
00000390: 1b75 6d3e 0297 c43d eed6 bfbc 96a4 5d3d
000003a0: 9e1d 34be 5ef8 7d3e c33c 78be 287a a0bd
000003b0: 4a0e e93d ea03 a139 5347 14bd b865 543e
000003c0: 52b7 4dbe a8c4 1c3e c972 52bd 12dc 2a3e
000003d0: 149c 36be 8d6b a53d 2321 253e 773c 2d3e
000003e0: 16c2 26be 8e10 1dbd 53ff 00be 0317 afbd
000003f0: fdf0 73be b5ef 58bb 6648 52bd f048 7d3e
-0.22087528 0.08184263 0.060955934 -0.14289 0.15222809 -0.06685899 0.24533437 -0.08569602
0.08394673 0.015748167 0.23479894 0.0036819784 -0.052123338 0.1462207 0.24896997 0.10706983
-0.21976268 0.1305788 0.18085742 -0.05311418 -0.21395677 -0.14517352 0.24435806 -0.115776815
0.12289322 0.095162064 -0.12714112 0.227117 0.19523543 -0.22675917 0.03849806 0.14478691
0.18905678 -0.015267759 -0.03877352 0.23558307 -0.07353199 -0.24183707 -0.09429897 0.07522303
-0.13616775 -0.13424735 0.09177057 -0.0076929047 0.0096612265 -0.157821 -0.14998706 0.037828375
0.029559283 -0.14427547 0.23166157 0.14979154 0.12108538 0.042043272 -0.048146058 0.23305812
-0.11561652 0.0681873 0.089582264 -0.10076742 0.18812814 -0.031472128 0.15465628 -0.16240571
-0.016052665 0.20006011 -0.029404448 -0.039947804 -0.25663474 -0.08820943 -0.062449872 -0.14791396
-0.10134218 -0.08944996 -0.25924206 -0.0009056022 -0.25094876 0.075289145 -0.013818328 0.12490734
-0.12771817 -0.19152589 0.11424772 -0.10912272 0.23132132 0.15981635 0.22190696 -0.22253515
0.05196437 -0.074599415 -0.04637858 -0.22378916 0.08178786 -0.017648278 -0.16426605 0.17709318
0.06766778 -0.015791541 -0.03741312 0.02427406 0.08558215 -0.0060886703 -0.081581704 0.07412717
0.20391087 0.21496144 -0.020162292 -0.21149108 0.028237052 -0.19021483 0.060492244 0.08968816
-0.07279505 -0.18033998 -0.17561401 0.11101647 0.22231363 -0.08489495 0.050330568 -0.08499092
-0.07909526 -0.1097314 0.22457287 -0.18692313 -0.18620332 0.23723252 0.17955236 0.14446414
0.08014618 -0.08963498 0.028923636 -0.06828548 -0.037613854 -0.010933936 0.021772865 -0.21664844
0.03521719 -0.080778435 -0.032910973 0.16191629 0.11657788 0.23313436 -0.22526355 0.21087179
-0.058036964 0.13632473 -0.0025244355 -0.11249884 -0.015804656 -0.17394304 -0.17758416 -0.16186827
0.12775974 0.105209924 0.15955752 0.15948148 -0.22862789 0.18502294 -0.19890065 -0.20474322
-0.087044075 -0.1872584 0.079700336 -0.10708085 0.10939587 -0.0062096496 0.1814925 -0.10550298
0.211101 -0.24410078 -0.00909292 -0.18400739 0.18840365 -0.2146151 -0.049717255 -0.04100226
0.049289204 -0.12536238 0.1336181 -0.08312831 0.20560046 -0.18624774 0.23382412 -0.120235
0.019474946 -0.1712108 0.1960511 0.029287329 -0.1171737 -0.25973177 0.011561287 -0.116257876
-0.091830425 0.1275884 -0.14439814 0.081903815 0.00806108 -0.013190783 0.048931375 -0.00033344468
-0.21913497 0.20377931 0.028738696 -0.15379006 0.19037133 0.17889833 -0.24899244 -0.08216857
-0.22902429 -0.20009093 0.0709184 0.08584399 -0.11283128 0.12505129 0.15018591 -0.07570499
0.13094999 0.060621914 -0.19191487 -0.09202632 0.1001734 0.22581339 -0.10100176 0.08473084
0.20019072 -0.044603247 -0.20901027 0.22705461 0.23189203 0.09599115 -0.023417916 0.05411204
-0.17589423 0.24801776 -0.24241929 -0.078357995 0.113796785 0.0003071123 -0.036200833 0.20741928
-0.20089462 0.15309393 -0.051379 0.16685513 -0.17832977 0.08077154 0.16125922 0.16917597
-0.16284975 -0.038345866 -0.12597398 -0.08549311 -0.23822398 -0.003310186 -0.051338576 0.24734855

arith.constant5 f4 [48, 48]
00000000: d650 583e 0f02 213e 84b2 9e3d 6894 093e
00000010: 22fd 65be 08fc ba3d 8fdd 4bbe fe4c 86bd
00000020: 9cb8 e1bd 7596 413e b914 60bc fc70 5f3d
00000030: 5b40 a13d 4b5f 59be 8210 0bbd 2efc 0e3d
00000040: d358 5c3e c78a 6ebe ed53 643e 1a9d 11be
00000050: 3a1f 863c 0b86 55bd d284 51be 1955 afbd
00000060: 0665 773e 0896 1abe 8405 08be 110e a43d
00000070: 6dcf ebbd 9dba ff3d 9344 7cbe c396 09be
00000080: 0bac a1bd bcb1 e83c 04da 54be dc2a 963d
00000090: 23e9 dabd 6912 6ebe 2e31 cb3d 22e6 22bd
000000a0: 8bc3 76be 8a66 71be f0bb 653e c1c3 853d
000000b0: 2f94 d3bd 2035 203e 851e 433e 9213 19be
000000c0: cef4 483d af76 513e e767 a3bd d501 103d
000000d0: f2a5 b43d d9f4 bcbd c569 a63d 0d3a c5bd
000000e0: 23ad 653e 1ec3 2c3e 2d47 5fbe bc05 ab3d
000000f0: 8ca4 f53d c341 6b3e 303b 8c3d 04a2 94bd
00000100: 7a9f d53d f379 613e 245d 383e d47d 373e
00000110: ce61 dd3d 8407 69bd d090 25be de0b d2bd
00000120: bcd8 02be 70bf 063e c3f0 0fbe ccec 2dbe
00000130: e45b a3bb ec0f fb3d b1ef b7bd fff8 233c
00000140: ffea 8f3d dc96 603e 61cd 6bbe 1c34 b03d
00000150: c7cd 03be a87c 0e3d 2371 8f3d 4ff9 a53b
00000160: 8504 73be ba44 d23a e354 273e b1f8 333e
00000170: 1c47 2b3e ddce cc3d ac89 25be 826d 093e
00000180: 8841 1dbe 44ff 8a3d a49d 4fbd 4720 7e3c
00000190: b1a0 483d 4601 cd3d ab84 683c ac34 6dbe
000001a0: a8e4 d33d 501e c3bc 00b0 debb 7832 12be
000001b0: b649 77bc 6ff1 62bd d077 8abd 2c4b 36bd
000001c0: 893b 3dbc 90cd 2abe 0456 75be 68e3 5a3e
000001d0: 22d8 a2bd 117c 8e3c b4c2 4cbe e017 abbc
000001e0: 91c7 aabc eaca 33be 5f22 edbd 4931 093d
000001f0: 1251 fbbb b063 d93d e4f1 4bbe d2b7 d6bd
00000200: e0ff 9f3c 24a1 f1bd f380 36be 0d0c 2abd
00000210: d966 7ebc b781 9d3d bacc a0bd 0fae 823c
00000220: 711c 56bd bc45 1cbe 9cee fdbd f13c 91bc
00000230: 0d2b 0fbe aeee 513e 90a0 253c a2fc 2dbc
00000240: 6e07 e5bd 62b8 51be c7fe 153e 17ba 863d
00000250: 4813 74be 4352 403e 2f32 6a3e 4fc0 343d
00000260: fcfe 0c3e f3d5 26be 92d4 9cbd b855 9cbd
00000270: ae80 373c 138f d7bc ef5a 52be 8529 643e
00000280: 3f18 69bd 2b2a 47bc 97e6 7bbe 2473 2e3d
00000290: 5d9e 0abe 7a3d 45be b4d7 073e 0084 40be
000002a0: 0c95 27be 6da7 b33d 3495 3c3e 3700 1cbe
000002b0: bc1d c1bd 4051 173e 8c56 3bbe e43e b4bd
000002c0: ab16 da3c 8fad 693e 02cf 413d c0bc 4fbd
000002d0: 9df8 69be 8f83 233e 2c7a 3c3c 02ef fa3c
000002e0: 8f17 0a3b 5045 7b3e d7db 0bbe 9d9e 70be
000002f0: b8f9 5bbe ff20 82bd bd1d 08be afa3 81be
00000300: b1ee 323e 1506 bb3d 6671 b33d 4c58 5e3d
00000310: b848 1fbe 5b0f e5bd 2059 043e 0e9a e83d
00000320: 0a07 01be d2d4 0a3e 8b5c 15be 2ae7 6b3e
00000330: 1105 3e3e bf2b 0d3c 2443 83bc 6156 0d3e
00000340: 7009 843c 3d6f 0bbe bfc7 07bc 33ca 4f3e
00000350: 115d 8ebc 9c12 e43d 672c 15bd 57bc 9d3d
00000360: 3203 2b3e f921 593e 0b57 05be 99bc 00be
00000370: 1451 50bc 627a bc3d 5e6c cfbd 753a 523e
00000380: 4cd7 343e dd00 47bc e9b2 3b3e 8448 67be
00000390: aad0 713d 9840 803e b00b 5b3e 5048 843d
000003a0: b9fd eabd 822b 673e de17 a73d 3dc9 dc3d
000003b0: 1b07 18be 3394 113e 1c28 04be 95c0 0ebd
000003c0: ee86 533e fc77 41be 2cfa 98bd a3bb 08be
000003d0: 0c42 5b3e 3437 7d3e fbaa 3a3e c335 bd3d
000003e0: ad2f 9abd 202a 62bc 279a 81be 5803 153e
000003f0: c1c8 3c3e e2c9 f2bd 5270 653e 0f0a 773e
0.21124586 0.15723442 0.07748893 0.13435519 -0.22459844 0.091301024 -0.19908737 -0.06557654
-0.110215396 0.18905051 -0.013676816 0.05455111 0.07873603 -0.21227758 -0.03395129 0.034908466
0.21518259 -0.23295127 0.2229764 -0.14220086 0.016372312 -0.052129786 -0.20460823 -0.08561153
0.24159631 -0.15096295 -0.13283354 0.080104955 -0.11514173 0.124867655 -0.24635534 -0.13436417
-0.07894143 0.028405063 -0.20786291 0.073323935 -0.106889986 -0.2324921 0.0992149 -0.039770253
-0.24098031 -0.23574272 0.22434974 0.06531478 -0.10330998 0.15645266 0.19054611 -0.14948872
0.04906159 0.2045543 -0.07978802 0.035157997 0.08820714 -0.092263885 0.08125643 -0.09630213
0.22429328 0.16871306 -0.21804495 0.08350703 0.119942755 0.22974305 0.068472266 -0.072574645
0.10430808 0.22019176 0.1800428 0.17919093 0.108096704 -0.056891933 -0.16168523 -0.1025617
-0.1277799 0.13158965 -0.14056687 -0.16984862 -0.0049853195 0.12258896 -0.089812644 0.010008096
0.07027244 0.21932548 -0.23027565 0.08603689 -0.12871467 0.03478685 0.07004001 0.0050651203
-0.23732193 0.0016042211 0.16340975 0.17575337 0.16726345 0.100003935 -0.16165799 0.1342068
-0.1535703 0.06786969 -0.050687447 0.015510625 0.048981372 0.100100085 0.014191787 -0.23164624
0.10346347 -0.023818165 -0.006795883 -0.14277065 -0.015093258 -0.05540603 -0.06761134 -0.044505283
-0.011549839 -0.16679978 -0.23958594 0.21375811 -0.0795138 0.017393144 -0.19996148 -0.020885408
-0.020847114 -0.17557874 -0.115788214 0.033494268 -0.0076695764 0.10614717 -0.19916493 -0.1048428
0.01953119 -0.11798313 -0.17822628 -0.0415154 -0.0155274505 0.07690757 -0.078515485 0.015952138
-0.052273218 -0.15260977 -0.12399027 -0.017729254 -0.13981266 0.20501205 0.010109082 -0.010619314
-0.11183058 -0.20480493 0.14647971 0.065784626 -0.2383548 0.1878138 0.22870706 0.044128712
0.13769144 -0.16292553 -0.07657732 -0.07633537 0.011200113 -0.02631334 -0.20542501 0.22281463
-0.05690789 -0.01215605 -0.24599682 0.042590275 -0.13536973 -0.19261733 0.13265878 -0.18800354
-0.1636545 0.08772168 0.18416291 -0.15234457 -0.094294995 0.14777088 -0.18294734 -0.08801058
0.026622137 0.22820114 0.04731656 -0.050717115 -0.22848745 0.15968154 0.011503737 0.030631546
0.002107117 0.2453816 -0.13658081 -0.23498006 -0.21481979 -0.0635395 -0.13292594 -0.25320193
0.17473866 0.091320194 0.087618634 0.054283425 -0.15555084 -0.111845694 0.12924623 0.113575086
-0.12600341 0.13557747 -0.14586084 0.23037401 0.1855662 0.008616387 -0.016023226 0.13802482
0.016117781 -0.13616653 -0.008287369 0.20291977 -0.017378362 0.11136362 -0.0364193 0.077019386
0.16700438 0.21204366 -0.13021486 -0.12571944 -0.012714643 0.0920303 -0.10128091 0.20530112
0.17660254 -0.012146202 0.18329968 -0.22586256 0.05903689 0.2504928 0.21391177 0.06459105
-0.11474175 0.2257519 0.08158849 0.10780571 -0.1484646 0.1421669 -0.12905926 -0.03485163
0.2065694 -0.18893427 -0.074695915 -0.13352828 0.21411914 0.2472809 0.18229286 0.0923877
-0.07528625 -0.013803989 -0.2531292 0.14552057 0.18435957 -0.11854912 0.22406128 0.24124931

arith.constant6 f4 [48, 32]
00000000: 8196 5abe c9d8 a33d a7fc fcbd 7f50 1a3e
00000010: a02e be3d 6719 e9bc 48bc 35be c2b4 03be
00000020: 9d7e f93d 023c 04be ede5 b53d ca52 21be
00000030: 3646 26be ef09 49be 09ab e53d 4128 ed3d
00000040: 0438 3e3e bb10 5dbe afd4 3b3e 483d ec3d
00000050: 72ee dcbd d924 63be 8276 4a3e 4b79 e9bd
00000060: 3933 b5bd 274c 1d3e 85a3 24bd ae2d 2abe
00000070: 0928 1a3e d62a 5ebe ac60 61be 1948 0e3e
00000080: 9ac4 3e3e a7aa 813d 85a0 103e f0b4 863e
00000090: bae5 7fbe 0c10 babd de95 23be eb01 6ebe
000000a0: b1a6 b4bd 10d7 0f3e bed1 f43d 94b6 a0bc
000000b0: d237 8a3d 2af9 643e 1580 ccbd 772f bebd
000000c0: c591 733e 5780 5abd 7acd 89bd 85c0 71be
000000d0: bc29 823e e636 f93d 8cae 743e 4b2d 6dbe
000000e0: 4ee8 dfbd c462 e3bd 298c 843e 3c36 0fbe
000000f0: 7d0a 76be b242 4f3e 9ecd a93d 51a4 25bd
00000100: 1b3a 543e 7766 563e 7abb 263d 3007 bd39
00000110: 799d 8f3e a949 61be b2cc 0c3e a2c9 32be
00000120: 261b e7bd 3630 3c3e dd2d ca3c 5836 803d
00000130: 02c8 1fbe e646 d0bb b23f e8bd 9f84 1dbe
00000140: 315f 613e 4b0b 533c a780 173e c171 e4bd
00000150: c217 8b3e 6a6c e13d b30e 4dbe 8444 7bbe
00000160: 0919 e83d 1037 6d3e 545b 06be 7d94 573d
00000170: 534a bb3d e73c 11be 54bb 71be 7035 f73c
00000180: 74ef 6dbe 01d6 4a3d 7120 21be ea55 133e
00000190: 197a 033d eee2 813e 4a24 b33d f7cd 24bc
000001a0: e030 ebbd 5a0d f5bd 3959 58bd 31d7 fb3c
000001b0: 5221 15be 6bc4 843e 8c09 5dbe e40a e03c
000001c0: 2914 32bd 3a37 06be 780c 073d 25b5 653e
000001d0: 7238 253e 7542 963d a928 4f3e 061e 033e
000001e0: 99f6 7c3e ba38 8a3b 0074 8d3e c321 0fbe
000001f0: 117b 6a3e 1234 bdbd 8b8b b1bc 2060 97bd
00000200: cf89 32bd 5698 c2bd 4027 19be fcff 3ebc
00000210: b1f1 8abe eeab 9dbd 5654 943d 9f0b 2c3b
00000220: ff10 ec3d 55ba 81be 48ca 703e 85ce b83d
00000230: 05c1 383e a336 823e 9ecb 713e dba1 b4bd
00000240: 2fd8 d33d 4fe1 7dbe b1c8 4e3e 7261 603d
00000250: 5086 0d3e 4d93 1cbe 2e8f 733e 1b89 09be
00000260: 1a29 e4bd 871b 593e dbb0 7bbe fb30 6f3d
00000270: 3360 3e3e b612 82be 11d4 673e 7568 553e
00000280: 8c91 103e a9fb 6ebe 07ea b93d 29e6 2e3e
00000290: 23a2 2a3e dac9 263e 7da3 09be 9f1f 13be
000002a0: 25a2 1a3e d6fe e5bd f2ac 7e3e 17bd c13d
000002b0: 66c0 823e 882f 88be 84fc 323e 4bd4 24be
000002c0: 7dc5 dbbd e396 273d 9d5e 043c 139c b73d
000002d0: 2f98 63be c569 583d f4fe 263e f601 483e
000002e0: 26d3 173e 10ef 063e 36b7 803e fe4f 10be
000002f0: d988 31be abd3 23bd f818 403e 1a44 833d
00000300: 56f0 a2bd 3cb2 35bb 9745 a43d 8573 943d
00000310: 14b1 cabd 7e1f 033e 701a 60be eaad 27bd
00000320: 6038 6ebe 9d2f 263e 175b a93d e611 36bd
00000330: 26f7 fe3c ac57 173e b359 bebc 93ea 03be
00000340: 28e1 973d 64f3 7c3e 615a 9abd d62f 43be
00000350: 3d7f 4cbe 823f 30bd fd69 3d3e 6cb4 d0bc
00000360: 1988 bdbc 4471 823e 54c9 a63d 68fe a0bd
00000370: b933 01be e83d f23d caf5 493a a24a 333d
00000380: 9fc6 c3bd 924d fa3d 78bd 98bd 3533 82be
00000390: b145 0fbe df50 99bd 3180 0f3e a458 82be
000003a0: 7d6a ffbd 9f39 80be 7b92 8b3e 1b7c 823d
000003b0: 16a2 e2bd ba31 a33d a0db 6e3e 2a71 303e
000003c0: aec2 ebbd ca0b 153e 3afa 97bd 2051 833d
000003d0: d870 37bc 4ce9 6b3c 21fb 6dbe e0ef 6a3e
000003e0: 165c 85bc 7a8e bcbc b7a1 173e e554 78bd
000003f0: 2d49 1ebe 2596 ebbc fbf9 753e 109a 54bd
-0.21346475 0.08000333 -0.12352877 0.1506977 0.09286237 -0.028454496 -0.17747605 -0.12861922
0.12182353 -0.12913516 0.088817455 -0.15754238 -0.16237721 -0.19632696 0.11214263 0.115799434
0.18576056 -0.21588413 0.18342851 0.11535126 -0.10787667 -0.22182025 0.1977177 -0.11400088
-0.088476606 0.15361081 -0.040195007 -0.16618988 0.15054335 -0.21696028 -0.22009534 0.1389469
0.18629685 0.063313775 0.14123733 0.2630992 -0.24989977 -0.09085092 -0.15975139 -0.23242919
-0.08820856 0.14046884 0.11954068 -0.01961831 0.06748928 0.22360674 -0.09985367 -0.09286397
0.23786075 -0.05334505 -0.06728645 -0.23608597 0.25422466 0.12168674 0.2389471 -0.23161809
-0.109329805 -0.111028224 0.25888184 -0.13985533 -0.24027438 0.20240286 0.082911715 -0.040439907
0.2072529 0.20937525 0.040706135 0.00036054244 0.2804983 -0.22000755 0.1374996 -0.1745973
-0.11284475 0.18377766 0.024680072 0.06260365 -0.1560364 -0.006356108 -0.11340274 -0.15382622
0.22008969 0.01288111 0.1479517 -0.11154509 0.27166563 0.110070065 -0.20025139 -0.24537855
0.113329 0.23165536 -0.13120776 0.052631844 0.091450356 -0.14183389 -0.23606616 0.030176848
-0.23235875 0.049520496 -0.15735032 0.14388242 0.032098863 0.25368446 0.08747156 -0.0100588715
-0.114839315 -0.11965437 -0.052819464 0.03074226 -0.14563492 0.25931105 -0.21585673 0.027348943
-0.043476257 -0.13107005 0.032970876 0.22432382 0.16134813 0.073368944 0.20230354 0.12804422
0.24703445 0.004218188 0.27627563 -0.13977723 0.22898509 -0.09238447 -0.021672985 -0.07391381
-0.043588456 -0.09501712 -0.14956379 -0.011657711 -0.2713752 -0.076988086 0.07242648 0.0026252044
0.11526679 -0.25337473 0.23514664 0.090237655 0.18042381 0.2543231 0.2361283 -0.08819934
0.10343968 -0.2479298 0.20193745 0.05478043 0.13820767 -0.15290566 0.23785087 -0.13431208
-0.11140652 0.21201907 -0.24579184 0.05839632 0.18591385 -0.254049 0.2263949 0.20840628
0.14118022 -0.23338188 0.0907784 0.17079987 0.16663413 0.16287938 -0.13441272 -0.14367531
0.15100916 -0.11230247 0.24870661 0.09459894 0.25537413 -0.26598763 0.1747914 -0.16096608
-0.10731027 0.04091538 0.008079198 0.08965316 -0.22226022 0.052835245 0.16308194 0.19531998
0.1482664 0.13177133 0.2513978 -0.14093015 -0.1733736 -0.039996784 0.18759525 0.06409474
-0.07955997 -0.0027724644 0.08021086 0.07248596 -0.09897056 0.12804982 -0.21885085 -0.04093734
-0.23263693 0.162291 0.08269327 -0.044450663 0.031123709 0.14779538 -0.023236131 -0.12882452
0.07415992 0.24702221 -0.0753677 -0.19061217 -0.19970413 -0.043029316 0.18497463 -0.025476657
-0.023136185 0.2547704 0.08143869 -0.07861024 -0.12617387 0.11828214 0.0007704167 0.043772347
-0.09559368 0.122218266 -0.07458013 -0.25429693 -0.13991429 -0.07486128 0.14013745 -0.25458252
-0.12471483 -0.2504396 0.27260193 0.063713275 -0.11066072 0.07968469 0.23325968 0.17230669
-0.115117416 0.14555278 -0.07420774 0.06411958 -0.011196338 0.014398884 -0.2324033 0.22943068
-0.016279262 -0.023017157 0.14807783 -0.060627837 -0.15457602 -0.028758118 0.24021141 -0.051904738

arith.constant7 f4 [32, 720]
00000000: 53e8 443d 6877 a3bd e76e 57bd 0b04 813d
00000010: ab60 5a3c 01b8 52bd 3b51 00bc f1e3 e2bd
00000020: 80f7 933d ff01 9b3d 0d77 81bd 9ee0 763d
00000030: c56e 4d3d dc06 993c 050c 9dbb 19da 973d
00000040: 17d7 42bb a431 0a3d 0e3c 86bc 2ba2 063d
00000050: 7c11 7b3d c5c6 46bd 81b0 48bd 09bc c63c
00000060: bb57 74bc f62e f0bc 8e26 c2bc ddda 013d
00000070: ad04 173d 1231 60bd d76f 07bd 6ce9 dabd
00000080: 2179 183d 61f3 c1bc c11f 0abd c031 6c3d
00000090: 2e5b 063b bf0e c5bd a213 9cbd 6863 6ebd
000000a0: 1266 b13c 471f a4bd 53bd aa3d 6913 12bd
000000b0: 284e 9b3d bee3 b9bc b37c 5c3d 124a 33bd
000000c0: 6f7c 06bd 06e0 c4bc 3ffa 5d3d f8af a1bd
000000d0: 1973 843d 28ba 353d 337e 283d 55f8 d03c
000000e0: 7852 96bc 530d 713d 07aa 75bd 4f7d 96bc
000000f0: 5e06 d33d c0d2 44bd bf6e a5bd 018b ccbc
00000100: b32b bc3c 3a50 ffbc b553 79ba 8603 debc
00000110: 850c 62bd 6609 d4bc 1870 803d fe57 aebc
00000120: 1e29 993c 0704 2c3d 4ba0 16bd d388 dd3c
00000130: cfbe 7abd 06cb af3d b371 bfba 5ffe dabc
00000140: ead0 1b3d e904 143d 8033 01ba 8d5f 3ebd
00000150: 3499 433d f847 14bd 342c 503d 4e56 3c3c
00000160: 628c a2bd b67f adbb abc0 a63d e943 aebc
00000170: 35b3 edbc 2e9d 00bd 1acf 9fbb ea18 fdbc
00000180: 4664 9e3d 0937 e6bd 4636 533d f786 813c
00000190: 76e7 a9bc 7058 df3c 4233 c63d 5f44 19bd
000001a0: afe0 69bd c275 0639 51e3 9abd 4318 65bd
000001b0: c430 94bc 960f fbbd d03c fbbc a5f8 5e3d
000001c0: e675 423d 5cde 983d a326 ef3d b316 57bd
000001d0: 73c2 463d f9ce 8cbd ee54 aa3d 5987 483d
000001e0: c584 da3d ec7b 4d3a 0ecf a5bc f04d 4eba
000001f0: e665 48bc 1664 d5bc 131f a13d 316d 193d
00000200: 2f00 80bd 8f74 4abc baed 71bd f1f4 c0bd
00000210: 3ae7 bd3d 0369 80bd 346a 82bd 8ae6 2c3d
00000220: 6b8a c0bb 122f 5e3c f4e2 f5bc 3920 e5bd
00000230: 641c af3d e004 84bd 6a70 84bd 6908 78bd
00000240: 9c21 6a3d 40be 98bd 18ae 7ebd e16a cb3c
00000250: 1ee5 bcbd 1390 94bd d2af 5ebc 407d 84bc
00000260: 5361 c53c 33c3 0dbd 478f e6bc 8569 48bc
00000270: 7a44 7bbb 2feb 8dbd 518a e9bc f6ec 19bd
00000280: 795a 9dbd 8d8f 1c3c 2612 953d 0b1e 8abd
00000290: 67f9 d2bc 7b67 083c eba4 84bd dac8 093d
000002a0: 27dd 48bd 55b1 0c3d 1c7f 91bb a0ad be3d
000002b0: de67 be3d 95bf 5cbd 41f9 5bbc 3279 16bd
000002c0: 5edb 4fbd 023c 7bbd 90ee 69bd 0b76 19bd
000002d0: c0d5 cc3d bdf6 5cbb 051c a33d fde5 423d
000002e0: f510 b73c d14b 7dbb 70e5 0f3d 3cf5 89bd
000002f0: b338 c03c b099 d53c 8521 d93b 3444 a1bd
00000300: 8fe2 bb3d 3ec0 09bc 6704 4fbd dcdf a03d
00000310: 0725 8e3b 94f1 bcba 5af9 8f3b a0ea 86bd
00000320: d89c ad3d 4d9e dcbc f8ec 993d 3963 b73d
00000330: f37b f93d 1987 6a3a a17d 8cbd 56f1 1c3d
00000340: 217b 223d 7e71 373d 9851 f7bc 594a d63c
00000350: 28a9 48bc a989 d3bc af21 a1bd 37b9 aa3c
00000360: 5f52 39bd 7740 563d 2645 04ba f3da 2ebd
00000370: 7d18 b1bc 21ed a83c 5ad7 cfbb 4492 56bd
00000380: 3a45 b13d 8956 d43c 3814 46bd 6c90 88bd
00000390: 0cad d23d 2990 a8bc b5fb 84bb 27d3 debc
000003a0: 100b 2cbd e392 abbd 35b7 bebc 43ea 833d
000003b0: 9674 a13c 5f16 28bd 187a 22bd f806 513b
000003c0: 4f0a d3bc 388f 083d 8137 bf3d 7322 9c3d
000003d0: 27a6 b73d ef8b 3abc 48db 8d3d e221 d7bc
000003e0: 727c 97bd 711d a8bc 4bda 55bd 67d0 403d
000003f0: 5128 923d 71a8 31bd d545 9ebd 5b1a b83d
0.048073124 -0.07981759 -0.052596 0.06299599 0.0133287115 -0.05144501 -0.007831867 -0.110786326
0.07224941 0.0756874 -0.06321535 0.060272805 0.050154466 0.018680029 -0.0047926926 0.07414646
-0.0029730254 0.033738747 -0.016386058 0.0328695 0.06129597 -0.048529405 -0.048996452 0.024259584
-0.014913495 -0.029319268 -0.023700025 0.031702865 0.036869694 -0.054734297 -0.033065643 -0.10689053
0.037224893 -0.023675622 -0.03372169 0.057664633 0.0020501125 -0.09621953 -0.07620932 -0.05820027
0.021655116 -0.08013778 0.08336892 -0.035663042 0.075832665 -0.022691604 0.05382986 -0.04377181
-0.032833513 -0.024032604 0.05419373 -0.078948915 0.06467266 0.044366986 0.041135978 0.025509039
-0.018349871 0.058850598 -0.059976604 -0.018370299 0.10303949 -0.04805255 -0.08077764 -0.024968626
0.022970056 -0.031166185 -0.00095110695 -0.02710129 -0.05518772 -0.025883388 0.0627138 -0.021282192
0.018696364 0.04199603 -0.03677396 0.027042782 -0.061217126 0.085836455 -0.0014606029 -0.026732622
0.038041033 0.036137495 -0.00049286336 -0.046477843 0.047753528 -0.036201447 0.050823405 0.011495186
-0.07936932 -0.0052947653 0.08142217 -0.021272616 -0.029016117 -0.0313999 -0.0048769834 -0.030895669
0.077339694 -0.11240966 0.05156543 0.015811427 -0.020740252 0.02726385 0.096777454 -0.03741872
-0.05709904 0.00012823104 -0.075628884 -0.05593134 -0.01808966 -0.12258832 -0.030668646 0.054436345
0.047475718 0.07464287 0.11677291 -0.052511882 0.048525285 -0.068754144 0.0831698 0.048957203
0.10669855 0.0007838595 -0.020240333 -0.000786989 -0.012231326 -0.026048701 0.07867255 0.03745765
-0.06250035 -0.012356891 -0.059064604 -0.09421719 0.092726186 -0.062700294 -0.06367913 0.042212047
-0.0058758757 0.013561027 -0.030015446 -0.111877866 0.08550337 -0.06446242 -0.06466754 -0.060554896
0.05716096 -0.07458162 -0.062177747 0.024831237 -0.09223388 -0.072540425 -0.0135917235 -0.016173005
0.02409426 -0.034609985 -0.028144492 -0.012232189 -0.0038340376 -0.06929623 -0.028508337 -0.0375795
-0.07683272 0.00955571 0.07278852 -0.067440115 -0.02575369 0.008325453 -0.06476768 0.033638813
-0.049039032 0.034348805 -0.0044402014 0.0931046 0.09297155 -0.053893644 -0.013426126 -0.036736675
-0.050746314 -0.061336525 -0.057112277 -0.03746609 0.10001707 -0.0033716403 0.07964329 0.047582615
0.022346953 -0.0038649926 0.035130918 -0.06736228 0.023464536 0.02607426 0.0066263103 -0.07874337
0.09174072 -0.0084076505 -0.050541308 0.07855198 0.00433791 -0.0014415258 0.0043937387 -0.0658772
0.08477181 -0.026930952 0.07515901 0.08954472 0.121818446 0.0008946523 -0.06859899 0.038316093
0.039668206 0.04478597 -0.030190274 0.026158499 -0.012247361 -0.025822477 -0.07867753 0.02084027
-0.04524457 0.052307572 -0.00050457043 -0.042689275 -0.021618122 0.020620884 -0.0063428106 -0.052385584
0.08655782 0.02592017 -0.048359126 -0.06668171 0.10286912 -0.020576553 -0.004058326 -0.027200295
-0.042002738 -0.08377626 -0.02328072 0.06441166 0.019708913 -0.04103696 -0.03966722 0.0031895023
-0.025761751 0.03333971 0.093367584 0.07623758 0.08967238 -0.011385902 0.0692659 -0.026261274
-0.07396783 -0.020521851 -0.052210134 0.047073748 0.07136596 -0.04337353 -0.07728163 0.08989402

arith.constant8 f4 [3]
00000000: 5209 aa3d c935 86bd 0a35 57bd
0.08302559 -0.065532275 -0.052540816

arith.constant9 f4 [32]
00000000: 2c6a 4dbd 162a 8cbd a189 d33d b1ac 9cbd
00000010: fd1a 19bc b3d7 9f3d 4ab9 42bd ea22 19bd
00000020: c5d4 7ebc c883 183d f8c7 ca3d 7c3a 61bd
00000030: bb5e cfbb 81e7 3ebd 80b8 2c3d 1811 53bd
00000040: 53e0 bc3d 46e4 eebb acc6 68bd 4db6 c43b
00000050: 7f4a 8dbd fade fe3c 284a 1cbd fa10 dd3d
00000060: 5218 7ebd 048d c13d 1053 31bd 2320 61bd
00000070: 9d79 a73d 9986 bc3d 25e4 9f3d 428f d1bb
-0.05015008 -0.06843965 0.10328985 -0.07650126 -0.009344813 0.07804813 -0.047539987 -0.037386812
-0.015553658 0.03723505 0.09901422 -0.054987416 -0.0063284314 -0.046607498 0.04216814 -0.051529974
0.09222474 -0.007290396 -0.056830093 0.0060031773 -0.068989746 0.031112183 -0.03815666 0.10794254
-0.062034912 0.09450725 -0.043292105 -0.05496229 0.08177493 0.0920536 0.07807187 -0.0063952515

arith.constant10 f4 [48]
00000000: 9786 67bc 54cb f6bc 87ee 45bd 1fce 693d
00000010: 736f d33b dad0 c83d afee 78bc 81e2 d53d
00000020: 44c9 a43d e91f d1bc aeb1 41bd d015 63bd
00000030: 1232 37bd 236e 2e3d 7883 9a3d 102b 84bc
00000040: 127a a6bd 5d9c ab3d b138 5c3d 2be9 bb3d
00000050: 6efc 4cbc 2ff0 d53d 8c42 853c a17e af3d
00000060: ea95 3dbd a7bd 073e 5aff 893d 3e27 dd3d
00000070: 7c4d 853d ba31 dd3c 58be d2bd 88f9 2f3c
00000080: a230 46bd 2ee3 373c 1b55 4bbd e8b5 36bd
00000090: d68a 25bd 466e 9abd 829b 3a3d fab0 a03d
000000a0: 28e9 5e3d c22b cbbd 49b7 a43c 28e6 1fbc
000000b0: f3a7 64bd d539 ecbc 017f c93d 432f 4f3d
-0.01413121 -0.030126251 -0.04832318 0.057081338 0.0064524948 0.0980546 -0.015193625 0.10443593
0.08046201 -0.025527911 -0.04728859 -0.055440724 -0.044725485 0.042585503 0.07544607 -0.016133815
-0.08128752 0.08379433 0.053765003 0.09175333 -0.012511356 0.10446202 0.016267084 0.085690744
-0.046285547 0.1325594 0.067381576 0.107985005 0.065089196 0.02700125 -0.102902114 0.010740645
-0.048386224 0.011223597 -0.04964171 -0.044607073 -0.040415607 -0.07540564 0.04555846 0.078462556
0.054421574 -0.099204555 0.020106928 -0.009759463 -0.05582423 -0.02883617 0.09838677 0.05058218

arith.constant11 f4 [48]
00000000: 3f9d ba3d 6356 5b3d 16b7 b73d 9836 0b3d
00000010: ddf3 5fbc d586 ab3d 0000 0000 1961 373d
00000020: 3146 843d b924 2e3d fd12 c1bd b4cd 3dbd
00000030: fdb1 923d 46db 29bd 3cdf 023e 379d b13d
00000040: a3ba c03d dd36 9abd c599 a6bc f793 a1bb
00000050: 5a5a a13b c5e2 c53d c418 283c 27eb 2abc
00000060: c975 883d a90f 833d 948d 1a3c 23ce e23d
00000070: 2428 bf3d 83bf 8239 06fc 92bd 9cf9 65bd
00000080: 5e09 5dbd 4021 70bc 698e aabb b159 9fbd
00000090: 9875 62bc 9a47 2ebc 9dc5 103c 19b3 e13d
000000a0: 8385 67bd f672 ab3d 6381 30bd 6806 d03d
000000b0: 253e 72bc c707 c3bd 5661 cb3d 92dd ce3d
0.091120236 0.05354918 0.08970468 0.03398761 -0.013668981 0.083753265 0.0 0.044770334
0.064587004 0.04251549 -0.0942745 -0.046338752 0.07162855 -0.04146888 0.1278047 0.086725645
0.09410598 -0.075299956 -0.020336995 -0.004930969 0.004924101 0.096623935 0.010259811 -0.010432041
0.06663091 0.06399471 0.009433169 0.11074474 0.09333828 0.0002493822 -0.07176976 -0.05614625
-0.05396401 -0.014656365 -0.005204965 -0.07780779 -0.013821982 -0.010637188 0.008836177 0.11020488
-0.05652381 0.083715364 -0.043092143 0.10157472 -0.014785324 -0.09522968 0.09930675 0.10100855
