model/model.tflite (tflite, 127612 bytes, 12 tensors)

arith.constant f4 [3, 32]
000000 d0 b1 3d be ec a5 14 be bb 43 82 be e1 17 7e be
       -0.18524861 -0.14516419 -0.254423 -0.24813797
000010 ea c3 50 3e 66 cb 95 3e 1f fc aa 3e 6c a6 63 3e
       0.20387235 0.29256743 0.33395478 0.22231454
000020 0f 82 d2 be 0a 0c a7 3d 1a 20 ba 3d 49 c0 8a 3d
       -0.41114852 0.08156593 0.09088154 0.06774957
000030 e3 f5 e8 bc 03 46 13 be b7 34 25 be f8 b1 b8 be
       -0.02843756 -0.14382176 -0.1613339 -0.3607328
000040 cf 09 96 be 35 61 2e be 85 66 2d bd 84 ab 47 be
       -0.29304358 -0.17029269 -0.0423341 -0.19499022
000050 d5 8a ad 3d 78 99 23 3e 23 c9 a6 be 4c c3 4a 3d
       0.08473746 0.15976512 -0.3257533 0.049502656
000060 fe d1 8a be 8d 1c 93 3e 80 fc be 3e 2d b6 b0 3e
       -0.27113336 0.2873272 0.37302017 0.3451399
000070 bf a7 05 bd ed ee c3 3c 92 bd 81 be 8b eb 93 be
       -0.03263068 0.02391764 -0.25339943 -0.28890643
000080 78 28 af 3e 75 07 ae be b5 95 83 be ca 5b d3 3e
       0.34210563 -0.33990064 -0.25700155 0.41280967
000090 ad 09 82 3c de 40 be 3e df 97 99 be 34 a5 b4 be
       0.015873754 0.37158865 -0.2999868 -0.3528229
0000a0 50 9c 5b be 3a 9a 1a 3e d2 dc 42 3e fc 06 bb be
       -0.21446347 0.15097895 0.19029549 -0.36528766
0000b0 b5 3f b4 3e 80 9d 3a 3e c4 f7 12 bd 7f 42 c1 3e
       0.35204855 0.18224144 -0.03588082 0.37746045
0000c0 3b 48 8a 3e 44 cd 40 be 63 57 1e be fa c7 2f be
       0.27008232 -0.18828303 -0.15463023 -0.17166129
0000d0 6a f5 cc be d6 a5 e9 bd e1 cb 94 bd aa 92 92 bb
       -0.40030986 -0.11408584 -0.07265449 -0.00447305
0000e0 50 6e cb bd 61 25 33 be a6 67 8e bd 63 2c 30 be
       -0.0993315 -0.17494728 -0.06953363 -0.17204432
0000f0 a4 f6 2d be bd 50 84 be fd 37 ce 3e cb 69 a2 bd
       -0.16988617 -0.25842848 0.4027709 -0.07930335
000100 a7 36 b4 3e 53 38 cc 3e 9b f1 bf bc c7 e8 75 3e
       0.35197946 0.39886722 -0.023430636 0.24014579
000110 e4 d9 7b 3e 1f dd b5 3e 31 58 a4 be 3c 78 a7 bd
       0.24594837 0.35520265 -0.32098535 -0.0817723
000120 72 01 8b be 13 e7 c3 3e ea 97 b9 be 0b 16 89 3d
       -0.2714954 0.38262233 -0.36248714 0.066936575
000130 23 22 01 3e 75 ee 01 3d 08 e7 91 3d ac 4f 1d 3e
       0.12610678 0.03172155 0.07124144 0.15362424
000140 5d 72 87 be 2e 57 85 3d c9 96 cc be 8f 7f 4c 3c
       -0.2645444 0.06510769 -0.3995879 0.012481584
000150 bb 46 8b be 25 0d 9e 3e 13 41 6b bd 7f 87 9a be
       -0.272024 0.30869403 -0.057435106 -0.301815
000160 e1 fd a6 3e 9d 8f 97 3e 0a cc b9 3d a4 95 4c be
       0.3261557 0.29601756 0.090721205 -0.19978958
000170 26 15 a4 be 28 7f e2 bd 2d 06 c6 3e f7 17 82 3b
       -0.32047385 -0.110594094 0.38676587 0.003970142

arith.constant1 f4 [32, 48]
000000 2d fb 72 3e 13 d5 43 3e 53 a7 87 be a9 36 74 3d
       0.23728628 0.1912425 -0.26494846 0.05962244
000010 d7 09 1d be 20 53 1e 3e 7e 56 1f be 62 28 5d 3e
       -0.15335785 0.15461397 -0.15560338 0.21597436
000020 49 38 9b be 83 60 65 3e 90 0a 87 3e 99 1f 31 be
       -0.3031638 0.22400098 0.26375246 -0.1729721
000030 48 f6 f3 3c 5c f2 97 3b 09 e1 81 3e 40 bd d6 3d
       0.029780522 0.004637046 0.25367 0.10485315
000040 9e 79 a3 bd ba ad 0a 3e 11 a1 61 be 76 8a 7b 3e
       -0.07982181 0.13542834 -0.22034098 0.24564537
000050 c0 6e 11 bd 05 38 61 3e 10 d9 a3 3d a7 b1 5a be
       -0.03550601 0.21994026 0.08000386 -0.21356831
000060 89 7e 1c be 98 61 9e bd 39 5d 61 bd af c6 52 3e
       -0.15282644 -0.07733458 -0.055020545 0.20583604
000070 ee 9c 54 be e9 74 63 bc 1c 85 81 3e a1 c3 a2 3d
       -0.20762989 -0.013882854 0.25296867 0.079474695
000080 74 29 80 3d 37 9e c0 3d 75 38 34 be 28 e0 6f bd
       0.062579066 0.09405177 -0.17599662 -0.05856338
000090 c3 77 58 bc 0e 2d e9 3d 08 e0 14 3e 30 c5 05 bd
       -0.013212147 0.113855466 0.14538586 -0.032658756
0000a0 72 a0 72 bd fd 48 34 3e ac cd 66 be 29 68 11 be
       -0.059235044 0.17605968 -0.22539395 -0.1419989
0000b0 87 ab 3a be 5c 2c c9 bd ce 79 27 be f3 f8 ce 3c
       -0.18229495 -0.09822914 -0.16355059 0.025265193
0000c0 19 da 84 3e 49 dc 37 be 70 b1 33 3e 28 f3 92 bd
       0.25947645 -0.17955126 0.17548156 -0.071752846
0000d0 88 92 cc bc 9e 16 93 bd 83 07 17 bd 41 59 40 3d
       -0.024972215 -0.07182048 -0.036872398 0.04696012
0000e0 01 c6 5a 3e b7 14 89 be 57 7f b4 bc fe ff 2e be
       0.21364595 -0.26773617 -0.022033377 -0.17089841
0000f0 65 7c 02 3e 6b 48 53 be 83 68 01 3e 02 56 43 bb
       0.12742765 -0.20633094 0.12637524 -0.0029805903
000100 d3 1c 6d 3e 60 2d 80 3e a5 18 49 bd 31 1e 42 3e
       0.23155527 0.25034618 -0.04909577 0.1895683
000110 99 6a 50 be 95 00 2b 3e 81 0c 03 3e bf 1a 84 be
       -0.20353164 0.16699441 0.12797739 -0.25801656
000120 a7 af 54 3e bd 48 3b bd 77 11 be bd 53 35 80 3e
       0.20770131 -0.045723666 -0.09280675 0.25040683
000130 0d 59 61 3e 0b cb c3 3d 15 32 12 be 68 cb 6d bd
       0.22006626 0.09560212 -0.14276917 -0.05805531
000140 62 22 97 bd ca fc 09 be 7d 1c 84 3e c6 6d 2c 3e
       -0.07379605 -0.13475338 0.25802985 0.1683875
000150 89 cf 8c be 7a 5c 34 be 0c cb 24 3e 60 8b 52 be
       -0.27502087 -0.17613402 0.16093081 -0.2056098
000160 bf 31 b9 bc fc 1a b2 bd 73 44 ce bc ad 41 ec bd
       -0.022606729 -0.08696553 -0.025179124 -0.11535964
000170 09 db 1e bb 70 4a e1 3d 6a 41 78 be 26 a8 80 be
       -0.0024239442 0.11000526 -0.24243703 -0.25128287
000180 38 10 86 3c 4b 48 6d be 60 28 21 3c f0 63 3f 3d
       0.016365156 -0.23172109 0.009836286 0.046726167
000190 17 d8 da 3d ec a3 37 3e 1e 18 26 be 09 9b 4f be
       0.10685747 0.17933625 -0.16220137 -0.20273985
0001a0 9f 0f 6a bd 69 83 00 3e 16 d6 20 bc 2f 1b 9e 3d
       -0.057143804 0.12550129 -0.009816667 0.077200286
0001b0 56 23 ed 3d 69 ed ad bd 02 29 2b 3d d2 ad 51 3e
       0.115790054 -0.08492548 0.041787155 0.20476463
0001c0 16 ab 56 be be cc 76 3e 92 af 80 be 85 79 54 be
       -0.20963702 0.2410154 -0.2513395 -0.20749481
0001d0 d4 a6 03 be c9 67 64 3e 0e 38 cf bd 56 9c 74 be
       -0.12856609 0.22305216 -0.101181135 -0.23887762
0001e0 ae ea 9a 3d 61 b9 ca 3d b4 66 e4 3d 42 07 40 3e
       0.07564293 0.098986395 0.111524016 0.18752769
0001f0 6d f3 d5 bc 1a 21 37 bd ef 8e 36 3e fa bd 83 be
       -0.026117051 -0.044709302 0.17827962 -0.25730878
000200 00 0f d8 bd ce 9c 4a be 85 e8 03 3e 4f e7 81 bd
       -0.10549736 -0.19786379 0.12881668 -0.06342947
000210 00 ad 92 bd 7e 11 1b 3e ee e5 eb bd f6 d3 7e 3d
       -0.071619034 0.15143391 -0.11518465 0.06221386
000220 b7 87 d4 bd 5e 1d 99 be b3 ac 4a 3d 3c ce 2d bd
       -0.10377448 -0.29905218 0.049481105 -0.04243301
000230 24 d6 76 3d e3 d9 57 3e 04 66 6e be ff 11 2a be
       0.060262814 0.21079211 -0.23281103 -0.16608427
000240 78 db bd bd 9c d5 26 be 20 65 7b bd ae 7d 88 be
       -0.09270376 -0.16292423 -0.061375737 -0.26658386
000250 aa ed d0 3d c5 6f 20 be a4 56 3c bc 52 4a 32 3e
       0.10201581 -0.15667637 -0.011495266 0.17411163
000260 89 d8 5c bd 4d bb 13 bd 30 db 6e 3e ef 07 28 be
       -0.05391744 -0.036067296 0.23325801 -0.16409276
000270 81 10 01 be e5 ab ff 3d b6 de f7 bd 00 3a 4f 3e
       -0.12603952 0.12483958 -0.121030256 0.20236969
000280 b9 1d fb bd f3 0f 0a bd 57 98 67 3e 33 25 cb 3d
       -0.122615285 -0.033706617 0.22616707 0.099192046
000290 5f f2 2a be 56 9b 8c 3e b1 a0 6e 3d 40 a5 5c bc
       -0.1669402 0.27462262 0.058258716 -0.013467133
0002a0 cb 3f 18 3e ea 43 47 be bb d2 4b 3d 23 ac 84 3d
       0.14868085 -0.19459501 0.049761515 0.06478145
0002b0 43 db 7a 3d af 62 51 3e 25 f4 00 be a7 3e 8e bc
       0.06124426 0.20447801 -0.12593134 -0.01736386
0002c0 7c fd 2a 3e f5 c4 91 bc bd e2 82 bd da a7 ba 3d
       0.16698259 -0.017794112 -0.06390903 0.091140464
0002d0 cf c5 da bd 80 35 63 be 92 83 23 be 96 32 8f be
       -0.1068226 -0.22188377 -0.15968159 -0.27968282
0002e0 6b 3f 24 3e fd 1a 4e 3e c6 35 9b 3d 09 8b 87 3e
       0.16039817 0.20127483 0.07578616 0.26473263
0002f0 23 3a 4f 3e 0e 2e 26 3e cf ce 50 3e a7 7a 89 3e
       0.20237021 0.16228506 0.20391391 0.2685139
000300 8b d7 89 3e a8 ec 31 bd 88 b1 6d be 33 90 66 3e
       0.2692226 -0.043438584 -0.23212254 0.22515945
000310 f6 c8 07 be a1 2b d7 bd 17 25 47 be 0a 68 90 be
       -0.13260254 -0.105063684 -0.19447742 -0.28204376
000320 f3 09 9a bd a2 1b 69 3e 01 c6 2e be a9 2b 7b bd
       -0.07521429 0.22764447 -0.1706772 -0.061320934
000330 4a fd 7b 3e 2a 1b 2d 3e 18 b5 95 3d 2e bd 75 3e
       0.24608341 0.16904894 0.073099315 0.23997948
000340 c9 6c 68 3e 54 a7 16 3d b5 78 2e be 6b e5 87 bd
       0.22697748 0.03678067 -0.17038234 -0.06635555
000350 66 c4 4d be f3 f2 87 be 72 27 87 3e c0 d6 0d 3c
       -0.20094451 -0.26552543 0.26397282 0.008657157
000360 a9 f5 81 be 79 87 62 bd 50 3e ff 3c 79 f3 08 bd
       -0.25382736 -0.055304978 0.031157643 -0.03343532
000370 71 1d 3b be 8b 3b f9 3c 8d 4b 3b 3e 29 2b 38 3d
       -0.1827295 0.0304239 0.18290539 0.044963036
000380 d9 e6 bd bd 59 2d fe 3c fa de 59 be e2 2b 4a 3e
       -0.09272546 0.031027483 -0.21276465 0.19743302
000390 d3 0e 1d 3d 57 e0 13 bd 49 dc 84 3e 4b d7 c6 bd
       0.038344216 -0.03610262 0.25949314 -0.097090326
0003a0 eb 5f 69 be 7c 9c 61 be 8b 16 6c 3e 07 c6 4f be
       -0.22790496 -0.2203235 0.23055474 -0.20290385
0003b0 41 b7 4c 3e f6 bd 3f 3e 55 ab e4 3d 21 9a 3c 3e
       0.19991781 0.18724808 0.111654915 0.1841817
0003c0 48 81 03 3e 26 b4 0d 3e 34 2e 44 3e b9 0b f4 bd
       0.12842286 0.13838252 0.1915825 -0.119162984
0003d0 f3 29 7a 3e 05 60 1a bd 8e 06 1d be 16 72 31 3e
       0.24430065 -0.037689228 -0.15334532 0.17328677
0003e0 17 f1 74 bd 8e f4 14 3b 71 65 e9 3d b8 af 3d 3e
       -0.059800234 0.0022728774 0.113963015 0.18524063
0003f0 18 67 f0 3d b2 2b 2e 3d 5e 2e 45 be 34 ba 64 3e
       0.117384136 0.04252214 -0.19255969 0.22336656

arith.constant2 f4 [48, 48]
000000 0c f2 db bd 16 71 31 be 2e b9 ac bd 8d 88 4d be
       -0.10739526 -0.17328295 -0.08433758 -0.20071621
000010 ae 05 a7 3d 97 b4 33 be 3a 9b 81 3d c8 db ae bd
       0.0815538 -0.17549358 0.06328435 -0.08538014
000020 db 90 00 bd 94 bb 83 ba ea 8e 88 3e 66 65 61 bc
       -0.031388145 -0.001005041 0.26671535 -0.013757085
000030 bf e2 58 3e a3 1e ec 3b 99 4b 5c bc 58 91 3f 3e
       0.21180247 0.0072058006 -0.013445758 0.18707788
000040 81 be 81 3c c2 38 82 bb 99 27 a2 3d fc d6 1b be
       0.01583791 -0.003974051 0.07917709 -0.15218729
000050 32 e6 a0 bd e9 57 3f be 90 a0 ea 3b d7 a5 55 be
       -0.07856406 -0.18685879 0.007160254 -0.20864044
000060 36 f2 04 be 7b b6 44 bd 92 2e 47 3e 60 41 78 3e
       -0.12983021 -0.04802559 0.19451359 0.24243689
000070 1c e9 ca 3d d0 22 89 3d 28 b3 3f 3e 41 c7 bc 3d
       0.09907743 0.06696093 0.18720686 0.09217692
000080 38 43 c3 bd 71 40 4e bd e8 8e 80 3e c9 25 8a 3e
       -0.09534305 -0.050354425 0.2510903 0.26981953
000090 af cd c4 3d 2f 41 a8 3b fc d9 47 3e 18 8c 4c be
       0.096095435 0.0051347236 0.19516748 -0.19975317
0000a0 17 43 18 3e d5 0b b9 3c 27 cc 71 3d 24 b2 9d 3d
       0.14869343 0.02258865 0.059032585 0.07699993
0000b0 d7 ef 41 be 24 ae 73 3d 28 b9 7b be af 4e 49 bb
       -0.18939148 0.059492245 -0.2458235 -0.0030717065
0000c0 03 36 c3 3c aa c9 f9 3d 46 4d 46 3e 0e 1a 27 3c
       0.023829466 0.121966675 0.19365415 0.010199083
0000d0 be 3f 23 3d c2 1a 6a be f2 2a 68 bc 2c ff 26 be
       0.03985571 -0.2286177 -0.014170395 -0.16308278
0000e0 1b 1d 9a 3d b1 3b 1c 3e 65 8c 2d be 9a c1 23 3d
       0.07525083 0.15257145 -0.16948088 0.039979555
0000f0 97 05 15 3e 20 8a 5e bd 68 a0 54 be 6c a0 50 3e
       0.14552914 -0.054330945 -0.20764315 0.20373696
000100 28 d6 ea 3c 75 53 32 3e 98 17 07 3d ec 0e c7 3b
       0.02866657 0.17414649 0.032981485 0.006074777
000110 2a e4 7c be c2 cf 3c 3e d7 2e 9f 3c d5 58 3d bc
       -0.24696413 0.18438628 0.019431515 -0.011556824
000120 61 ec 4c be 50 bf 05 3e c7 48 1c be e2 75 bc 3d
       -0.20012046 0.13061261 -0.15262137 0.09202172
000130 32 64 52 3e 09 b3 65 be c1 6d 78 3e e9 ff c9 bd
       0.20546034 -0.22431578 0.24260618 -0.09863264
000140 4a 94 98 bd 04 5f ea 3d 1a 80 5e be 1a fd 4c bd
       -0.07450159 0.11443904 -0.21728554 -0.050046064
000150 87 43 6b be 07 6c 91 bb 81 01 80 3e 61 3c 93 3d
       -0.22974978 -0.0044379267 0.25001147 0.07189251
000160 49 3f a9 3d fe 67 fc bd 10 db 33 3e 2d c8 eb 3d
       0.08264024 -0.123245224 0.17564034 0.1151279
000170 76 8b 15 bd cd 11 20 be 5e 0e 3e be d2 ad 4a 3e
       -0.036509953 -0.1563179 -0.18560168 0.1979287
000180 8c 63 14 be 00 90 1b bd f0 23 64 3d 20 6b 97 3d
       -0.14491099 -0.037979126 0.055698335 0.07393479
000190 f0 9c bd bd e8 91 47 be f8 10 04 be 80 46 14 bc
       -0.09258449 -0.19489253 -0.12897098 -0.009050012
0001a0 10 14 1e bd e0 dd a4 3c 2c 1d 28 be 00 75 87 bc
       -0.03859335 0.02012533 -0.16417378 -0.016535282
0001b0 40 a6 df bd 00 b8 0d bb f0 72 ff bd 80 7e 1f 3c
       -0.109203815 -0.0021624565 -0.124730945 0.00973475
0001c0 c0 f8 f5 bc 54 8c 1d be b8 4c 6e 3e d4 e7 50 3e
       -0.03002584 -0.15385562 0.23271453 0.20400935
0001d0 6c 89 41 be f0 6d 57 3d b8 09 22 be b0 52 0f bd
       -0.18900079 0.05259508 -0.1582402 -0.034990966
0001e0 88 f0 eb 3d 78 9c 76 3e 88 d3 df bd d0 15 1e be
       0.11520487 0.24083126 -0.10929018 -0.15438008
0001f0 a8 fb 28 be e8 41 6f 3e 70 76 13 3d a0 db 26 3d
       -0.16502249 0.23364985 0.036001623 0.040736794
000200 28 d7 4c 3e 70 af 1d be 3c c6 5b be 30 8d 0a be
       0.2000395 -0.15398955 -0.21462339 -0.13530421
000210 30 33 49 3d 40 ff 5e 3d 44 f3 10 3e b8 c3 81 3d
       0.04912108 0.054442644 0.14155298 0.063361585
000220 60 d2 92 3c 1c 42 09 be f0 21 57 3e 50 8f 83 bd
       0.01792258 -0.13404125 0.2100904 -0.06423819
000230 34 b6 53 be 40 5b 0e 3c f0 a1 9a 3d 88 c0 bb bd
       -0.20674974 0.008688748 0.075504184 -0.09167582
000240 63 d7 8e bd 57 0e 8a bd 5e b1 e7 bd 42 30 26 bc
       -0.069746755 -0.06741016 -0.11313127 -0.0101433415
000250 3d 16 45 be 15 ab 35 3e 02 53 24 be 02 f4 3c bd
       -0.19246764 0.17741044 -0.1604729 -0.04613114
000260 cd 93 71 be da 82 4d 3e bd e5 0e be 98 3c 70 be
       -0.23591538 0.20069447 -0.13954826 -0.23460615
000270 01 b1 c5 bd 20 53 01 3e 36 4c 2e be b9 1f f8 3b
       -0.096529014 0.12629366 -0.1702126 0.007572141
000280 4e b8 0c be 97 2e 80 3e c3 4e 37 be e2 1e da 3d
       -0.13742182 0.25035545 -0.17901139 0.10650422
000290 a0 f4 a1 bc bc 23 72 be 17 3e 17 3e f9 14 28 3d
       -0.019769967 -0.23646444 0.14769779 0.041035626
0002a0 61 ed a4 3d a8 0c 29 be 46 07 5d be 1a 2b 3d be
       0.08053089 -0.16508734 -0.21584806 -0.18473473
0002b0 b1 c7 54 be e3 5c 68 be b0 73 35 be 15 d6 c8 3d
       -0.20779301 -0.22691683 -0.17719913 0.09806458
0002c0 47 f1 0b be 2e 74 1c be 96 4b e9 bc bc e9 59 be
       -0.13666259 -0.15278694 -0.028478425 -0.21280569
0002d0 fc b4 49 be d4 b9 2c be fa 7b ff 3d fe ea 6e 3e
       -0.19697946 -0.16867763 0.124748185 0.2333183
0002e0 9c d4 20 bd 52 99 19 3e 61 2d 50 3e e8 0c d4 3d
       -0.03926526 0.14999893 0.2032981 0.10354024
0002f0 e6 b4 56 3e dc 34 6a 3e 2c c8 03 be 43 66 42 3e
       0.20967445 0.22871727 -0.12869328 0.18984322
000300 40 a4 3b 3c 4b a9 54 be 5d d5 94 3d 6e 17 77 bc
       0.0114527345 -0.20767705 0.07267258 -0.01508127
000310 c9 04 4a 3e 48 14 cb bd 3e 43 2a 3e 04 62 12 3e
       0.19728388 -0.09915978 0.16627213 0.14295202
000320 a0 03 fd 3d 96 2f 51 3e ed c0 30 be f2 f5 4e bd
       0.12354207 0.20428309 -0.17261095 -0.05052752
000330 75 f2 a3 3d 19 98 1b be 10 89 7e be 9a cc 14 be
       0.080052294 -0.1519474 -0.24856973 -0.14531174
000340 f8 23 eb bc 3b aa 0b bd 6b fe d8 3d 29 eb 65 be
       -0.028703675 -0.03409789 0.105954014 -0.22452988
000350 8b 45 58 3e c5 78 2c 3d 3e 8f b4 3d 4b b1 6e be
       0.21120279 0.042107362 0.08816384 -0.2330982
000360 20 ac 0b 3e 76 85 70 bd fc 35 40 3d b0 da 55 be
       0.13639879 -0.05872103 0.046926484 -0.20884204
000370 ce ff 6e be cc d4 0d 3e 97 7a 60 3e 18 b1 05 3d
       -0.23339769 0.13850707 0.21921764 0.032639593
000380 99 e9 03 be 07 c8 91 3d 43 20 05 3e 4e 32 38 be
       -0.12882079 0.0711823 0.13000588 -0.1798794
000390 55 8b d1 bd 12 29 f7 bd c3 7f 8f 3c 94 7f 3b 3d
       -0.102316536 -0.120683804 0.017516976 0.045775965
0003a0 68 28 96 bd 03 1b 09 3e 6e 27 11 be 7d 52 25 be
       -0.07331926 0.1338921 -0.14175197 -0.16144748
0003b0 c7 d6 2c bd 4a a0 b3 3d 14 e7 17 3e 79 40 6e be
       -0.042197015 0.08770807 0.14834243 -0.23266782
0003c0 48 d1 88 bb 7e 97 1e bd 11 de 20 bc 41 16 4a 3e
       -0.004175339 -0.038718693 -0.00981857 0.19735052
0003d0 87 4d d9 3d 84 aa 17 3e fe 89 60 3e 0e c3 14 3e
       0.1061049 0.1481114 0.2192764 0.14527532
0003e0 95 dd bb 3d 2b 19 e4 bd b7 61 ba 3d d8 68 8a 3d
       0.09173123 -0.11137613 0.09100669 0.067582786
0003f0 c3 85 ee bc 20 da 3f 3d 9e 34 ee bd e0 77 bb bc
       -0.029116517 0.04683888 -0.1163113 -0.02288431

arith.constant3 f4 [48, 48]
000000 4f 6b 6e 3e 14 c1 13 3e 83 d5 42 be 5c 39 76 be
       0.23283122 0.14429122 -0.19026761 -0.24045318
000010 48 ac 02 3e 88 88 36 3e 18 a7 0d 3c 62 06 f3 3d
       0.12761033 0.1782552 0.008645795 0.11866452
000020 fc 07 70 bd 0a 5d 6c 3e 32 9f 5b 3e 2b 0a 2f bd
       -0.058601364 0.23082367 0.21447447 -0.042734306
000030 25 2a 54 3e 14 42 5c 3e 9c 9b 28 3e 30 db 4c be
       0.20719202 0.21509582 0.1646561 -0.20005488
000040 61 6e aa 3d 00 5c 10 3c 29 e6 f8 bd 0f e0 5a be
       0.08321834 0.008810997 -0.121532746 -0.21374534
000050 c0 b4 46 be 8d 1a 12 3e 07 87 5a be bd 0c b9 3d
       -0.19404888 0.14267941 -0.21340571 0.09035633
000060 28 05 fa bd c5 60 d2 3d 6a 81 b1 3c 0e 92 7b 3e
       -0.12208015 0.102723636 0.021668155 0.24567434
000070 ce 93 12 be fa 74 18 3e 8b 81 72 3e 83 16 8a 3c
       -0.14314196 0.14888373 0.23682229 0.016856438
000080 9a 33 51 3d 3f a3 67 3e c9 6b fc 3d fe cd 89 bd
       0.0510746 0.22620867 0.12325246 -0.06728743
000090 23 aa 59 be 5c 47 46 bd 1d 27 cf 3d 67 d5 9d 3d
       -0.21256308 -0.048407897 0.10114882 0.07706719
0000a0 92 98 42 be 44 e0 17 3d 5a fb 16 3e 45 17 86 3d
       -0.19003513 0.03707911 0.1474432 0.06547407
0000b0 4c 3d cf bd b3 eb 9d 3d b5 95 03 3e a9 10 0d bd
       -0.10119113 0.07710972 0.12850077 -0.034439716
0000c0 c5 91 5d 3e f2 cf 34 be 71 fa 0c 3e 4f 76 2e be
       0.21637638 -0.1765745 0.13767411 -0.17037319
0000d0 6a 98 08 be 85 ec 1e be 8d e4 61 be dc 35 44 3e
       -0.13339391 -0.15519913 -0.22059841 0.1916117
0000e0 8b 98 e2 3d 4d 0d 28 bd 49 a2 a1 3d 41 00 a5 3d
       0.110642515 -0.04102831 0.078922816 0.08056689
0000f0 57 64 08 be b4 06 6a 3d 79 55 1f 3e cb 27 13 3e
       -0.13319527 0.0571353 0.15559949 0.14370649
000100 9a a3 3c be dd 0a 16 3e 34 16 ff 3d f8 b8 79 bd
       -0.18421784 0.14652582 0.12455407 -0.060967416
000110 63 6c e3 3d 1b 9e 29 3e 20 60 62 3e 9f b6 37 3e
       0.111046575 0.16564219 0.22106981 0.17940758
000120 2e 47 69 3e 20 16 3a be 33 c8 df bd b7 0f 4c 3e
       0.22781059 -0.18172503 -0.10926857 0.1992787
000130 32 6f 04 3e 95 cc 57 be 39 a5 66 bd 02 74 ad 3d
       0.12933043 -0.21074136 -0.056309912 0.08469392
000140 cc 1b de 3d e6 ba 12 be 4e 04 5c be 9d f9 bc bd
       0.108451456 -0.14329109 -0.21486017 -0.092272975
000150 59 f5 65 3d 34 a4 11 3e d3 b5 da bc b9 15 03 be
       0.056142185 0.14222795 -0.026698029 -0.12801255
000160 d6 e8 b6 3d f0 63 83 3e 50 15 2b 3e 46 9d 26 3e
       0.08931129 0.25662184 0.16707349 0.16270933
000170 98 f5 5a 38 9b 1c ba 3d bb be 6d be c4 21 83 3e
       5.2203977e-05 0.09087487 -0.23217289 0.256117
000180 08 27 b6 3d f6 8a f4 bd ed 82 87 3d c2 01 13 be
       0.08894163 -0.11940567 0.06616769 -0.1435614
000190 8e 8b 30 bd d2 fa 77 3e 14 f1 2e 3e b2 68 06 3e
       -0.04310184 0.24216774 0.17084152 0.13125876
0001a0 11 96 ff bd 3e c5 41 3e f3 b2 16 3d 5c 2f 72 3d
       -0.12479795 0.18922898 0.036791753 0.059127197
0001b0 69 74 61 be 3e 48 28 be 37 7e 3e be 20 fb ed bc
       -0.22017063 -0.16433808 -0.18602835 -0.02905041
0001c0 bf 2c 39 3e c4 f7 59 3e 6b 51 1f be d0 08 04 3e
       0.18083476 0.21285921 -0.15558402 0.12893987
0001d0 b4 ba 46 be 24 e3 65 be 80 c1 48 be 2e 20 00 be
       -0.19407159 -0.22449929 -0.19605064 -0.12512276
0001e0 10 6d 33 3e f3 95 09 3c 10 1e 46 be 9f 98 09 3a
       0.17522073 0.008397567 -0.19347405 0.00052488776
0001f0 6b a7 17 be a6 a4 15 be dd 7c 56 b8 0f 0a 68 bb
       -0.14809959 -0.1461359 -5.1137864e-05 -0.0035406386
000200 5b 57 cf 3d 8c 7e ee 3c 44 54 23 3c 0e 40 5c 3e
       0.101240836 0.029113077 0.009968821 0.2150881
000210 29 5d 68 be 62 20 5c be b3 77 41 bd 19 4b d5 bd
       -0.22691788 -0.21496728 -0.047233295 -0.10414714
000220 ae f0 31 3c d7 30 0f 3d 41 2f 4f be e1 2e 28 bd
       0.010860605 0.034958687 -0.2023287 -0.041060332
000230 93 2e 30 3e f0 4b 69 be 97 8d da 3d 17 1c 57 3e
       0.17205267 -0.22782874 0.10671537 0.21006809
000240 f1 b4 29 3e 6f 52 0d 3e d8 f1 23 be 90 13 23 3d
       0.1657293 0.13800977 -0.16010225 0.039813578
000250 ef 98 91 3d 33 25 57 3d 02 85 8d bd 84 7e fc bd
       0.07109248 0.05252571 -0.06910135 -0.123288184
000260 73 5a 37 3d a4 6b e5 3c 12 8b b4 bd c9 da 26 bc
       0.044763993 0.028005429 -0.08815588 -0.010183998
000270 e9 14 ea 3b 07 e9 d1 bd 0e 02 cb bb 00 65 24 bd
       0.007143606 -0.102495246 -0.0061953133 -0.040135384
000280 36 6b 2c be 79 25 32 3e 58 fc 66 be a8 30 08 3e
       -0.16837773 0.17397107 -0.22557199 0.13299811
000290 81 7f f6 3d 52 85 d7 bd 4b 7d a9 3c 33 43 20 be
       0.12036038 -0.10523476 0.020689627 -0.15650634
0002a0 b4 3f a6 bd 08 1e 1a 3e d2 70 c9 bd 0c c8 ff bc
       -0.08117619 0.15050519 -0.09835972 -0.03122332
0002b0 46 38 53 3e 91 9b 66 be 5c c4 12 3e 39 89 8e bd
       0.20626935 -0.22520281 0.14332718 -0.06959767
0002c0 ee bb 45 3e 3d 45 0f be 16 b1 8a 3c 6e 56 f7 bd
       0.1930997 -0.13991256 0.016930144 -0.12077032
0002d0 fc 80 6e 3e c0 98 3a bd 1d 00 67 be 45 7a 44 3e
       0.23291391 -0.04555583 -0.22558637 0.19187267
0002e0 a5 bf 3b bd 26 fc 14 3e cd 31 ad 3d 8b 4e fc 3d
       -0.045837063 0.14549312 0.08456764 0.123196684
0002f0 c2 99 85 be 45 f0 af 3d 93 67 ba 3d 57 59 6e 3c
       -0.2609387 0.0859075 0.091017865 0.0145476675
000300 95 31 db bd 34 75 e8 bd 22 91 3c 3e ef f1 26 3e
       -0.107028164 -0.1135048 0.18414739 0.16303228
000310 06 78 e4 bd e7 16 ad 3c e7 44 be 3d 28 a6 6c 3d
       -0.11155705 0.021129085 0.09290486 0.057775646
000320 81 ac 8e bd a7 01 45 3c a9 f7 1d be 1c 1b 74 3e
       -0.06966496 0.01202432 -0.15426506 0.23838466
000330 54 92 55 3c 94 85 7d be 16 44 50 3e c0 4d 67 3e
       0.013035376 -0.24757987 0.20338473 0.22588253
000340 1c be 19 be 2f d6 1f 3d 98 7d 0d 3d a9 38 59 bd
       -0.15013927 0.03902262 0.034543604 -0.05303255
000350 59 37 04 3d ec 49 72 be 40 df db 3d c6 94 10 3c
       0.032279346 -0.23661011 0.10735941 0.008824533
000360 ce 46 04 3d 4b c3 23 3e 1d 10 73 3e f0 5e 0e 3d
       0.032294087 0.15992467 0.23736615 0.03475851
000370 ed 57 e2 3b 98 f0 fc 3d 0a 1d 90 3d 18 ad 16 3e
       0.006907454 0.12350577 0.07036789 0.14714468
000380 15 f5 12 bc 17 16 74 be 77 7f f4 bd 09 66 33 3e
       -0.008969565 -0.23836552 -0.119383745 0.17519392
000390 68 d6 80 be 31 2e 9c 3c 8a 2c 5a 3e 88 5f 70 3d
       -0.2516358 0.019064995 0.21306053 0.058684856
0003a0 53 89 a2 3d 8b a4 3b be fa 26 e4 3c 80 13 de 3d
       0.07936349 -0.18324487 0.027850617 0.10843563
0003b0 62 df 5c 3e b1 4f 51 3e 35 c2 e8 3d 45 36 f4 bd
       0.21569589 0.20440556 0.11365167 -0.119244136
0003c0 cb 4e 04 3e 38 60 bc 3d e4 7b a1 3d 76 1c 5d 3e
       0.12920682 0.0919804 0.078849584 0.21592888
0003d0 f3 1d 26 be 59 7a af 3d c8 78 9b 3d 93 67 4e 3e
       -0.16222362 0.08568258 0.075913966 0.20156698
0003e0 c3 a0 35 be 05 27 03 3d 19 4a 33 3d 4a 9b 63 be
       -0.17737107 0.032019634 0.043771837 -0.22227207
0003f0 07 49 dc 3d c6 1c 04 be fe e7 1d be 13 6e 01 be
       0.10756116 -0.12901601 -0.15420529 -0.12639646

arith.constant4 f4 [48, 32]
000000 0a e4 85 3d 7c f3 2f be 74 1a 11 be a8 47 97 bd
       0.065376356 -0.17182726 -0.14170247 -0.07386714
000010 bd 84 58 3c 77 6c 3d be 7a 89 47 be ea 10 7d be
       0.013215241 -0.18498407 -0.19486037 -0.24713483
000020 eb 28 93 3c 87 36 80 3e 35 a2 d5 bd fd 6d 6b 3e
       0.017963847 0.250416 -0.10431329 0.22991176
000030 9f c4 39 3e ab 2d 58 3d 29 90 7a 3e b1 f3 7c 3c
       0.18141411 0.052777927 0.24469055 0.01543896
000040 38 df 67 be 8f f6 ad 3c 35 9a 48 be 0a e8 93 bd
       -0.22643745 0.021235732 -0.19590075 -0.07221992
000050 19 05 15 bd 54 89 eb 3c 3a b2 c8 bd cb 21 15 be
       -0.036381815 0.028752007 -0.09799619 -0.14563672
000060 d1 9c 6e be c3 c6 21 be 35 72 a5 3b a3 f1 8f bd
       -0.23302008 -0.15798478 0.005049015 -0.070285104
000070 8a 21 12 3e e3 3e 86 be ff b0 99 3e 61 e8 35 be
       0.14270607 -0.26219854 0.3001785 -0.17764427
000080 4d 71 26 3e 1a d3 f7 3d 81 37 95 bd cc ab 5e 3e
       0.16254158 0.12100811 -0.07285977 0.21745223
000090 13 ca 11 be 17 b1 2d 3e f0 db f1 3d 0e 1d 4a be
       -0.14237241 0.16962086 0.11809528 -0.19737646
0000a0 3c cf 15 be fc 6f f6 bc 12 3f ab 3d ef 23 4a be
       -0.14629835 -0.030082695 0.08361639 -0.1974027
0000b0 df 1f 52 3e f5 9c 85 3e fe b7 87 be 21 7a 34 3d
       0.2051997 0.2609631 -0.26507562 0.044061784
0000c0 7d 59 8a bd 16 a3 7e be 1a 29 33 be df 7f 72 3e
       -0.0675535 -0.248669 -0.17496148 0.23681591
0000d0 67 1a 04 be de 7a 1a 3d 3f 45 24 3e 37 af 35 3e
       -0.12900697 0.03771483 0.1604204 0.1774262
0000e0 c3 1d 84 3e 15 b0 3b 3e f3 2c 76 3e a8 bb 88 3e
       0.25803956 0.18328889 0.24040584 0.2670567
0000f0 da 1a 21 3e f5 2a 99 bd 21 1e 33 3d b7 89 60 3c
       0.157329 -0.074788965 0.043729905 0.013704709
000100 b9 53 c6 3c ab 2c 9c 3b 2a 13 20 3e a7 53 ff 3d
       0.024209844 0.004766067 0.1563231 0.12467127
000110 35 0e 21 be 75 a7 65 be 14 33 32 3e da 12 0e be
       -0.15728076 -0.22427161 0.17402297 -0.13874379
000120 a7 a1 5e 3d e9 fa 52 3c 3c 32 90 be 17 8c 03 3c
       0.054353382 0.012877204 -0.28163326 0.0080290055
000130 2c 11 6c 3d df cd 2e 3e ba e2 3a be 6a af 6f 3e
       0.057633564 0.17070721 -0.18250552 0.23406759
000140 36 26 0e 3e 58 fb e9 3d fb c1 28 3e 5d b4 2e 3e
       0.13881764 0.11424893 0.16480248 0.1706099
000150 52 ff ff 3d bd d5 84 bd dc 37 97 bc da 2e 7e 3e
       0.1249987 -0.0648608 -0.018459253 0.2482256
000160 e4 a8 d2 3d bd d4 23 3e e2 9b a7 bd 01 79 d1 bc
       0.102861196 0.15999122 -0.08184029 -0.025570394
000170 03 a0 c9 bd 71 ca 85 be dd ae ad 3c 0f 5e ee 3d
       -0.09844973 -0.26131013 0.021201545 0.11639034
000180 1e 63 bd 3c 78 65 87 3e c4 a3 c5 3c 55 a7 50 3e
       0.023118552 0.26444602 0.024125941 0.20376332
000190 d1 f9 6c be dd 67 2c 3e 18 e4 5d 3e fa 0c 09 be
       -0.23142172 0.16836496 0.21669042 -0.13383856
0001a0 9e b7 6b 3e 8f 3b 50 be 94 40 d1 3d 2a b5 bd 3d
       0.23019263 -0.2033522 0.102173954 0.0926307
0001b0 87 5e 1a 3e a2 e8 86 3e 04 69 49 bc 62 61 37 bd
       0.15075122 0.2634936 -0.012293104 -0.044770606
0001c0 25 96 33 bd 98 0f ac bd ec 35 c7 bd fe b0 86 be
       -0.04384436 -0.08401412 -0.09727082 -0.2630691
0001d0 75 5d bf 3d 23 02 3a be d2 2f 75 3e fc 93 53 bc
       0.093439974 -0.18164878 0.23944023 -0.0129137
0001e0 4e fc 80 bd d5 91 5b 3d c0 64 81 3d be d8 ee 3d
       -0.06298123 0.053605873 0.06318045 0.11662434
0001f0 5c 48 17 3b b5 a8 48 3e 20 62 7c 3e e4 0b 77 3e
       0.00230839 0.19595607 0.24646807 0.2412563
000200 92 3a 5f be 49 3e 5c be 0e a5 09 3e 83 a6 00 bd
       -0.21799687 -0.21508135 0.1344187 -0.031408798
000210 c3 c1 26 3e fe 0c d3 3d 24 9c b5 bd cc b3 3a be
       0.16284852 0.103052124 -0.08867672 -0.1823265
000220 d2 2e fe bd bb a6 09 3d d4 c4 a6 3d 39 c2 d3 3d
       -0.12411274 0.033606272 0.08143011 0.103397794
000230 1a 5e 70 3e 52 c5 9f 3c 66 33 85 3d 1d 9b 08 be
       0.23473397 0.01950327 0.06503944 -0.13340421
000240 d7 0e aa 3d b9 37 4c 3e f9 6e 38 bd 89 fa 36 be
       0.08303612 0.19943132 -0.045027707 -0.17869009
000250 d0 02 ab bd db 97 cf bd 13 93 26 3e f2 10 2f 3e
       -0.08350146 -0.10136386 0.16267042 0.17096308
000260 07 e5 af 3d f7 8b 8d 3d 03 1d 51 be e5 55 23 be
       0.085886054 0.06911462 -0.20421223 -0.15950735
000270 be 15 bd bc c5 ea 60 3e 7c 26 48 3e 11 e7 07 bc
       -0.023081657 0.21964557 0.1954593 -0.008294837
000280 cc 54 89 be b3 02 83 3e 7a c3 e5 bc 87 03 68 be
       -0.26822507 0.25587997 -0.028047312 -0.22657596
000290 e5 6a 1a be 2c 82 81 3d 98 46 3c 3d 07 5c 87 3e
       -0.1507984 0.063236564 0.04596576 0.264374
0002a0 6c 02 53 bd 9c 30 28 bd e5 2e 59 3e 00 46 73 be
       -0.05151598 -0.041061983 0.21209295 -0.23757172
0002b0 c9 f6 5c be 38 aa ec 3c df ec d9 3d 27 22 82 3e
       -0.21578516 0.02888976 0.10640883 0.2541668
0002c0 cd 9b 54 3e 10 87 1b 3e 85 e1 13 3e 18 db 17 be
       0.20762558 0.15188241 0.14441498 -0.14829671
0002d0 d4 81 47 3d 44 12 93 bd 17 bb b6 bd 6e c5 8a be
       0.048707798 -0.07181218 -0.08922403 -0.27103752
0002e0 a4 00 15 bd 40 53 97 3d 86 5d 47 be 0b 4a 3d 3e
       -0.036377564 0.073889256 -0.1946927 0.18485276
0002f0 fc 7e 3c be 78 dc 15 bd 6e 7f 95 3c 06 74 83 3e
       -0.18407816 -0.03658721 0.01824924 0.25674456
000300 0a e2 22 bd 8f e5 90 bd f2 41 70 be d9 01 4e be
       -0.03976635 -0.07075035 -0.23462656 -0.20117892
000310 a7 a5 6d be f9 eb bb bd f7 6c 48 be 74 0a 35 be
       -0.23207723 -0.091758676 -0.19572817 -0.17679769
000320 a5 e6 89 3e 39 38 3f 3e 7f 81 5f 3e 7c ed e1 3c
       0.2693378 0.18673791 0.21826743 0.027579062
000330 ce 77 8c bb ab 78 35 be 48 ed 08 be 43 40 26 3c
       -0.004286743 -0.17721812 -0.13371766 0.010147157
000340 96 88 e5 3d 32 97 74 3c 17 9e 16 be 98 93 64 bd
       0.11207692 0.014928626 -0.14708744 -0.05580482
000350 aa a6 12 be 84 56 6b be a9 9e 65 bd a5 52 31 3e
       -0.1432139 -0.22982222 -0.056059513 0.17316683
000360 b9 a0 4f be ad 2f 1e be 64 6d 88 be 40 eb 80 3e
       -0.20276155 -0.15447874 -0.26645958 0.25179482
000370 19 5b 61 be ce 02 ac bc c7 10 11 3e 28 f2 70 3e
       -0.22007407 -0.020997431 0.14166556 0.23529875
000380 08 a5 9b 3d 67 69 e7 3d f7 d8 5f 3e 83 28 4e be
       0.075998366 0.11299401 0.2186011 -0.20132641
000390 cc 84 c8 3d 4b dd d5 3d b3 08 84 be 69 40 ea 3b
       0.09790954 0.10442599 -0.25787887 0.0071487916
0003a0 8a 95 75 3e 1a 9c 11 3e 3b 7f 93 bd 6a 5b 99 3d
       0.23982826 0.14219704 -0.07202002 0.07488139
0003b0 a6 a1 41 3e 78 b6 cc bd f0 fa 3d be db 44 1f 3e
       0.1890932 -0.09995741 -0.18552756 0.1555361
0003c0 30 0b aa 3d 3c fb 84 be 01 9a 87 3e 26 16 60 3e
       0.08302915 -0.25972927 0.26484683 0.21883449
0003d0 f5 e9 d9 bd 12 b0 d3 3c 11 e3 09 3e c4 7d 89 bc
       -0.10640327 0.025840793 0.13465525 -0.016783603
0003e0 c3 b9 8d 3d 15 4b 66 be 77 0d 34 3e 8b 8f 05 bd
       0.06920197 -0.22489579 0.17583261 -0.032607596
0003f0 be e9 bb 3d f4 07 8d bb 8c a1 74 be e9 c3 e1 bd
       0.09175442 -0.0043039266 -0.2388975 -0.11023695

arith.constant5 f4 [32, 720]
000000 ed 86 28 3d 69 cf 14 3d ba 43 6e 3d ca c1 a4 bd
       0.0411443 0.036330614 0.058170058 -0.08044775
000010 8b 5d d7 3d d6 b1 d1 3c 47 94 a1 3d b5 c7 3f 3c
       0.10515889 0.025597494 0.0788961 0.011705329
000020 35 fa 6f 3d 21 ee 49 bc 06 1a c2 bc ff 7d ed 3c
       0.058588225 -0.012324841 -0.02369405 0.028990744
000030 85 23 08 3b 26 fd d9 3d b0 fb 90 3d 02 37 8c 3d
       0.0020773124 0.10643987 0.070792556 0.068464294
000040 2b 99 53 bc ea 02 5d bd f4 b8 81 3d 82 6f 09 3e
       -0.012914936 -0.053957857 0.06334105 0.13421443
000050 18 8a f9 bc 46 9f 5b 3c 4c 69 88 3d 70 fa 8e bc
       -0.030461356 0.013404673 0.06660709 -0.017453402
000060 70 56 8c bd 0b 9a ad 3d 53 b9 15 bd a6 57 70 bd
       -0.06852424 0.08476647 -0.036553692 -0.058677338
000070 ff f7 65 3d c9 93 94 bd 6f 22 37 bc 8a 15 5f 3d
       0.05614471 -0.0725475 -0.011177643 0.0544639
000080 f2 53 f5 bb de a7 97 3d b3 cb 3e bd 13 76 84 bb
       -0.0074868137 0.07405065 -0.04658098 -0.004042396
000090 af d1 26 3d 4a ea a1 3b de 9e b0 3d 5b b1 95 bd
       0.040727314 0.0049412595 0.086240515 -0.073092185
0000a0 71 89 91 3d 2c 30 a9 3d 40 ef c0 bd e7 d1 9b 3d
       0.07106293 0.08261141 -0.09420633 0.07608395
0000b0 b8 ac a7 bb 84 68 ca 3c 1d 74 8d 3d 06 26 9d bd
       -0.005117025 0.02470804 0.069069125 -0.07673268
0000c0 9f 13 35 3d e0 da 25 3d 1f 3e ec bc ea d5 a2 3d
       0.044208165 0.04049194 -0.028838215 0.07950957
0000d0 b4 2c f2 3c 8e a9 c5 bc 1a ed d2 bc 22 1e 0e bd
       0.029562332 -0.024128702 -0.025747824 -0.034696706
0000e0 d0 75 9b bc a6 63 18 3c 03 6b d6 3c a4 1c 94 bd
       -0.018977076 0.009301102 0.026174074 -0.07232025
0000f0 3e a4 48 3d 45 2d fd bc 89 ea b6 bc 6b 8a 0f bd
       0.04898476 -0.030905375 -0.022328632 -0.035044115
000100 42 5d 81 bd 48 cf ae 3d 32 f8 47 3b 02 7e 21 bd
       -0.06316616 0.085356295 0.0030512926 -0.03942681
000110 32 e7 88 bb 2e 10 87 ba c1 51 3c bd 6d 4a ab bd
       -0.0041779513 -0.0010304505 -0.045976404 -0.08363805
000120 02 1d cf bb ce 95 1b 3d 3b 3f a7 3d 42 ac 8c 3d
       -0.0063205967 0.03798466 0.08166357 0.06868793
000130 2c b0 8b 3d 90 10 a1 3d 87 dc 38 bd 71 b9 1b 3d
       0.068207115 0.07864487 -0.045132186 0.038018648
000140 cd 6d ad 3d 88 26 32 bd d9 12 be 3d cb e3 19 bd
       0.084682085 -0.043493778 0.09280939 -0.037570756
000150 e0 b5 24 3d 0c d4 4b 3d 5b 7d 98 bd fd 3f bf bb
       0.040212512 0.04976277 -0.07445785 -0.0058364854
000160 d5 8b 99 3d ab f2 27 3c de 98 e0 ba 11 33 e3 3d
       0.07497374 0.010250728 -0.0017135402 0.110937245
000170 61 bb 20 bc 52 00 96 3d e3 83 b1 3d 82 eb 86 bd
       -0.0098103 0.0732428 0.086677335 -0.06587888
000180 57 f4 0a bd 36 8e 80 3d 8e d0 70 3d b8 a9 32 bd
       -0.033924427 0.062771246 0.058792643 -0.043618888
000190 b4 8e 5c 3d 42 8a ae bd f3 f5 21 3c e4 e8 09 3d
       0.05384703 -0.08522464 0.009885299 0.033669367
0001a0 5b 6d 25 ba 87 e1 18 3c 82 5c 43 3c 42 b5 ae bc
       -0.0006310546 0.009331114 0.011923911 -0.021326665
0001b0 73 be 6f 3c 2f 2b 9e bc db f6 44 bd 23 61 34 bd
       0.014632809 -0.0193077 -0.048086982 -0.04403795
0001c0 39 66 89 bb 63 32 85 3d 2b 5f 58 3c a1 bb f4 bb
       -0.004193094 0.06503751 0.013206284 -0.007468656
0001d0 21 8a 01 bd 35 e5 31 bc 0b d7 44 3d 7b 91 96 3d
       -0.03162587 -0.01085787 0.048056643 0.07351967
0001e0 ec 4b 8a bd fd c1 67 3b f4 89 83 3d 0f 3d 70 3d
       -0.06752762 0.0035363429 0.06422797 0.05865198
0001f0 0a c4 60 bd 36 e6 38 3d 6e 21 5c bb b7 49 49 bc
       -0.054874457 0.04514142 -0.0033589262 -0.012285641
000200 3c 87 c3 bc 82 c5 92 bd 69 b7 7f bd 22 6b 93 bd
       -0.023868196 -0.07166578 -0.062430773 -0.07198168
000210 a5 00 fb 3c f8 b5 1c bc 08 5c bb 3d 47 7f 70 3d
       0.030639956 -0.009564869 0.09148413 0.05871513
000220 4d 6c 4b bd d2 98 05 3d 3c f6 4f 3d ac 90 e7 3d
       -0.04966383 0.032616444 0.050771937 0.11306891
000230 a2 91 94 bd 21 b6 7b 3c 5b 4a f1 3c 52 d6 6b 3c
       -0.0725434 0.015363247 0.0294544 0.01439436
000240 98 1e 25 3d cd 16 62 3d 91 1d c3 bb 0b 9d d5 bc
       0.04031238 0.055197526 -0.0059544523 -0.02607586
000250 ec d5 17 bd b8 4c 7b bd fe 8a ae 3c 0f 43 06 3d
       -0.037069246 -0.06135246 0.021306511 0.032778796
000260 08 2f 0c 3d 55 c5 f5 3c 0d 8e 1e bd 25 45 a1 3d
       0.03422454 0.030001322 -0.03870969 0.078745164
000270 50 03 66 3d 1a 49 d3 3d ef f8 9e 3d e7 e8 bd 3c
       0.056155503 0.103166774 0.07762324 0.023182346
000280 be be 90 bd 7c d9 b5 3d 30 d9 bc 3c db 6f 01 3e
       -0.07067631 0.088793725 0.023052782 0.12640326
000290 eb c0 9c 3d 79 a6 6d 3d ac c6 e3 ba 3d 36 91 bc
       0.07653984 0.05802009 -0.0017377934 -0.017726058
0002a0 46 1f 53 bc 95 20 01 bd ef af 35 bd 6e 6a 97 bd
       -0.012885874 -0.031525213 -0.044357236 -0.07393347
0002b0 fa ce 9c 3d b5 e4 af 3d c4 0f a1 3d df eb 0f 3d
       0.07656665 0.08588544 0.07864335 0.035137054
0002c0 2f 2e 4d 3d fb e2 80 3c e3 62 ac 3d 42 c3 34 3d
       0.050092872 0.015733233 0.08417299 0.044131525
0002d0 3b a6 8a 3d 06 54 86 3c f7 25 0e bc 0f de 71 3d
       0.06769987 0.016397487 -0.008676044 0.059049662
0002e0 6e c5 ab bd b0 2f ad 3d ae cd 39 bc c3 3d 02 3e
       -0.08387266 0.08456361 -0.011340542 0.12718873
0002f0 08 9d 2b bd 85 39 e9 bc b8 95 a3 bd 22 f1 6e bb
       -0.041897804 -0.02846981 -0.07987541 -0.0036459644
000300 5b ea 9e 3c a3 14 b1 3d 64 0f a5 bc ae 6c b8 3d
       0.019398859 0.08646514 -0.02014894 0.09005104
000310 11 8b 34 3d 62 5c b1 bd c7 cb 93 3d 37 f8 81 3d
       0.044077937 -0.08660199 0.07216602 0.06346171
000320 15 88 92 bd e2 1e ef 3c 13 ab 83 bc e7 9b ba bd
       -0.07154862 0.02918953 -0.016072785 -0.09111767
000330 b9 a7 80 bc f0 80 dd 3c 33 d0 98 3d 39 3d 96 bd
       -0.015704976 0.027039021 0.07461586 -0.07335896
000340 7d 68 c7 3b 67 7b 4b bd c1 41 87 3d ce 70 c4 3c
       0.006085454 -0.049678233 0.066043384 0.02397957
000350 38 6c 86 3d df 51 4a 3d 71 55 29 3d f6 df 9a 3d
       0.0656361 0.049394485 0.04134125 0.075622484
000360 bd 14 33 bc f7 9a aa 3d ad c5 82 3d b8 5b 4d bd
       -0.010930237 0.083303384 0.0638536 -0.050136298
000370 ea f3 37 3d 10 db bd bd dd 57 b2 3c a7 78 dc bc
       0.04491035 -0.092702985 0.021770412 -0.026913
000380 0f d6 14 bb 85 7b b1 ba e9 a8 f0 3b aa 51 12 bd
       -0.0022710597 -0.001354084 0.0073443544 -0.035722412
000390 78 da 0a ba 0c 59 3b ba b8 16 33 3d 16 d3 31 3a
       -0.00052968366 -0.0007146753 0.04372284 0.00067834684
0003a0 b3 69 93 bd 08 ea 41 3b c9 37 98 bd 1c a2 3a 3d
       -0.07197895 0.0029588956 -0.07432515 0.045564756
0003b0 f1 75 ad bd fc cd b9 bc a1 03 ac 3c 97 b1 35 3a
       -0.08469761 -0.022681229 0.020997824 0.0006931065
0003c0 d6 52 1d bc f3 74 8e 3d eb 65 b3 bd 3f f6 09 3d
       -0.009602269 0.069559 -0.08759674 0.033682104
0003d0 2c 82 8c 3c bf 49 a6 bd a9 53 94 bd 1a 0d 6c 3d
       0.017151915 -0.08119535 -0.072425194 0.057629682
0003e0 da 6d 69 3d aa 9d 52 3d ee 45 5b 3d 13 28 6b bd
       0.05698953 0.05141989 0.053533487 -0.057411265
0003f0 41 e0 0b 3d 09 04 b5 3d 50 a6 27 3d 0d 85 04 3d
       0.034149412 0.0883866 0.040930092 0.03235345

arith.constant6 f4 [3]
000000 2b 4d 80 3d 85 f9 48 bd 91 5c 4f bd
       0.062647186 -0.049066085 -0.050625388

arith.constant7 f4 [32]
000000 7a fe 5a bd de 98 2f bc fa 3c 09 bd cb ad 67 bd
       -0.053465344 -0.010717599 -0.033505417 -0.056562226
000010 87 6f 05 3d b0 a1 ec bc fe 4f 84 3d 24 8c 74 3d
       0.032577064 -0.028885692 0.0646057 0.05970396
000020 ed 21 6a bd 8e 4d cd bc c7 b2 1b 3d b4 01 3a 3d
       -0.05716126 -0.025061395 0.038012292 0.04541178
000030 29 9f b4 bc 3a 90 3a bd b1 aa c6 bc 97 2a 20 bd
       -0.02204855 -0.0455477 -0.024251314 -0.039103117
000040 fe 5f 81 bd b7 b3 db bc cf 07 8d 3d 8a fe 4a bd
       -0.06317137 -0.026819093 0.06886255 -0.049559154
000050 ba c6 6e 3d bd 97 84 3d ad 41 62 bd 86 f6 88 3d
       0.05829499 0.06474254 -0.055238415 0.066876456
000060 e1 bb 55 bd 00 00 00 00 c9 3d 2a 3d 55 17 89 3d
       -0.05218113 0.0 0.04156283 0.06693903
000070 33 ee 88 3d 33 5c 84 3d 19 1e 29 bd 92 d2 29 bd
       0.06686058 0.06462898 -0.04128847 -0.04146058

arith.constant8 f4 [48]
000000 bc a5 98 3d 33 46 4b 3d 3d 4a be 2d fa 1e af 3b
       0.07453486 0.049627494 2.1633468e-11 0.005344269
000010 3e f8 8b bc b9 b5 2c 3d a4 37 ef 3d 56 1c 28 bd
       -0.017086145 0.04216549 0.116805345 -0.04104265
000020 e4 1f 94 3d 92 16 e9 bc f9 37 fd bc 48 22 28 3d
       0.07232645 -0.028453145 -0.030910479 0.04104832
000030 7b d8 c1 3b 45 80 e3 bc 92 5c 4a 3d 78 e1 9f bc
       0.005915699 -0.027771125 0.04940469 -0.019516692
000040 4f b1 12 3d 12 8f f3 bc 86 8a 31 bd c6 12 94 bc
       0.035813626 -0.029731307 -0.043344997 -0.018075358
000050 b7 42 33 3d 5d 08 57 3d a9 85 12 3d 00 00 00 00
       0.043764796 0.05249821 0.035772 0.0
000060 49 d5 24 bc 8b 29 73 3d e7 9c b2 3d be 8f 24 bd
       -0.010060617 0.05936579 0.08721333 -0.040176146
000070 57 6c 20 3d 77 23 7a bd 90 a3 c4 bc 71 c3 5a 3d
       0.03916582 -0.06106898 -0.024003774 0.053409044
000080 b7 36 da 3c 4d b4 c6 3c de 25 01 bd aa 8f cd 3c
       0.026637418 0.024255896 -0.031530254 0.025092918
000090 55 ee 7c 3d c9 a5 7e 3d b1 b5 3a bc ab e5 e3 bc
       0.06175073 0.062169824 -0.011395858 -0.027819475
0000a0 90 b0 41 39 65 07 3a 3d a4 21 5b bd 08 e0 c3 bc
       0.00018471689 0.04541721 -0.05349888 -0.023910537
0000b0 7c 28 61 3d 5b f9 7f 3c 2b d9 22 bd ac c0 43 bd
       0.05497025 0.015623416 -0.03975789 -0.047791168

arith.constant9 f4 [48]
000000 b3 da 7a bd 89 3c 17 bd 62 a5 bb 3c 14 89 30 bd
       -0.061243724 -0.036922965 0.02290601 -0.043099478
000010 8b d2 84 3b b2 b6 80 3d 83 6b 8e 3d 1b 89 4b bd
       0.004053419 0.06284846 0.069541 -0.0496913
000020 62 14 35 3d 1b c2 1c bd c1 4d 7a 3d b3 0c 01 bd
       0.04420889 -0.03827105 0.06110931 -0.03150625
000030 a0 18 92 3d 5d 07 cf bc f7 fe 49 3d 1d f8 b8 3c
       0.07133603 -0.025272066 0.04931542 0.022579247
000040 74 38 0f bc 72 bb 42 bd 46 11 75 3d 16 0c 9b bc
       -0.008741487 -0.047542043 0.059830926 -0.018926661
000050 4c 2d 9a 3c 6d 2c 25 bd b3 df de 39 fb dd 22 bd
       0.018820427 -0.04032557 0.0004250981 -0.03976248
000060 e2 d1 ed bc 0e 79 57 bc e7 0c 14 bd af 26 e5 bc
       -0.029030744 -0.01315142 -0.036145117 -0.027972547
000070 3a a7 3b 3d 6a e4 f8 bb 82 32 57 3d 8c ce e1 bc
       0.045813777 -0.0075955885 0.052538402 -0.02756431
000080 c9 98 97 3c ca 98 8a 3b 85 77 13 bc 67 2e ad bc
       0.01850547 0.0042296397 -0.009000664 -0.02114029
000090 f0 a5 3d 3d 32 90 81 bc e2 79 b3 3c 78 d3 2b 3d
       0.04630083 -0.015815828 0.021908704 0.04194972
0000a0 5b be 41 bd 9b 84 17 bd 89 db 1a 3d d8 cc e6 bb
       -0.047300678 -0.036991697 0.03780702 -0.0070434622
0000b0 6d b8 d4 bc 6d 1a 0e bd 4b d9 4e bd 94 9f 20 3d
       -0.025966847 -0.03469317 -0.050500195 0.039214686

arith.constant10 f4 [48]
000000 16 7a 08 3d 22 74 ff 3c b4 da 67 3d 70 04 9f 3d
       0.033319555 0.031183306 0.056605056 0.07764518
000010 95 14 84 3d c4 64 57 3d 68 21 47 3d 86 17 28 3c
       0.06449238 0.052586332 0.048615843 0.010259515
000020 99 56 f4 bc 8d 7c 33 bd 53 9e a0 3d 64 78 0f bd
       -0.02982645 -0.043819953 0.07842698 -0.035026923
000030 8c af 1d 3d 51 07 1a bc 82 5c de bc 6b f4 93 3c
       0.038497493 -0.009401158 -0.02714372 0.018060884
000040 71 03 43 3d 99 ee c4 bc f0 fd 62 3d 50 67 c4 bb
       0.047610704 -0.024039553 0.055417955 -0.005993761
000050 47 05 2f bd 35 a9 38 bd 30 6b 74 3d 05 f1 da bb
       -0.042729642 -0.045083243 0.059672534 -0.006681564
000060 35 15 17 bc e5 bb 11 3d c3 e4 2c bd 43 f1 dc bc
       -0.009221365 0.03557958 -0.04221035 -0.026970511
000070 b2 27 7a 3c 65 ca 28 3d ed 9a 1c bd 9f e7 83 3c
       0.015268253 0.041208643 -0.038233686 0.016101656
000080 cd 99 07 3d 3c d2 1d bd 62 0a 2d 3d 2b 74 1c bd
       0.03310566 -0.038530573 0.04224623 -0.038196724
000090 07 84 17 bd ec 63 3d 3d 27 aa 2d 3d 6b 9e 2f 3b
       -0.036991145 0.04623787 0.042398598 0.0026797305
0000a0 f2 f0 c1 bc 0f bd e8 bc 54 22 ae 3c 07 bd 33 3d
       -0.023674462 -0.028410463 0.021256603 0.043881442
0000b0 43 ae f2 bc 51 f0 a3 3c 89 c7 13 3d 0e 3b 6e bd
       -0.02962411 0.020012053 0.036078963 -0.058161788

arith.constant11 f4 [32]
000000 52 23 66 3a ab ee 5f 3d 6f 4a e9 bc 02 2a a8 bc
       0.0008779067 0.05467097 -0.028477876 -0.020527843
000010 4c ea 1e 3c bf e0 40 3b 88 91 39 3d 8e e4 da bc
       0.009699415 0.0029430834 0.045304805 -0.026720311
000020 63 39 92 bc 6e 08 dd 3c 02 78 55 3d 91 86 97 bc
       -0.01784963 0.026981559 0.0521164 -0.018496783
000030 7a a7 82 3b 5d 20 4e 3d 79 b1 a3 3c a4 53 86 bc
       0.00398725 0.050323833 0.019982086 -0.016397305
000040 d5 da 0d bc ea a6 9f bc 13 36 fb 3c 8a 8c 05 bd
       -0.008658131 -0.01948877 0.030665433 -0.03260473
000050 d9 c3 89 3c 78 d6 53 3b 87 0e f3 3c ed d2 a5 3c
       0.01681702 0.0032323878 0.029670013 0.020242179
000060 20 4f 56 3d a3 a8 1d bc 50 3a c1 3c fe 6f b5 3c
       0.052321553 -0.009622726 0.023587376 0.022148129
000070 54 ba 24 bd 8b b6 46 3d 18 7f 77 3d b2 3c 88 3d
       -0.04021676 0.04851393 0.06042394 0.06652202
