model/model.tflite (tflite, 147148 bytes, 16 tensors)

arith.constant f4 [3, 32]
0.3618854 0.18846934 -0.058781236 0.22171286 -0.07423009 -0.05571321 -0.40802765 0.1933763
-0.058342017 0.301159 -0.29449373 0.14166836 -0.16262552 0.16815484 -0.18603458 -0.3939858
-0.20369977 -0.38807726 -0.00082594156 0.32479233 0.15916893 0.031989917 -0.28830782 -0.368601
-0.07842414 -0.14672871 -0.21977258 -0.019118465 -0.011832927 -0.19419144 0.04218838 -0.1427341
-0.116717294 -0.35332546 -0.08860451 0.057055037 0.17161758 -0.38178703 -0.32802036 -0.42754224
0.32590067 0.3403906 -0.38389313 0.21213323 -0.33487645 0.35736638 0.05788873 -0.35528252
0.23062725 0.05565464 -0.13746384 -0.19151784 -0.34359226 0.10477899 0.38299695 -0.0055973427
-0.13245353 0.11228162 0.34236848 -0.1633838 -0.10778226 0.36952475 0.029457234 -0.14708665
-0.32045555 -0.04658754 -0.15733203 -0.145985 -0.27316716 -0.06314944 -0.40571007 0.12616207
-0.21552947 0.1728029 -0.008061272 -0.11667872 0.08585555 0.38821703 0.18356465 0.0006834895
0.36037356 0.1620774 0.009749174 -0.13224666 -0.40666875 -0.14253427 -0.24304606 0.277167
-0.08160569 -0.19531514 -0.20286636 -0.38143238 0.15043409 -0.14496042 0.3047377 0.27179238
00000000: 0b49 b93e 1bfe 403e 98c4 70bd b208 633e
00000010: f205 98bd 8933 64bd 00e9 d0be 7004 463e
00000020: 0af8 6ebd 8331 9a3e e2c7 96be 8311 113e
00000030: 4e87 26be c830 2c3e d97f 3ebe 82b8 c9be
00000040: ac96 50be 10b2 c6be 0084 58ba 2e4b a63e
00000050: 2efd 223e dc07 033d 159d 93be 45b9 bcbe
00000060: d69c a0bd 0d40 16be 100c 61be 549e 9cbc
00000070: e5de 41bc 1fda 46be b9cd 2c3d e328 12be
00000080: 7a09 efbd 13e7 b4be 4876 b5bd 8bb2 693d
00000090: 85bc 2f3e 9779 c3be 49f2 a7be d1e6 dabe
000000a0: 74dc a63e ad47 ae3e a48d c4be 7439 593e
000000b0: ed74 abbe baf8 b63e bc1c 6d3d 97e7 b5be
000000c0: 8d29 6c3e 1ff6 633d 52c3 0cbe 411d 44be
000000d0: 53eb afbe 5e96 d63d 2d18 c43e ea69 b7bb
000000e0: e6a1 07be e8f3 e53d ec4a af3e 154e 27be
000000f0: f2bc dcbd 5932 bd3e 4c50 f13c e29d 16be
00000100: c012 a4be 94d2 3ebd a61b 21be 187d 15be
00000110: 91dc 8bbe 7e54 81bd 3bb9 cfbe a130 013e
00000120: c2b3 5cbe 3ef3 303e 6d13 04bc 41f5 eebd
00000130: 09d5 af3d 62c4 c63e 5ff8 3b3e 342c 333a
00000140: e282 b83e 9ef7 253e 00bb 1f3c ab6b 07be
00000150: e336 d0be 81f4 11be 11e1 78be d5e8 8d3e
00000160: e220 a7bd b100 48be 33bc 4fbe 1b4b c3be
00000170: 650b 1a3e 8170 14be 9406 9c3e 5f28 8b3e

arith.constant1 f4 [32, 48]
0.25351262 -0.12265098 0.22969718 -0.08616805 0.22076312 0.10034861 0.16382577 -0.15381621
0.14839534 0.07983615 -0.025190337 0.06264033 0.2585841 0.08652954 -0.16721089 -0.13705492
0.22624016 -0.27034652 0.12119033 0.17574741 0.14495407 0.2192984 -0.06329335 0.0057392702
-0.1458276 -0.079337716 -0.16461618 0.12118762 0.046633743 0.26292306 -0.13097796 -0.010171644
-0.24231587 0.26054692 0.061916508 0.07128626 0.055482615 -0.035012424 -0.075703904 -0.024877883
-0.21817464 -0.23206666 0.07449932 0.21453917 0.014605554 -0.09300051 0.14378981 -0.23135495
0.13541439 0.16693163 -0.16488986 -0.0025794208 0.010522902 -0.087828666 0.1797325 0.040107228
-0.21160705 -0.07333146 0.14266217 0.13040088 0.05306679 -0.1385056 -0.26249355 -0.26596478
-0.2671511 -0.124584466 0.24311154 0.11203197 -0.17193463 0.10344519 0.054787368 -0.03153342
-0.04944718 -0.08758214 -0.21634005 -0.11990647 0.13933098 -0.099229276 0.20648056 -0.17356737
-0.2587574 -0.22092122 0.23445149 -0.029654143 -0.1780356 -0.1040494 -0.08318932 0.01166025
-0.13864659 -0.2208595 0.14218512 0.23018163 0.066417426 0.1243363 -0.22640072 0.1390641
-0.18656665 -0.084765285 -0.21377313 -0.17177784 0.21757206 -0.008073151 -0.14067288 0.26269692
-0.11392614 0.02036494 -0.22143371 -0.21488972 0.16765091 0.020474374 0.053486645 -0.1326135
-0.04437217 0.1626684 0.03422457 0.09555179 0.17856857 0.16395116 -0.08933689 -0.19807506
-0.049971685 0.21316022 -0.034177944 -0.25440896 -0.17809206 0.005236864 -0.2102687 0.14329213
-0.13844767 0.09399545 -0.22146401 -0.060490295 -0.23484018 0.07788327 -0.21977976 0.16805965
-0.26261276 -0.15987933 0.095737696 0.027308345 0.037662 -0.21007517 0.19649658 0.15170026
0.0771997 0.17997746 0.060136277 0.1651565 0.05162784 0.20851058 -0.09490361 -0.055215474
0.19453813 0.1582479 0.27059233 -0.09528786 0.015881842 0.0034544254 -0.20218265 0.19737513
-0.106929846 0.22011212 0.24854025 0.19764069 -0.056371447 -0.14238168 -0.22449331 0.08446274
0.2969791 0.2427787 0.18613108 -0.01432753 -0.095742926 0.050944716 -0.075043604 -0.087703526
-0.012360053 -0.025669957 0.20163776 0.15679127 -0.08782426 -0.25191104 0.08575512 0.24339975
-0.23455074 0.15463632 -0.07649111 -0.17861304 0.009851278 -0.07319405 0.1373581 0.124523394
-0.02814266 0.09888877 -0.16040379 -0.2115929 -0.16531761 -0.13113706 -0.1939238 -0.014531888
-0.11293238 0.046809413 0.00755157 0.25699908 0.28028408 0.13164878 0.19332992 -0.22948985
0.19448431 -0.053288415 0.11382704 -0.081029385 -0.18900497 -0.14119048 0.100450516 0.2666242
-0.11335235 -0.1261481 0.106662974 -0.06822235 -0.19232757 0.1122278 -0.10392544 -0.15101977
-0.25884008 -0.038033385 0.09152848 -0.2339141 0.1765956 -0.2138431 0.10875705 -0.22721343
0.24226698 -0.17377564 0.0024333748 0.0754351 -0.15901004 0.101623446 0.076246746 0.27032995
0.12511992 0.23602852 0.26318115 0.012246555 0.049063087 0.19371927 -0.019224016 0.14617169
0.26400244 -0.025686648 0.049067605 -0.23122488 0.28476545 -0.05769755 -0.17322588 0.25519112
00000000: 68cc 813e 7030 fbbd bd35 6b3e e078 b0bd
00000010: ba0f 623e 9283 cd3d f1c1 273e ff81 1dbe
00000020: f3f4 173e 2381 a33d f75b cebc 9349 803d
00000030: 2365 843e 6636 b13d 5539 2bbe 2058 0cbe
00000040: 80ab 673e dc6a 8abe a332 f83d 21f7 333e
00000050: d76e 143e c38f 603e f29f 81bd 7d10 bc3b
00000060: d553 15be d07b a2bd 2591 28be 3731 f83d
00000070: 0603 3f3d da9d 863e 161f 06be f8a6 26bc
00000080: a721 78be 6866 853e 2a9c 7d3d 88fe 913d
00000090: bd41 633d 3069 0fbd a60a 9bbd b4cc cbbc
000000a0: 2c69 5fbe e2a2 6dbe 1993 983d 28b0 5b3e
000000b0: 224c 6f3c 0d77 bebd a33d 133e 50e8 6cbe
000000c0: 12aa 0a3e 20f0 2a3e e3d8 28be 800b 29bb
000000d0: 4068 2c3c 84df b3bd cc0b 383e 7a47 243d
000000e0: 85af 58be ce2e 96bd 0816 123e cf87 053e
000000f0: 905c 593d 69d4 0dbe 8e65 86be 892c 88be
00000100: 07c8 88be 2426 ffbd 3bf2 783e 0471 e53d
00000110: a20f 30be 12db d33d b868 603d 3029 01bd
00000120: 2089 4abd 445e b3bd 3f88 5dbe 8691 f5bd
00000130: c8ac 0e3e b838 cbbd a46f 533e a5bb 31be
00000140: da7b 84be 2c39 62be 0d14 703e 3fed f2bc
00000150: f74e 36be da17 d5bd 2a5f aabd a20a 3f3c
00000160: 5ff9 0dbe fe28 62be fa98 113e bcb4 6b3e
00000170: dc05 883d 08a4 fe3d 97d5 67be d266 0e3e
00000180: 540b 3fbe 6c99 adbd 58e7 5abe 88e6 2fbe
00000190: 36cb 5e3e 4045 04bc 8d0c 10be 3680 863e
000001a0: 1c52 e9bd 60d4 a63c 85bf 62be 0d0c 5cbe
000001b0: aeac 2b3e e0b9 a73c d014 5b3d d5cb 07be
000001c0: 98bf 35bd 8c92 263e 102f 0c3d a8b0 c33d
000001d0: aeda 363e d0e2 273e 42f6 b6bd 30d4 4abe
000001e0: 1caf 4cbd ac46 5a3e 2cfe 0bbd e441 82be
000001f0: c45d 36be 009a ab3b ae50 57be 2cbb 123e
00000200: 3ac5 0dbe b080 c03d 76c7 62be acc4 77bd
00000210: f279 70be 4481 9f3d f20d 61be d417 2c3e
00000220: 2e75 86be 68b7 23be 2012 c43d c0b5 df3c
00000230: 7843 1a3d f21d 57be 6636 493e 5057 1b3e
00000240: e01a 9e3d 034c 383e 7551 763d c91e 293e
00000250: b777 533d cc83 553e d35c c2bd 9f29 62bd
00000260: 0135 473e bd0b 223e 148b 8a3e 4826 c3bd
00000270: a31a 823c a463 623b f808 4fbe b51c 4a3e
00000280: 09fe dabd 1265 613e 5681 7e3e 5262 4a3e
00000290: bfe5 66bd 81cc 11be 93e1 65be cdfa ac3d
000002a0: a50d 983e fb9a 783e 2599 3e3e 04be 6abc
000002b0: de14 c4bd 68ab 503d 76b0 99bd e89d b3bd
000002c0: d281 4abc cd49 d2bc 217a 4e3e e48d 203e
000002d0: 35dd b3bd 7cfa 80be 61a0 af3d c93d 793e
000002e0: 122e 70be fc58 1e3e 5fa7 9cbd 56e6 36be
000002f0: 4167 213c c3e6 95bd 9aa7 0c3e 1f06 ff3d
00000300: 708b e6bc 3286 ca3d e440 24be cfab 58be
00000310: 0549 29be cb48 06be f693 46be 2817 6ebc
00000320: 1749 e7bd 3abb 3f3d 2973 f73b 6295 833e
00000330: 6581 8f3e f0ce 063e 47f8 453e 63ff 6abe
00000340: e526 473e f444 5abd 271e e93d bcf2 a5bd
00000350: 858a 41be 3d94 10be 00b9 cd3d f882 883e
00000360: 4725 e8bd f82c 01be 1e72 da3d 29b8 8bbd
00000370: 85f1 44be b0d7 e53d dcd6 d4bd eda4 1abe
00000380: b086 84be e5c8 1bbd 4973 bb3d 2e87 6fbe
00000390: 7ad5 343e b0f9 5abe 04bc de3d a3aa 68be
000003a0: d614 783e 3ef2 31be 4179 1f3b b87d 9a3d
000003b0: 87d3 22be f41f d03d 4127 9c3d b068 8a3e
000003c0: 701f 003e 76b1 713e aebf 863e c6a5 483c
000003d0: 60f6 483d 585e 463e af7b 9dbc 08ae 153e
000003e0: 542b 873e ce6c d2bc 1dfb 483d 37c6 6cbe
000003f0: c7cc 913e 4454 6cbd 2062 31be 69a8 823e

arith.constant2 f4 [48, 48]
0.111020505 -0.015328473 0.074885726 0.12856019 0.15876049 -0.22547136 -0.083464175 0.081359275
0.10924065 0.1284901 -0.17064333 -0.00853616 0.18951352 -0.17094764 0.0041822195 -0.1696307
-0.23045811 0.008405149 -0.07919443 -0.011552274 -0.22118795 -0.12572275 -0.037118554 -0.050356746
0.1379811 -0.034639187 -0.2372556 0.16324349 0.19784828 -0.099238634 0.0065745115 0.1897645
0.009831089 0.07352239 0.04747337 -0.1793912 -0.12559621 0.06216234 -0.092241764 -0.18600118
0.17452893 -0.20651932 -0.13378143 0.21314597 0.2046104 -0.028511643 -0.1610215 -0.21517527
0.21804824 0.09690418 -0.07902183 0.15471281 0.035969317 0.23429558 0.24841711 0.08052315
0.23984568 -0.2076721 -0.2193234 0.109547086 0.008475472 -0.1658042 -0.15795149 -0.115840696
-0.23430382 0.23694478 0.0714013 -0.22409569 0.0049028806 -0.0070410646 0.24415255 -0.18772641
-0.034766946 0.09228666 0.10982691 -0.04430478 -0.10757643 0.06604328 0.2041126 -0.0850449
-0.040338416 0.16938163 -0.2520825 0.25055677 0.1223045 0.07955105 -0.10271273 -0.012979908
0.10064978 0.07606578 -0.14999712 -0.23662104 0.22119522 -0.19432995 -0.025730256 0.24704883
-0.22584562 0.05168842 0.0058309454 0.14412855 -0.21996212 0.14649603 0.17046842 0.18268217
0.04314808 0.22249955 -0.22355807 0.0188566 0.033201884 -0.12289958 0.068203874 0.17448863
0.23978028 0.019176167 -0.16451459 -0.036500946 0.1034401 -0.19957863 -0.09741173 -0.117081955
-0.04909403 -0.01281445 0.029970992 -0.09543913 -0.1286896 0.03509735 -0.125853 0.17571458
-0.00027244195 0.19241935 -0.2098364 0.1700798 0.21914423 0.23696892 0.038888443 -0.22395709
0.22973731 0.23136148 0.17121492 -0.045847837 -0.1710576 0.17585526 0.12315407 0.07243259
-0.223312 0.18013129 0.18640089 0.06997367 0.15543121 0.16969669 -0.21307026 0.10302046
-0.11039975 0.02146709 -0.15066212 -0.14500356 -0.1386097 -0.21798864 0.2018275 0.06992325
-0.051127505 -0.0036075152 -0.038696524 -0.12243256 0.15441428 -0.1629093 -0.0038425594 0.14497319
-0.024948023 0.14843126 0.008568273 -0.03869897 -0.1429509 -0.22206455 -0.18502459 -0.16111705
0.04462627 0.17342246 -0.112095505 -0.033085957 0.19131638 -0.12516478 -0.15151858 0.18365727
0.06121454 0.058161415 -0.013104731 0.02393678 -0.23124523 -0.17388998 0.19204009 -0.16193467
-0.024138875 -0.18230212 -0.06605369 0.11410641 -0.14042443 -0.19628894 -0.17198451 -0.10590021
-0.110883065 -0.24162538 -0.19569004 -0.19881454 0.2360374 0.014956361 -0.21572274 0.038368557
0.21051218 -0.052586913 -0.12364893 0.08290613 0.25901452 -0.18484713 0.004466432 0.017177
0.1721875 -0.14386174 -0.028103888 -0.12873249 -0.06728572 -0.17324837 0.14247502 0.08537258
-0.05016725 0.10247713 -0.10242903 0.012970053 -0.2146288 -0.053371273 0.1379652 -0.21574408
0.057082396 0.18270189 -0.033748776 0.23284674 -0.19811045 -0.1463375 -0.1650839 0.12794766
0.1871759 -0.11802479 0.18289977 -0.12118407 0.22881049 -0.10131884 -0.2375582 -0.044404317
0.15487316 -0.20937502 0.19659185 0.19521181 0.029454643 0.21977262 -0.19743328 -0.24396372
00000000: b85e e33d 4724 7bbc b05d 993d 48a5 033e
00000010: 1c92 223e f7e1 66be 44ef aabd b19f a63d
00000020: 90b9 df3d e992 033e 20bd 2ebe 40db 0bbc
00000030: d50f 423e e60c 2fbe 000b 893b acb3 2dbe
00000040: 36fd 6bbe c0b5 093c b030 a2bd c045 3dbc
00000050: 187f 62be 77bd 00be a009 18bd e042 4ebd
00000060: eb4a 0d3e d2e1 0dbd 22f3 72be 4d29 273e
00000070: bd98 4a3e a03d cbbd 006f d73b a051 423e
00000080: 9312 213c e892 963d 7073 423d 54b2 37be
00000090: 4b9c 00be f09d 7e3d 40e9 bcbd 1877 3ebe
000000a0: b6b7 323e cd79 53be 00fe 08be f042 5a3e
000000b0: 6485 513e 4091 e9bc d2e2 24be e856 5cbe
000000c0: 0a48 5f3e b375 c63d 32d6 a1bd 096d 1e3e
000000d0: 9054 133d 2eeb 6f3e 0e61 7e3e 52e9 a43d
000000e0: 1b9a 753e ffa7 54be 5096 60be 395a e03d
000000f0: b5dc 0a3c 94c8 29be 09be 21be e33d edbd
00000100: 57ed 6fbe a7a1 723e d83a 923d 5779 65be
00000110: 58a8 a03b bbb8 e6bb 2003 7a3e 5a3b 40be
00000120: c967 0ebd ca00 bd3d eeec e03d ee78 35bd
00000130: 0851 dcbd b341 873d e502 513e 052c aebd
00000140: e539 25bd 6172 2d3e f510 81be fa48 803e
00000150: c87a fa3d a9eb a23d 0d5b d2bd aea9 54bc
00000160: 7921 ce3d 60c8 9b3d d898 19be c94c 72be
00000170: 0081 623e 6efe 46be 42c8 d2bc 5efa 7c3e
00000180: 1344 67be 3db7 533d 8411 bf3b 6f96 133e
00000190: c03d 61be 0e03 163e 468f 2e3e 0911 3b3e
000001a0: 0bbc 303d ecd6 633e 68ec 64be 2879 9a3c
000001b0: b3fe 073d c6b2 fbbd 79ae 8b3d 26ad 323e
000001c0: f688 753e 5617 9d3c 8376 28be 0482 15bd
000001d0: 67d8 d33d 575e 4cbe cd7f c7bd aac8 efbd
000001e0: d216 49bd b3f3 51bc ba85 f53c 9775 c3bd
000001f0: 35c7 03be 3dc2 0f3d 9cdf 00be 86ee 333e
00000200: 8ad6 8eb9 9409 453e 5adf 56be 6629 2e3e
00000210: 5867 603e fba7 723e 7d49 1f3d 0255 65be
00000220: 4240 6b3e 06ea 6c3e f752 2f3e f1ca 3bbd
00000230: b929 2fbe 6713 343e 3338 fc3d 8a57 943d
00000240: e7ab 64be 5674 383e e0df 3e3e 5b4e 8f3d
00000250: 5c29 1f3e f8c4 2d3e 172f 5abe 64fc d23d
00000260: 4419 e2bd c0db af3c 2c47 1abe d07b 14be
00000270: b4ef 0dbe 6a38 5fbe deab 4e3e ec33 8f3d
00000280: 136b 51bd 106c 6cbb 3f80 1ebd ecbd fabd
00000290: c71e 1e3e b2d1 26be 73d3 7bbb da73 143e
000002a0: cc5f ccbc 5dfe 173e f161 0c3c d082 1ebd
000002b0: b961 12be e464 63be 1677 3dbe defb 24be
000002c0: 09ca 363d a895 313e 5492 e5bd 2485 07bd
000002d0: 71e8 433e 322b 00be b027 1bbe a710 3c3e
000002e0: 19bc 7a3d aa3a 6e3d 3ab5 56bc 1117 c43c
000002f0: 8dcb 6cbe 3710 32be 28a6 443e 34d2 25be
00000300: e4be c5bc 68ad 3abe 2847 87bd 9fb0 e93d
00000310: 6ccb 0fbe f8ff 48be b51c 30be 36e2 d8bd
00000320: a916 e3bd a56c 77be f862 48be 0a96 4bbe
00000330: cab3 713e 860b 753c 6ce6 5cbe 5928 1d3d
00000340: 8190 573e 6065 57bd a63b fdbd b0ca a93d
00000350: 8d9d 843e 9148 3dbe 265b 923b c8b6 8c3c
00000360: ec51 303e 7e50 13be 203a e6bc 73d2 03be
00000370: 18cd 89bd 0568 31be f9e4 113e d2d7 ae3d
00000380: 2d7c 4dbd 88df d13d 50c6 d1bd 5880 543c
00000390: a7c7 5bbe d69b 5abd c046 0d3e 04ec 5cbe
000003a0: 3bcf 693d 3416 3b3e 283c 0abd 606f 6e3e
000003b0: 77dd 4abe 7fd9 15be c10b 29be b604 033e
000003c0: 0aab 3f3e fbb6 f1bd 144a 3b3e 5b2f f8bd
000003d0: 4c4d 6a3e 4180 cfbd 7542 73be 4de1 35bd
000003e0: 1297 1e3e 6866 56be 604f 493e 9be5 473e
000003f0: dd4a f13c 130c 613e f32b 4abe a0d1 79be

arith.constant3 f4 [48, 48]
-0.11750695 0.029703941 0.059259877 -0.24228676 -0.056043915 0.019731758 0.09023547 -0.23575753
-0.15054601 0.17474267 -0.15533152 0.060335163 0.21389614 0.13929142 0.18058363 0.005555182
0.071603835 0.056470793 -0.10364249 0.09326353 0.21616226 -0.09967547 -0.034611158 -0.21939152
-0.10036725 0.10842935 0.16005093 -0.08179736 0.2477246 0.07782162 -0.1769516 -0.107539386
0.1968258 0.14975744 0.21813558 0.0016691231 -0.19061911 0.062229507 -0.09647486 -0.017929647
0.020646404 -0.13230722 0.05057006 -0.22205092 0.20641069 -0.0924756 -0.16205148 0.016624695
-0.12819725 0.22365531 -0.18236661 0.1375678 -0.13343687 -0.008722068 -0.046351075 -0.07489914
-0.08766765 -0.057501797 0.22086999 0.03366498 -0.110947214 -0.11518809 0.07297597 0.055316042
0.2118192 0.19754238 0.13457225 0.15469104 -0.14756843 -0.08839027 -0.0954654 -0.2075352
-0.240117 -0.13138096 -0.06317576 -0.1789633 -0.11960667 0.109576024 -0.24287912 0.13606149
-0.08660098 0.12740171 -0.20153171 0.13183136 -0.23729812 0.16830528 0.008468346 0.25038007
0.21694596 -0.05317231 -0.00017904054 -0.16389504 -0.1929475 0.23121373 -0.16902615 -0.20186229
-0.20503002 0.048333216 -0.0025213694 -0.064213626 0.041493647 -0.08541416 -0.18859738 0.23827004
0.15121235 0.104009256 -0.18651775 0.10975968 -0.020378573 0.2241012 0.18027313 0.14753452
0.12718081 0.163304 0.11751615 -0.076169685 0.08696382 -0.0847978 0.21104139 -0.22026253
-0.2387984 -0.05290683 -0.00077322853 0.2062965 0.026120484 -0.19959417 -0.048117954 -0.2018487
-0.08331577 -0.21455818 0.2397194 -0.10333213 -0.22397313 -0.1924562 -0.15210989 -0.19953239
0.19253814 0.027918374 -0.20396443 -0.19322872 -0.24691401 0.1012718 0.12572046 0.044443473
-0.13972631 0.10053547 0.195157 -0.085521854 -0.1077582 -0.098742336 0.22190239 0.009934664
0.12855084 -0.13173535 -0.107483216 -0.20652717 0.053771 -0.13483858 0.18295594 0.23593466
0.16439435 -0.10501205 0.23410022 0.25239468 -0.13515353 0.123762324 0.19097014 -0.18981028
-0.13352025 0.12256488 -0.056215487 -0.18054244 0.08654344 0.18747115 -0.046345804 -0.16080882
-0.22580008 0.23466027 0.24521476 -0.096870616 0.268217 0.012947773 -0.1053713 0.030836752
0.13174139 -0.018537784 -0.1672731 -0.10007489 -0.027823003 -0.20692274 -0.019711355 -0.13970466
-0.20033348 0.21284908 0.0026580095 -0.21541429 0.11295611 -0.23915309 -0.023014486 0.15346193
0.06722599 -0.18169808 -0.20655322 -0.0294016 0.031069577 -0.14562416 -0.012242019 -0.15880626
-0.020438492 -0.009465277 0.08005613 0.06964344 0.19499558 0.08724117 0.16892558 0.2107408
-0.057064414 0.008325517 -0.20474827 0.0007432103 0.040257096 -0.03156495 -0.17226195 -0.2336511
-0.18131155 0.056112707 0.054112196 0.07240713 0.032526612 0.11613989 -0.07937133 -0.018713713
0.0774827 0.08295679 0.05195582 0.0065116286 -0.1992442 -0.09426689 -0.16611093 0.020319104
-0.19489746 0.09579394 0.1755749 0.17768261 0.2127515 0.12930176 -0.0985252 -0.15347648
0.12464367 -0.13429773 -0.07111192 0.104922816 0.03182349 -0.18528922 -0.13739277 -0.043555006
00000000: 7ca7 f0bd ae55 f33c 7cba 723d 051a 78be
00000010: 4e8e 65bd 7fa4 a13c 60cd b83d 6c6a 71be
00000020: bc28 1abe beef 323e 3a0f 1fbe 0122 773d
00000030: 9707 5b3e 69a2 0e3e eaea 383e 3f08 b63b
00000040: 08a5 923d eb4d 673d 8442 d4bd f300 bf3d
00000050: a459 5d3e a722 ccbd 6ec4 0dbd 2ca8 60be
00000060: 588d cdbd 3510 de3d 64e4 233e 6085 a7bd
00000070: 84ab 7d3e f160 9f3d cd32 35be 9c3d dcbd
00000080: b48c 493e 045a 193e ef5e 5f3e 7ac6 da3a
00000090: a831 43be 5ee4 7e3d 9d94 c5bd 32e1 92bc
000000a0: a622 a93c 8b7b 07be 8d22 4f3d 5161 63be
000000b0: 535d 533e d963 bdbd d3f0 25be 8330 883c
000000c0: 2446 03be e605 653e 50be 3abe 93de 0c3e
000000d0: ada3 08be 01e7 0ebc a0da 3dbd b864 99bd
000000e0: 198b b3bd 0187 6bbd be2b 623e 4ae4 093d
000000f0: 4b38 e3bd bce7 ebbd 6d74 953d 1393 623d
00000100: 22e7 583e 8d48 4a3e 4fcd 093e 5467 1e3e
00000110: 2e1c 17be f505 b5bd 5d83 c3bd 1c84 54be
00000120: 3be1 75be bb88 06be 4b62 81bd 2842 37be
00000130: 58f4 f4bd 6569 e03d 4eb5 78be b453 0b3e
00000140: db5b b1bd 9875 023e 545e 4ebe cdfe 063e
00000150: 47fe 72be 3858 2c3e d1be 0a3c d131 803e
00000160: 1527 5e3e 35cb 59bd d4bc 3bb9 1ad4 27be
00000170: 0894 45be 4bc3 6c3e 3115 2dbe fdb4 4ebe
00000180: 64f3 51be 0df9 453d 8f3d 25bb 6f82 83bd
00000190: 3ef5 293d 9eed aebd ac1f 41be 10fd 733e
000001a0: 69d7 1a3e ce02 d53d 82fe 3ebe afc9 e03d
000001b0: f7f0 a6bc c97a 653e 8599 383e 4a13 173e
000001c0: b03b 023e 2a39 273e 4fac f03d dafe 9bbd
000001d0: 161a b23d 78aa adbd 3c1b 583e 808c 61be
000001e0: 9187 74be d5b4 58bd 7db2 4aba 643f 533e
000001f0: a0fa d53c 6a62 4cbe 5517 45bd 6db1 4ebe
00000200: 75a1 aabd 24b5 5bbe 0179 753e cc9f d3bd
00000210: 3659 65be 3d13 45be b2c2 1bbe 3852 4cbe
00000220: b828 453e 13b5 e43c 0ddc 50be c0dd 45be
00000230: 07d7 7cbe 9767 cf3d ddbc 003e 5c0a 363d
00000240: 6a14 0fbe 8ae5 cd3d 3dd7 473e 1526 afbd
00000250: 55b0 dcbd 6c39 cabd 613a 633e 00c5 223c
00000260: d5a2 033e a2e5 06be 2920 dcbd dc7b 53be
00000270: fb3e 5c3d 2013 0abe cd58 3b3e db98 713e
00000280: fe56 283e 8f10 d7bd f8b7 6f3e e039 813e
00000290: b065 0abe 1a77 fd3d ad8d 433e a05d 42be
000002a0: 88b9 08be 4c03 fb3d 3642 66bd 1ee0 38be
000002b0: b03d b13d 70f8 3f3e 19d5 3dbd 11ab 24be
000002c0: 2338 67be c84a 703e 9419 7b3e 1a64 c6bd
000002d0: bd53 893e e522 543c e8cc d7bd 5b9d fc3c
000002e0: 37e7 063e 8ddc 97bc a449 2bbe 10f4 ccbd
000002f0: 11ed e3bc 8ee3 53be b579 a1bc bd0e 0fbe
00000300: 3824 4dbe 1cf5 593e 0032 2e3b 9095 5cbe
00000310: 8855 e73d 8ce4 74be e088 bcbc 2025 1d3e
00000320: c8ad 893d 100f 3abe b082 53be a0db f0bc
00000330: a085 fe3c 801e 15be c092 48bc 1c9e 22be
00000340: a06e a7bc 4014 1bbc 78f4 a33d 38a1 8e3d
00000350: ecac 473e 80ab b23d d4fa 2c3e 70cc 573e
00000360: 60bc 69bd c067 083c 88a9 51be 00d4 423a
00000370: a0e4 243d 404a 01bd 7065 30be 3c42 6fbe
00000380: bca9 39be 70d6 653d c0a4 5d3d 304a 943d
00000390: a03a 053d c0da ed3d 708d a2bd 804d 99bc
000003a0: 40af 9e3d 40e5 a93d a0cf 543d 805f d53b
000003b0: ac06 4cbe 000f c1bd fc18 2abe 4074 a63c
000003c0: 3393 47be 9d2f c43d e8c9 333e 6ef2 353e
000003d0: 87db 593e ae67 043e 94c7 c9bd f028 1dbe
000003e0: 2e45 ff3d 5885 09be 20a3 91bd c6e1 d63d
000003f0: 5959 023d 75bc 3dbe b1b0 0cbe bc66 32bd

arith.constant4 f4 [48, 48]
0.09859329 -0.13660142 -0.14716269 -0.18269992 -0.080142185 0.13424101 0.16912045 0.31134108
0.11968169 -0.017453287 0.05938974 -0.052334204 -0.05154257 0.055343 0.033526603 -0.2315196
-0.008292889 0.016779106 0.10237332 0.052983694 0.09862502 0.034148492 0.00976462 0.16820897
0.3546834 -0.046950206 -0.16163805 0.067776494 0.1604138 -0.012874888 -0.080757044 0.07161259
0.089565784 -0.14095601 0.03481407 -0.22831574 0.15304384 0.22079226 0.10899097 -0.17348582
0.21111502 -0.041997343 -0.01688382 0.11086593 -0.108132154 -0.089563146 -0.1977644 -0.11501893
0.1443483 -0.080887884 -0.016043138 0.1015281 0.06284215 0.21693225 -0.016885553 -0.15667404
0.11827339 0.18606319 -0.10708083 -0.09154002 -0.22215869 0.050985105 -0.28788924 -0.16778965
0.2719405 -0.15487534 -0.101034515 -0.08014784 -0.16592805 -0.12643726 -0.03464812 0.22276238
0.09175267 -0.020582573 0.22898547 -0.05386471 -0.07165297 0.24715796 -0.22309846 -0.20553777
0.1343042 -0.10473917 0.009396704 0.04782633 -0.017391654 0.17489606 -0.05587941 -0.21625997
-0.17919332 0.14968923 -0.04821455 0.09109995 0.09360375 -0.00867087 -0.052887022 0.13381355
-0.087619975 -0.21517111 0.024503766 0.09455744 0.23967695 -0.20349436 0.23941441 0.017222913
-0.047192886 -0.23202254 0.03251108 -0.0011591543 -0.18863347 0.13245438 -0.0822877 0.15507291
-0.20267582 0.0977316 0.044678845 0.04034498 0.15737268 0.19035302 -0.23640287 -0.20031887
0.15986505 0.2228245 -0.13874811 -0.23871781 -0.08656567 -0.12228354 0.038413517 -0.1844622
0.20454632 0.101625785 -0.1086297 0.14979121 -0.053130172 0.20528229 -0.12076193 0.19867262
-0.13400725 0.22477506 0.016971054 -0.15233746 -0.1905754 -0.047897734 0.0792259 0.17331155
0.2127512 -0.08507213 0.12009688 -0.21558632 -0.053767145 -0.1423319 -0.16272655 -0.04574634
0.21358901 -0.10016678 -0.22111578 -0.09266827 -0.23995581 -0.22770098 0.032261293 -0.2146237
0.2440579 -0.18786755 -0.1522657 -0.102028474 0.056628097 0.16241242 0.05615568 0.08643215
0.10188059 0.1686145 0.1414635 0.2018771 0.17700963 0.12952642 -0.041640162 -0.15463676
-0.25819153 0.017233575 -0.14050436 0.13450141 0.21354653 -0.09520227 -0.13559471 -0.068298794
-0.01959289 -0.039426554 -0.074988924 0.21147978 -0.047458727 0.113120995 -0.1435755 0.13927625
0.08394724 -0.055969443 0.14652051 -0.2087375 0.012316535 -0.19910157 0.102872096 0.07055368
-0.24617645 0.17512353 -0.012942536 0.11067996 -0.16143446 0.24681877 -0.14717151 -0.2563485
-0.13752209 -0.22294159 -0.18901491 -0.20692213 -0.2007437 0.17648022 0.23268266 -0.22101228
0.04004794 0.08260532 -0.11815817 0.014104125 -0.09632235 -0.009698189 -0.20627992 0.1867576
-0.11247735 0.25592566 0.13247927 0.18820764 0.1086689 -0.040833566 0.1704828 -0.0051426557
0.15476023 -0.003360088 -0.21843964 0.16823182 -0.21103922 -0.200875 0.068176694 -0.14354983
-0.096862525 -0.07912157 -0.23886763 -0.068674706 0.14773013 0.09121563 -0.0808955 0.18679623
0.032495014 -0.062506236 -0.12452137 -0.110299125 -0.17598416 0.06386477 -0.07634146 -0.15540221
00000000: 47eb c93d 3ee1 0bbe d1b1 16be b015 3bbe
00000010: 9621 a4bd 7a76 093e e92d 2d3e 1968 9f3e
00000020: ad1b f53d 32fa 8ebc a842 733d 645c 56bd
00000030: 4d1e 53bd 57af 623d 3153 093d 7913 6dbe
00000040: e6de 07bc 5674 893c 1aa9 d13d 6e05 593d
00000050: eafb c93d 4adf 0b3d c9fb 1f3c f93e 2c3e
00000060: 1099 b53e dc4e 40bd 7284 25be 67ce 8a3d
00000070: 8443 243e 32f1 52bc f363 a5bd 9fa9 923d
00000080: 446e b73d c656 10be 3399 0e3d 9acb 69be
00000090: 86b7 1c3e 5e17 623e a836 df3d 44a6 31be
000000a0: 892e 583e 6805 2cbd f04f 8abc ad0d e33d
000000b0: 6474 ddbd e26c b7bd c082 4abe 0b8f ebbd
000000c0: 0ad0 133e 8ca8 a5bd e66c 83bc f7ed cf3d
000000d0: 63b3 803d 7d23 5e3e 9253 8abc 296f 20be
000000e0: 5239 f23d 5987 3e3e 324d dbbd 5679 bbbd
000000f0: 917d 63be c2d5 503d 3866 93be 0dd1 2bbe
00000100: c93b 8b3e a497 1ebe 2feb cebd 8d24 a4bd
00000110: 0be9 29be c578 01be 30eb 0dbd d21b 643e
00000120: d3e8 bb3d c99c a8bc 2b7b 6a3e 3ea1 5cbd
00000130: cbbe 92bd fa16 7d3e ec73 64be 7e78 52be
00000140: 0a87 093e 7d81 d6bd a2f4 193c 8be5 433d
00000150: f178 8ebc f417 333e cfe1 64bd 4173 5dbe
00000160: 747e 37be 2248 193e 9f7c 45bd 9c92 ba3d
00000170: 53b3 bf3d 4410 0ebc 10a0 58bd 6b06 093e
00000180: 1a72 b3bd d155 5cbe 1fbc c83c 55a7 c13d
00000190: e06d 753e d360 50be 0d29 753e 1117 8d3c
000001a0: 544d 41bd 5197 6dbe 572a 053d c4ee 97ba
000001b0: 2229 41be 1fa2 073e 7486 a8bd 6fcb 1e3e
000001c0: 408a 4fbe 8127 c83d 2a01 373d c740 253d
000001d0: 4e26 213e e7eb 423e 9813 72be 6420 4dbe
000001e0: aab3 233e 1b2c 643e fc13 0ebe 7172 74be
000001f0: 5849 b1bd cb6f fabd 7e57 1d3d a9e3 3cbe
00000200: 9774 513e 2e21 d03d 4079 debd de62 193e
00000210: 069f 59bd 8535 523e 0852 f7bd d670 4b3e
00000220: 3239 09be 6f2b 663e e106 8b3c 5afe 1bbe
00000230: 3326 43be 6a30 44bd 3041 a23d 9578 313e
00000240: 73db 593e 4c3a aebd 5af5 f53d a9c2 5cbe
00000250: f03a 5cbd 74bf 11be caa1 26be 8460 3bbd
00000260: 14b7 5a3e 3e24 cdbd 2d6c 62be ddc8 bdbd
00000270: fab6 75be 722a 69be 6b24 043d 51c6 5bbe
00000280: 50ea 793e 5a60 40be 8aeb 1bbe 4ef4 d0bd
00000290: ddf2 673d 714f 263e 8003 663d 5703 b13d
000002a0: c5a6 d03d 48a9 2c3e cfdb 103e dfb8 4e3e
000002b0: 0342 353e 93a2 043e e08e 2abd 1959 1ebe
000002c0: ae31 84be 6d2d 8d3c 60e0 0fbe bdba 093e
000002d0: f1ab 5a3e 68f9 c2bd 57d9 0abe 3de0 8bbd
000002e0: 4581 a0bc bd7d 21bd cb93 99bd 288e 583e
000002f0: 1564 42bd fbab e73d 7505 13be 6f9e 0e3e
00000300: 88ec ab3d 3740 65bd 7909 163e 48bf 55be
00000310: 4bcb 493c 48e1 4bbe 9bae d23d 737e 903d
00000320: ae15 7cbe 9553 333e ee0c 54bc 2dac e23d
00000330: 134f 25be 0fbe 7c3e 21b4 16be 1c40 83be
00000340: 97d2 0cbe cd4a 64be 208d 41be 65e3 53be
00000350: c28f 4dbe 3bb7 343e 5d44 6e3e 0b51 62be
00000360: 4f09 243d fa2c a93d e9fc f1bd fd14 673c
00000370: a744 c5bd 27e5 1ebc 0b3b 53be 623d 3f3e
00000380: 865a e6bd b008 833e a5a8 073e 81b9 403e
00000390: cd8d de3d 1941 27bd 0b93 2e3e b983 a8bb
000003a0: 7779 1e3e ec34 5cbb a4ae 5fbe f644 2c3e
000003b0: aa1a 58be 2db2 4dbe 39a0 8b3d bafe 12be
000003c0: dc5f c6bd 7d0a a2bd b799 74be 53a5 8cbd
000003d0: 9146 173e 43cf ba3d 8aac a5bd 8347 3f3e
000003e0: 7e19 053d 4503 80bd 0f05 ffbd 82e4 e1bd
000003f0: 3135 34be 88cb 823d e958 9cbd c221 1fbe

arith.constant5 f4 [48, 48]
-0.13677657 -0.041961096 0.14407733 0.22134037 -0.04090506 -0.1605122 0.22050257 0.012767585
-0.15768382 0.14412063 0.25964707 -0.16456354 0.107324734 -0.014109837 -0.20657164 -0.22284684
-0.20210776 -0.1104561 0.059174392 0.22442022 -0.1013841 -0.17960922 0.042407736 -0.20653369
-0.06721217 0.04633176 0.12996851 -0.16968018 -0.11781164 0.16936666 -0.13880767 0.052697543
0.16581547 -0.0747396 0.18692417 0.0077896235 0.20701312 -0.19497181 -0.20713139 0.24449876
-0.064330444 -0.0035117336 0.063135415 -0.19064967 0.20915033 -0.04294847 -0.17163028 0.13336213
-0.2117208 -0.083879784 -0.23246308 0.122851446 0.09269401 0.24223527 0.076003164 -0.059081648
0.03245214 -0.08666829 0.02083736 -0.0010546115 0.08477416 -0.20342338 -0.090704925 -0.11094822
0.006370522 -0.2474752 0.038188823 -0.006955539 -0.085393615 0.12796795 -0.02192769 -0.15906999
-0.14374986 -0.21890974 -0.09958253 0.22404923 0.15091811 -0.23040324 -0.08886058 0.18287182
-0.05602239 -0.06313951 0.052695207 0.050034985 0.108250715 -0.15296553 0.10753686 0.067449175
0.09453385 0.15037823 0.21634221 0.15474333 -0.18705972 0.175376 -0.008553132 -0.092062406
-0.099276714 0.06428577 -0.09971366 -0.010022363 -0.18506402 0.18156509 -0.17255408 -0.03421675
0.06570894 -0.11991458 -0.16618058 0.11919026 -0.24585551 -0.0869137 0.023321947 -0.056967936
-0.012435368 -0.031159097 -0.0023410441 0.111813314 -0.005551875 0.09463313 -0.1567578 0.14843768
0.24255054 -0.077431895 -0.11754982 0.18213446 -0.052070558 0.07933614 0.18855171 -0.24640158
-0.053030923 0.06266841 0.19818006 -0.082227886 0.24262856 -0.08058657 -0.22382401 -0.053560354
0.030508302 -0.1752764 -0.037764803 0.11428307 0.13138776 0.13442037 -0.10397627 -0.13353974
-0.13132967 0.15179627 0.09253088 -0.1436519 0.056267176 -0.09878159 0.12737446 0.15075903
-0.14813009 0.009917745 0.08067284 0.11031524 -0.22179438 0.10852197 0.036793213 -0.060198005
0.08971877 -0.054776557 -0.04949915 -0.10690071 -0.20786275 -0.20799448 -0.144139 0.21709992
-0.0035740256 0.1175131 -0.011198837 0.17467764 0.23775083 0.13073762 -0.22153017 0.090864904
0.0352777 0.19893028 -0.20181218 -0.052811496 -0.1660048 0.094071865 -0.24308711 -0.2262499
-0.10315295 0.14001252 0.1334675 -0.054585587 0.06048846 -0.24047342 -0.12637399 -0.12851733
-0.08881797 0.22712946 -0.22373465 0.17276758 -0.0034977477 -0.01865868 -0.21951501 -0.14510787
0.08930023 -0.10142342 -0.1604675 0.025419887 0.14447494 -0.052348107 0.0006519255 -0.05650616
-0.1637445 -0.06814672 -0.12490167 0.15270156 -0.12923615 -0.19318092 0.046149436 0.11154826
-0.18584006 -0.02651331 -0.113642596 -0.031832904 0.15728617 0.09685515 -0.07172205 0.2194914
-0.10408002 0.012434625 -0.014520576 0.18178503 0.077667356 -0.2541662 -0.13618776 0.18418449
0.17345087 -0.16177095 -0.102222055 0.22514497 0.12373585 0.12557554 0.19104825 0.10296288
-0.1015049 -0.10720933 -0.2053889 -0.2267202 0.18857872 0.027123982 -0.088973284 0.18066645
-0.14901382 -0.050709296 -0.19494386 0.14833082 -0.13527787 -0.026781438 0.05601971 -0.14625716
00000000: 280f 0cbe 66df 2bbd 0289 133e 0da7 623e
00000010: 108c 27bd 4f5d 24be 6dcb 613e 222f 513c
00000020: de77 21be 5c94 133e 76f0 843e 5883 28be
00000030: 12cd db3d f22c 67bc 8487 53be f631 64be
00000040: 56f5 4ebe cf36 e2bd d960 723d 6ace 653e
00000050: 78a2 cfbd 7beb 37be bcb3 2d3d 917d 53be
00000060: 89a6 89bd 5fc6 3d3d 7716 053e a4c0 2dbe
00000070: 3b47 f1bd 746e 2d3e 9923 0ebe 61d9 573d
00000080: 88cb 293e 1311 99bd 0d69 3f3e 1940 ff3b
00000090: 3ffb 533e b1a6 47be 401a 54be e25d 7a3e
000000a0: aebf 83bd 1d25 66bb 244d 813d ab39 43be
000000b0: 812b 563e bcea 2fbd d9bf 2fbe 1590 083e
000000c0: 56cd 58be 2ac9 abbd cd0a 6ebe 8a99 fb3d
000000d0: 5bd6 bd3d 860c 783e 8ca7 9b3d 99ff 71bd
000000e0: 89ec 043d 257f b1bd 1cb3 aa3c e43a 8aba
000000f0: 139e ad3d 384e 50be 81c3 b9bd d238 e3bd
00000100: d0bf d03b 246a 7dbe e26b 1c3d 4aeb e3bb
00000110: d9e2 aebd 080a 033e b3a1 b3bc 3ee3 22be
00000120: 2a33 13be e029 60be edf1 cbbd 296d 653e
00000130: 478a 1a3e d4ee 6bbe 89fc b5bd c042 3b3e
00000140: bc77 65bd 4a4f 81bd eed6 573d 7cf1 4c3d
00000150: 8db2 dd3d ffa2 1cbe 493c dc3d cb22 8a3d
00000160: f79a c13d c0fc 193e d088 5d3e 0975 1e3e
00000170: 958c 3fbe c495 333e 7022 0cbc 378b bcbd
00000180: 9751 cbbd 42a8 833d ad36 ccbd d634 24bc
00000190: 6c81 3dbe 33ec 393e 04b2 30be dd26 0cbd
000001a0: 6992 863d c695 f5bd 3e2b 2abe 061a f43d
000001b0: 8cc1 7bbe cfff b1bd ab0d bf3c 3657 69bd
000001c0: b7bd 4bbc 5d41 ffbc 346c 19bb 61fe e43d
000001d0: 81ec b5bb 04cf c13d 1e85 20be 0c00 183e
000001e0: 2b5f 783e 9d94 9ebd f6bd f0bd 7581 3a3e
000001f0: f047 55bd fc7a a23d b313 413e b250 7cbe
00000200: f436 59bd 4c58 803d b7ef 4a3e 1867 a8bd
00000210: 9f73 783e 920a a5bd 1f32 65be 1a62 5bbd
00000220: 8cec f93c a87b 33be 44af 1abd 3e0d ea3d
00000230: 838a 063e 7ea5 093e 83f1 d4bd a4be 08be
00000240: 497b 06be 7b70 1b3e d480 bd3d 7c19 13be
00000250: 6978 663d 014e cabd 736e 023e 9360 1a3e
00000260: 6aaf 17be 0a7e 223c cd37 a53d f5ec e13d
00000270: 111e 63be c440 de3d 7bb4 163d 2f92 76bd
00000280: 79be b73d 625d 60bd 9fbf 4abd c2ee dabd
00000290: f9d9 54be 81fc 54be 2d99 13be 714f 5e3e
000002a0: 333a 6abb b5aa f03d 547b 37bc b2de 323e
000002b0: f474 733e 15e0 053e ced8 62be 6117 ba3d
000002c0: 597f 103d 61b4 4b3e daa7 4ebe de50 58bd
000002d0: 2afd 29be c0a8 c03d d4eb 78be 0eae 67be
000002e0: db41 d3bd 715f 0f3e b4ab 083e 2395 5fbd
000002f0: bfc2 773d aa3e 76be 2f68 01be 0c9a 03be
00000300: 32e6 b5bd a094 683e b21a 65be fce9 303e
00000310: 783a 65bb 17da 98bc 8bc8 60be 2897 14be
00000320: 0ae3 b63d 15b7 cfbd 9851 24be 5e3d d03c
00000330: 3df1 133e f86a 56bd fbe5 2a3a 0173 67bd
00000340: a3ac 27be 8290 8bbd 72cc ffbd cc5d 1c3e
00000350: 7b56 04be 38d1 45be 3107 3d3d 6a73 e43d
00000360: db4c 3ebe 7132 d9bc 73bd e8bd 3863 02bd
00000370: a00f 213e fe5b c63d 03e3 92bd 5bc2 603e
00000380: e827 d5bd 99ba 4b3c b6e7 6dbc db25 3a3e
00000390: 1010 9f3d 1222 82be ce74 0bbe dc9a 3c3e
000003a0: 1b9d 313e 49a7 25be cc59 d1bd 678c 663e
000003b0: 3969 fd3d e096 003e 27a2 433e 34de d23d
000003c0: cde1 cfbd 9190 dbbd 7851 52be 5729 68be
000003d0: c81a 413e 1d33 de3c a037 b6bd a000 393e
000003e0: 1497 18be 8db4 4fbd 5d9f 47be 09e4 173e
000003f0: 4886 0abe bf64 dbbc ec74 653d 70c4 15be

arith.constant6 f4 [48, 32]
0.011685532 -0.105400085 -0.14015462 -0.17848298 0.094609275 -0.14424826 -0.022082828 -0.18842204
0.05765893 0.023377314 -0.03479884 -0.124112554 0.14472204 -0.012004874 0.060335673 -0.09133437
-0.06671463 -0.05418791 -0.06573611 -0.018824479 -0.00024773204 0.26802468 0.11185145 0.018648803
0.14212787 -0.19299482 0.028531993 0.16874203 -0.20030904 0.21171941 0.16961934 0.045886077
0.18481147 -0.05880671 -0.024375435 0.10261554 0.05676242 0.100560814 0.10202416 0.23692933
-0.16693737 0.22962953 -0.013847568 0.17931964 -0.03394719 -0.24135998 0.21185769 0.02622726
-0.12229755 0.017465439 0.23688489 0.15674998 0.12338325 -0.110489 -0.1723823 0.1232814
0.12918013 0.21306108 -0.21235064 -0.17807022 0.052104454 -0.26306775 -0.027528113 -0.06554682
-0.09940727 -0.14916192 -0.24538375 -0.08455438 0.07923979 0.2216008 -0.04656591 -0.08996056
-0.21359254 -0.18603352 0.19108692 -0.14444189 -0.012967737 0.24694093 0.077721044 -0.08441487
-0.18556464 -0.114112474 0.13073999 0.26745823 0.1681351 0.14371303 -0.19298105 0.10020544
0.12732247 0.19562732 0.05666624 0.12557435 -0.0072146836 0.06642161 -0.082954876 -0.17962515
0.22019629 -0.072295494 -0.13164788 -0.19287951 0.077892534 -0.26084977 -0.0935883 -0.120746195
0.108886704 0.011564359 -0.033877525 0.22705208 0.006782448 0.23896207 0.25070894 0.097537085
-0.19341628 0.18430062 0.13864568 -0.1826059 -0.2351465 -0.22559142 0.05220297 0.01437301
0.16355544 0.10738643 -0.14631873 -0.058349203 -0.014990323 0.07748108 -0.25262716 0.24575648
0.14371589 0.25534979 0.2620824 -0.10492807 -0.036510177 -0.18959196 0.2215226 0.25416195
0.07834371 0.16811329 -0.17017965 -0.10547731 -0.22560337 0.14846888 -0.21614389 0.060883027
0.064657494 -0.020804547 -0.1595586 -0.05815063 0.20096746 -0.19708693 0.0037984138 -0.09596051
0.031166874 -0.20139302 -0.09719719 -0.2688033 -0.12687232 -0.02883373 0.057945043 0.03341165
0.0029230474 -0.20052566 0.031023575 -0.18307628 0.20532109 0.08487086 0.11971056 0.070909254
0.0680397 -0.0651442 0.14063509 -0.1027086 0.1698841 0.11453081 0.17759356 0.24090591
0.032549318 0.14014447 0.024473848 0.06155279 -0.20568594 0.08107867 -0.24706382 0.09921165
-0.09261699 0.23118927 -0.006839452 0.07920984 0.18154651 0.24360211 0.04772135 -0.17988738
-0.2800981 0.16409181 0.23469788 0.10127022 -0.18963419 0.12254511 -0.15409045 0.18946664
-0.037284043 -0.25239193 0.023980325 -0.25261113 -0.25813296 -0.1324527 -0.10316101 0.14167091
-0.018407453 0.058110934 0.15414786 0.08332877 -0.07526855 -0.2536834 -0.1600819 0.16992359
0.24962324 -0.08577876 -0.2534463 0.26217997 0.063022465 -0.23532563 0.06855656 0.19159967
-0.22948503 0.17849296 0.2048578 0.22746721 -0.005475294 0.0066076485 0.20232783 -0.27076674
0.19097108 0.27312174 -0.037622888 0.12296076 -0.12493377 -0.047228385 0.029802645 0.19793959
0.051745012 -0.23244789 0.108139716 -0.06331174 -0.029612688 0.06754893 0.21933647 0.15233314
0.0832341 -0.08151841 0.20305869 -0.2565906 -0.19355862 -0.2687059 0.23643903 0.17436917
00000000: ac74 3f3c 00dc d7bd b184 0fbe 3ec4 36be
00000010: 82c2 c13d d1b5 13be 0ce7 b4bc b5f1 40be
00000020: c52b 6c3d c881 bf3c 3a89 0ebd b92e febd
00000030: 0432 143e 17b0 44bc 8a22 773d 840d bbbd
00000040: aea1 88bd 24f4 5dbd a7a0 86bd cb35 9abc
00000050: 08e2 81b9 883a 893e 5f12 e53d 60c5 983c
00000060: f889 113e 6fa0 45be edbb e93c b6ca 2c3e
00000070: d01d 4dbe f9cc 583e b1b0 2d3e 0af3 3b3d
00000080: 383f 3d3e 4edf 70bd feae c7bc 1928 d23d
00000090: b67f 683d d4f2 cd3d 0bf2 d03d 9a9d 723e
000000a0: a1f1 2abe 0124 6b3e e9e0 62bc 919f 373e
000000b0: 350c 0bbd 1227 77be 39f1 583e 8dda d63c
000000c0: 2377 fabd ae13 8f3c f491 723e 1183 203e
000000d0: 5bb0 fc3d 0f48 e2bd fc84 30be f57a fc3d
000000e0: cc47 043e af2c 5a3e 7272 59be 0a58 36be
000000f0: 7b6b 553d d1b0 86be a382 e1bc 693d 86bd
00000100: 0a96 cbbd e7bd 18be e145 7bbe d92a adbd
00000110: 7948 a23d 52eb 623e e5bb 3ebd 3e3d b8bd
00000120: 01b8 5abe 927f 3ebe 4aac 433e 93e8 13be
00000130: a276 54bc 15de 7c3e 362c 9f3d b4e1 acbd
00000140: a804 3ebe cdb3 e9bd b4e0 053e 49f0 883e
00000150: 9c2b 2c3e 8229 133e d39c 45be 8238 cd3d
00000160: d260 023e 8752 483e dc1a 683d 9096 003e
00000170: 2769 ecbb 0e08 883d 3fe4 a9bd a8ef 37be
00000180: 237b 613e a90f 94bd b4ce 06be 3582 45be
00000190: 1f86 9f3d 1a8e 85be 39ab bfbd c849 f7bd
000001a0: feff de3d 7078 3d3c 29c3 0abd 5780 683e
000001b0: 4c3f de3b 79b2 743e ec5c 803e 86c1 c73d
000001c0: eb0e 46be 4db9 3c3e 22f9 0d3e 0bfd 3abe
000001d0: 3eca 70be 7001 67be c8d2 553d c67c 6b3c
000001e0: 147b 273e 6bed db3d 94d4 15be 93ff 6ebd
000001f0: f999 75bc 67ae 9e3d 5958 81be 96a7 7b3e
00000200: 422a 133e 35bd 823e aa2f 863e 87e4 d6bd
00000210: b28b 15bd 6524 42be d2d6 623e 8421 823e
00000220: ab72 a03d e425 2c3e 9343 2ebe 7d04 d8bd
00000230: 9204 67be 3a08 183e d354 5dbe 7b60 793d
00000240: 266b 843d 4c6e aabc 5463 23be 5b2f 6ebd
00000250: 6aca 4d3e 28d1 49be cfee 783b f286 c4bd
00000260: ac51 ff3c f939 4ebe 520f c7bd 96a0 89be
00000270: d1ea 01be b734 ecbc c857 6d3d a8da 083d
00000280: 9990 3f3b 9956 4dbe 2725 fe3c 5978 3bbe
00000290: b13f 523e c6d0 ad3d cf2a f53d df38 913d
000002a0: 6658 8b3d 536a 85bd a502 103e e358 d2bd
000002b0: 19f6 2d3e 218f ea3d 16db 353e 0ab0 763e
000002c0: 6f52 053d 0882 0f3e 617d c83c c71e 7c3d
000002d0: 569f 52be 930c a63d 4cfe 7cbe 7a2f cb3d
000002e0: faad bdbd e1bc 6c3e 7b1d e0bb c538 a23d
000002f0: 54e7 393e d572 793e 7677 433d 6634 38be
00000300: 0569 8fbe af07 283e a454 703e c366 cf3d
00000310: 772f 42be eef8 fa3d e3c9 1dbe 8b03 423e
00000320: 27b7 18bd 8439 81be 6372 c43c 3f56 81be
00000330: 012a 84be aea1 07be 1446 d3bd 2e12 113e
00000340: 3acb 96bc bb05 6e3d f0d8 1d3e 46a8 aa3d
00000350: 6626 9abd cae2 81be 82ec 23be 7300 2e3e
00000360: 3c9d 7f3e c6ac afbd b7c3 81be 743c 863e
00000370: ec11 813d 34f9 70be 6267 8c3d b432 443e
00000380: 20fe 6abe dcc6 363e 3ec6 513e 2aed 683e
00000390: 186a b3bb f984 d83b 072f 4f3e f0a1 8abe
000003a0: ec8d 433e 9dd6 8b3e 751a 1abd dad2 fb3d
000003b0: 47dd ffbd 8d72 41bd ad24 f43c adb0 4a3e
000003c0: 94f2 533d d206 6ebe 5b78 dd3d 96a9 81bd
000003d0: 4f96 f2bc 1857 8a3d bd99 603e 38fd 1b3e
000003e0: a476 aa3d 20f3 a6bd 9eee 4f3e d85f 83be
000003f0: 3b34 46be d293 89be 131d 723e d58d 323e

arith.constant7 f4 [32, 720]
-0.048246406 0.008931121 0.052686952 -0.05323326 -0.056931764 -0.10118071 -0.0576757 -0.07623538
0.027736105 0.002962063 -0.10128288 -0.062030368 -0.07644666 -0.1123891 0.032391742 -0.022125596
0.016720584 -0.0052102404 -0.100739144 0.042512458 -0.053998493 -0.054406855 -0.07787826 0.06816033
-0.04979084 0.007562967 0.0004971019 0.085482135 -0.037711494 0.055428494 0.046100806 -0.032296818
0.040929735 0.05031014 -0.0589805 0.06080207 0.015238792 -0.061905883 0.0893603 -0.07879358
-0.04063183 0.0047653224 -0.06326939 -0.037471846 0.025633072 -0.011085105 0.054776788 -0.060899135
-0.0034984262 -0.09350718 0.090723895 -0.070810154 -0.07559611 -0.056603674 0.031278536 0.010223577
-0.0029542297 -0.06501267 -0.053367637 -0.09662658 0.068428494 0.01763932 0.050397083 -0.033312574
0.05983215 -0.096765354 -0.028096166 -0.11963354 0.09114603 0.08686633 0.060055356 0.01587859
-0.100053474 -0.06263985 -0.038682483 -0.020929417 -0.041248973 -0.06581785 -0.09420374 0.037252285
-0.055280667 -0.013756024 0.0005486371 0.06251849 0.0064727133 0.0071227355 0.029372908 -0.08317544
-0.08649623 -0.051076677 0.038773406 -0.06537087 0.10802362 0.032059316 -0.09363941 -0.009170514
0.06556064 -0.014319638 -0.028576449 0.018011615 -0.0362623 -0.058831304 0.043589354 0.01630513
-0.063577846 0.01752272 -0.01191197 -0.03608829 -0.021701006 0.040918283 0.05715099 -0.05745047
-0.08575262 -0.025889039 0.035829518 0.0039827963 -0.06583173 0.031242728 0.017508982 0.007214868
-0.03171196 0.018506214 0.054446943 0.02084244 -0.035292506 -0.0858245 0.0068047396 0.004274675
0.04967876 -0.032104958 -0.09376586 -0.09659892 -0.10670777 -0.077319086 0.044685844 0.009546892
-0.017711323 0.020144029 0.06089125 0.005028965 -0.036424372 -0.088971816 -0.036680292 0.087190256
0.054858733 -0.06337315 -0.012494193 -0.013861862 -0.06661255 -0.060271677 -0.09173703 -0.044589397
0.05648028 -0.078618325 0.05938258 -0.0760725 -0.0010385007 -0.058062423 -0.005936846 0.05673494
0.0029423542 -0.042263776 0.020192932 -0.11722147 0.06363482 -0.09354931 0.070533946 0.03983296
-0.0389081 -0.082427695 0.03420236 -0.060038794 0.049381576 -0.015366806 -0.10394508 -0.027963847
0.010831633 0.065805845 -0.020184802 0.08180043 -0.07800807 -0.1355373 -0.066679716 -0.06415641
0.061143763 -0.0005315619 -0.004654334 -0.13718003 0.041031644 -0.0018147798 0.009653705 0.010011691
-0.020996233 -0.12183339 0.003558266 -0.0933623 0.035286427 0.073755816 -0.03916588 0.018317834
-0.05837123 -0.064594865 0.057750702 -0.0721732 -0.035212956 -0.13911635 0.076981045 -0.08474478
0.017247194 0.030800242 -0.09774602 0.0042622504 0.01011857 0.035875797 0.016517375 0.04422829
-0.041354645 -0.13093331 0.08917759 0.017547326 0.05371923 0.04551445 0.06690901 0.021128984
0.049006507 -0.014492377 0.080261394 -0.07303356 0.03968274 -0.12271396 0.055239722 0.007517586
0.10027334 0.09369777 0.032662064 -0.06356673 0.0117184045 0.046697948 -0.013251377 -0.04217685
0.051306043 0.027764073 -0.029017031 0.047274396 0.032761443 -0.0045426306 0.014417102 -0.054567207
0.09217531 0.043190766 0.057107188 0.024816621 -0.09028098 0.025412124 0.0618842 0.08023258
00000000: 069e 45bd d653 123c 46ce 573d 1e0b 5abd
00000010: 4831 69bd d537 cfbd 5b3d 6cbd 4b21 9cbd
00000020: d436 e33c 2c1f 423b 666d cfbd 8e13 7ebd
00000030: 1190 9cbd 422c e6bd 34ad 043d bd40 b5bc
00000040: 9bf9 883c aaba aabb 5350 cebd 8b21 2e3d
00000050: 862d 5dbd b9d9 5ebd a37e 9fbd a597 8b3d
00000060: 7bf1 4bbd c4d2 f73b f24f 023a 4211 af3d
00000070: 5e77 1abd fd08 633d 33d4 3c3d ab49 04bd
00000080: f0a5 273d 0112 4e3d 8995 71bd 970b 793d
00000090: 20ac 793c 0691 7dbd 8802 b73d 875e a1bd
000000a0: 906d 26bd 6c26 9c3b 6293 81bd 147c 19bd
000000b0: 73fc d13c 4d9e 35bc a05d 603d 5f71 79bd
000000c0: da45 65bb b180 bfbd 73cd b93d ea04 91bd
000000d0: 22d2 9abd 41d9 67bd ec1d 003d ca80 273c
000000e0: c09b 41bb 5d25 85bd 0698 5abd 28e4 c5bd
000000f0: 3d24 8c3d 5680 903c 2c6d 4e3d c472 08bd
00000100: 8e12 753d ea2c c6bd ee29 e6bc 6e02 f5bd
00000110: c5aa ba3d f9e6 b13d 9bfc 753d d113 823c
00000120: d6e8 ccbd 5249 80bd 8671 1ebd 2b74 abbc
00000130: aff4 28bd 82cb 86bd e4ed c0bd da95 183d
00000140: fb6d 62bd f260 61bc 6ad2 0f3a b209 803d
00000150: 0e19 d43b d665 e93b 749f f03c e357 aabd
00000160: ef24 b1bd c735 51bd ddd0 1e3d 2ae1 85bd
00000170: 7d3b dd3d a150 033d 05c6 bfbd ec3f 16bc
00000180: a844 863d ea9c 6abc 2819 eabc 188d 933c
00000190: c787 14bd 18f9 70bd c08a 323d 5692 853c
000001a0: 1a35 82bd cf8b 8f3c 6c2a 43bc 51d1 13bd
000001b0: 4fc6 b1bc ee99 273d 2817 6a3d 2f51 6bbd
000001c0: 129f afbd 4015 d4bc f9c1 123d 1e82 823b
000001d0: c9d2 86bd c0f0 ff3c ff6e 8f3c b36a ec3b
000001e0: 66e4 01bd 589a 973c c203 5f3d c4bd aa3c
000001f0: e08e 10bd c1c4 afbd 4bfa de3b 9312 8c3b
00000200: f57b 4b3d 7d80 03bd 5108 c0bd a8d5 c5bd
00000210: 9a89 dabd 7859 9ebd 8108 373d 916a 1c3c
00000220: 5617 91bc 1705 a53c 1a69 793d 04ca a43b
00000230: b931 15bd db36 b6bd 133e 16bd ce90 b23d
00000240: 8db3 603d c8c9 81bd 72b4 4cbc dd1c 63bc
00000250: 296c 88bd 6fdf 76bd a0e0 bbbd 5fa3 36bd
00000260: de57 673d a502 a1bd 263b 733d e6cb 9bbd
00000270: 4d1e 88ba ddd2 6dbd e089 c2bb e562 683d
00000280: 83d4 403b c81c 2dbd a66b a53c cf11 f0bd
00000290: f952 823d c896 bfbd 1a74 903d e327 233d
000002a0: 1a5e 1fbd dacf a8bd c617 0c3d 3deb 75bd
000002b0: 5644 4a3d 0ec5 7bbc 28e1 d4bd 7014 e5bc
000002c0: 2977 313c 37c5 863d 995a a5bc fc86 a73d
000002d0: b2c2 9fbd 4aca 0abe 608f 88bd 7064 83bd
000002e0: e271 7a3d 8458 0bba 6283 98bb ec78 0cbe
000002f0: cc10 283d e8dd edba 932a 1e3c 1308 243c
00000300: 4b00 acbc c983 f9bd cc31 693b bc34 bfbd
00000310: 8088 103d 4a0d 973d 676c 20bd 480f 963c
00000320: ac16 6fbd 504a 84bd 008c 6c3d 8bcf 93bd
00000330: 763b 10bd 8474 0ebe 3da8 9d3d ac8e adbd
00000340: fd49 8d3c ca50 fc3c 112f c8bd 59aa 8b3b
00000350: 5cc8 253c 80f2 123d 724f 873c b928 353d
00000360: 7d63 29bd 6213 06be bea2 b63d 69bf 8f3c
00000370: b208 5c3d 5c6d 3a3d 9707 893d b116 ad3c
00000380: 0cbb 483d 6f71 6dbc 1660 a43d 9e92 95bd
00000390: 5e8a 223d 7551 fbbd 0c43 623d 1556 f63b
000003a0: 1c5c cd3d 9ee4 bf3d a8c8 053d 462f 82bd
000003b0: 8dfe 3f3c 5946 3f3d 4e1c 59bc a2c1 2cbd
000003c0: 4926 523d 7b71 e33c 20b5 edbc cca2 413d
000003d0: dd30 063d 59da 94bb b535 6c3c dd81 5fbd
000003e0: 69c6 bc3d cde8 303d 3ae9 693d 3a4c cb3c
000003f0: 3ce5 b8bd 162d d03c 497a 7d3d fb50 a43d

arith.constant8 f4 [3]
0.087523654 -0.067752495 -0.06884408
00000000: 9a3f b33d d2c1 8abd 20fe 8cbd

arith.constant9 f4 [32]
0.087586574 -0.0041069947 0.0 0.0824022 -0.00865721 0.0682017 -0.025383977 0.13924304
-0.0073326267 0.0 -0.05416677 0.047579866 -0.008187763 -0.028924005 -0.07319792 -0.05827387
-0.03292773 -0.085996725 0.0 0.08786306 0.09704358 0.01301477 -0.049080867 -0.07936468
0.07603269 -0.05537346 -0.0386418 0.00925302 -0.01311981 -0.023520153 -0.024061346 -0.06794919
00000000: 9760 b33d f893 86bb 0000 0000 7cc2 a83d
00000010: f8d6 0dbc 55ad 8b3d 0ff2 cfbc ba95 0e3e
00000020: 8846 f0bb 0000 0000 fadd 5dbd 1be3 423d
00000030: f825 06bc 09f2 ecbc cbe8 95bd 95b0 6ebd
00000040: 3adf 06bd 0d1f b0bd 0000 0000 8cf1 b33d
00000050: c9be c63d e73b 553c 0509 49bd f389 a2bd
00000060: 07b7 9b3d 48cf 62bd dd46 1ebd fb99 173c
00000070: 79f4 56bc 56ad c0bc 4d1c c5bc f228 8bbd

arith.constant10 f4 [48]
-0.009318904 -0.02617927 0.07056953 0.13700682 0.07868949 0.08186015 -0.07357477 0.044611078
0.08659697 0.013257298 -0.07498947 0.05431989 0.13515964 0.12786083 -0.003730297 -0.06346506
0.05646929 0.0 0.08251492 -0.011295702 0.05421553 0.078708306 0.0 0.1298276
0.0525604 0.079576865 -0.09651787 0.09306188 -0.07615364 -0.0044174343 -0.016417664 0.089228556
-0.073330455 0.08755088 0.084015876 0.080007076 -0.020994147 -0.08091621 0.11116881 0.0716004
-0.059436813 -0.02494468 -0.09194783 0.0 -0.063048474 -0.06767305 -0.045838013 6.354433e-06
00000000: 51ae 18bc e975 d6bc c286 903d 844b 0c3e
00000010: f527 a13d 4ba6 a73d 5eae 96bd 1bba 363d
00000020: c159 b13d 2335 593c 1494 99bd 887e 5e3d
00000030: 4a67 0a3e f3ed 023e 0078 74bb f8f9 81bd
00000040: 584c 673d 0000 0000 95fd a83d 9c11 39bc
00000050: 1b11 5e3d d231 a13d 0000 0000 87f1 043e
00000060: 9349 573d 32f9 a23d 29ab c5bd 3a97 be3d
00000070: 71f6 9bbd 20c0 90bb 567e 86bc 76bd b63d
00000080: 472e 96bd e04d b33d 8410 ac3d c0da a33d
00000090: ebfb abbc 66b7 a5bd 79ac e33d 3ba3 923d
000000a0: 0474 73bd c958 ccbc 254f bcbd 0000 0000
000000b0: 8f1f 81bd 2b98 8abd a4c0 3bbd 2a38 d536

arith.constant11 f4 [48]
-0.005304955 0.0035564255 -0.02972596 0.07735195 0.0 -0.047048885 -0.10748161 0.08314888
-0.060972445 0.0029907397 0.0 -0.058276307 0.097519204 -0.025344687 0.017395332 0.0025068382
-0.058123983 0.11176028 0.09560316 -0.021931516 0.0978438 -0.11075028 0.07157857 0.057394296
0.063697346 -0.08755979 0.093883336 0.022889407 -0.05791649 -0.078480646 -0.058512624 0.08084057
0.068900086 -0.010026009 0.08995458 -0.05725912 -0.07256741 -0.018734997 -0.063132286 -0.030585257
0.1075971 0.08022249 -0.083220504 -0.016934104 -0.029404944 0.104199514 0.09804287 -0.013410084
00000000: 30d5 adbb eb12 693b db83 f3bc b36a 9e3d
00000010: 0000 0000 55b6 40bd 511f dcbd f649 aa3d
00000020: 3ebe 79bd 4900 443b 0000 0000 23b3 6ebd
00000030: 26b8 c73d a99f cfbc a880 8e3c c449 243b
00000040: 6a13 6ebd 93e2 e43d 97cb c33d b9a9 b3bc
00000050: 5562 c83d 0bd1 e2bd c997 923d 4816 6b3d
00000060: c173 823d 8c52 b3bd e845 c03d 9182 bb3c
00000070: d739 6dbd 76ba a0bd efaa 6fbd be8f a53d
00000080: 7d1b 8d3d 2144 24bc 1b3a b83d 8a88 6abd
00000090: 399e 94bd 237a 99bc 804b 81bd ef8d fabc
000000a0: de5b dc3d b04b a43d 836f aabd 64b9 8abc
000000b0: a3e2 f0bc 8e66 d53d b3ca c83d f8b5 5bbc
