model/model.tflite (tflite, 127612 bytes, 12 tensors)

arith.constant f4 [3, 32]
0.43457943 0.2653688 -0.31963098 -0.36943546 -0.4054101 -0.09291111 -0.07348535 0.40870336
0.14367384 -0.19035612 0.08016184 0.13912588 -0.29635078 -0.24969073 0.17689103 -0.053262815
-0.27927744 0.30994985 -0.0109207565 0.33592415 0.12741865 0.17325757 0.047937054 -0.08945712
-0.051066373 0.1480105 -0.043813057 0.31231144 -0.19570042 0.27493724 0.3649572 -0.2916545
0.20566012 -0.35009488 0.30617785 0.1349938 0.1508238 0.15564762 -0.3148022 0.37352896
-0.2109108 -0.039407235 -0.24725884 0.28426182 -0.067892864 -0.11293315 -0.14373031 0.15352313
-0.23432031 -0.32261837 -0.15802976 0.21978699 -0.24135856 0.24809848 0.39178437 -0.23559387
-0.3178329 -0.010378892 -0.35038972 0.3284964 -0.4029212 0.38344094 0.13947168 0.16221963
-0.28387016 0.13619034 -0.1935131 0.1225972 -0.07586803 -0.024834689 -0.3805394 0.052790184
0.05596234 0.3026903 0.41864645 -0.32622233 -0.11099125 -0.2567725 -0.1768684 -0.36956382
0.32667643 -0.22021908 0.33136564 0.14632411 0.095924534 0.20410846 -0.34639937 -0.3076053
-0.062187683 0.07507041 -0.085903175 -0.06820923 0.08407383 0.3060679 0.25884634 -0.1836855
00000000: 3281 de3e 6bde 873e aca6 a3be a526 bdbe
00000010: ea91 cfbe 2e48 bebd 7d7f 96bd 9141 d13e
00000020: 3c1f 133e b7ec 42be e42b a43d 0477 0e3e
00000030: 4abb 97be edae 7fbe ec22 353e 1c2a 5abd
00000040: 74fd 8ebe bfb1 9e3e f9ec 32bc 40fe ab3e
00000050: 097a 023e 6f6a 313e a559 443d 4b35 b7bd
00000060: f92a 51bd 1190 173e 5275 33bd 49e7 9f3e
00000070: b165 48be 93c4 8c3e acdb ba3e bd53 95be
00000080: 9198 523e a33f b3be 58c3 9c3e d13b 0a3e
00000090: 8e71 1a3e 1762 1f3e c12d a1be 303f bf3e
000000a0: 00f9 57be 7b69 21bd 6c31 7dbe c48a 913e
000000b0: 6a0b 8bbd 7f49 e7bd 0a2e 13be 2b35 1d3e
000000c0: aaf1 6fbe 3c2e a5be 8ed2 21be d70f 613e
000000d0: b326 77be 870d 7e3e f697 c83e 853f 71be
000000e0: feba a2be 3a0c 2abc 4866 b3be ae30 a83e
000000f0: b04b cebe 5f52 c43e aad1 0e3e e71c 263e
00000100: 6e57 91be 7b75 0b3e 4c28 46be 3e14 fb3d
00000110: b360 9bbd 1e72 cbbc 0fd6 c2be 853a 583d
00000120: c438 653d 39fa 9a3e d458 d63e 9d06 a7be
00000130: 614f e3bd af77 83be fd1c 35be 7837 bdbe
00000140: 2242 a73e 1c81 61be c2a8 a93e fdd5 153e
00000150: 1574 c43d cf01 513e 425b b1be 717e 9dbe
00000160: 83b8 7ebd 84be 993d 01ee afbd 48b1 8bbd
00000170: e62e ac3d efb4 9c3e 8287 843e 0d18 3cbe

arith.constant1 f4 [32, 48]
0.23846117 -0.02067634 -0.1399029 0.06865825 -0.023203924 -0.23850432 0.08892555 0.0660009
-0.07873738 -0.068435125 0.03195939 0.30280292 -0.2195148 0.24673738 -0.003506127 0.03678881
-0.04948872 0.12814616 -0.2294037 0.23500414 -0.13557638 0.21819432 0.1510965 0.14628032
0.06658907 0.1587027 -0.22933426 -0.10711311 0.14801311 -0.18304804 0.30206242 0.044368688
-0.08460452 0.15020765 0.20330429 -0.22003211 0.063684806 -0.1532716 0.21984984 -0.1513969
-0.083880626 0.31506902 -0.08075536 0.283801 0.3355257 0.108698554 0.21939167 -0.25881308
-0.06771437 -0.14617102 0.18526243 0.25002187 -0.008204275 0.21535441 0.1693418 0.13331349
0.063450225 0.17192632 -0.016316172 -0.01984906 0.11360095 -0.061306562 0.027245456 -0.26938936
0.07818248 0.022603586 0.012473298 -0.23388518 0.24189809 0.1207648 0.0460256 0.120251186
-0.21429096 -0.05062808 -0.029613828 0.13140616 -0.21257913 0.18698087 -0.19021054 0.11492106
-0.0064596725 0.02137579 0.27616584 -0.07809715 0.2645607 0.102092795 -0.26298404 -0.2634597
0.036213156 0.14211935 -0.16029792 0.20842582 0.22473174 0.23437878 0.2060305 0.047747903
0.13557938 0.16838372 0.098526016 0.19136688 0.2447907 -0.025224147 0.007037438 -0.22146514
-0.19158342 -0.27886087 0.044968173 0.019398684 -0.09226535 -0.13978542 -0.04188823 -0.09947594
-0.09144459 0.21121085 0.19218774 0.062376074 -0.17688586 0.011771291 -0.24219233 0.2026242
0.12591472 -0.20030358 0.011784388 0.23817685 -0.048914257 -0.16055472 0.19601528 0.08096926
-0.04132903 0.17035133 0.09467174 -0.22864684 -0.17365772 0.12288599 0.24805214 -0.119962595
0.097939394 -0.19945352 0.14023909 0.07412388 -0.22563234 -0.22143142 -0.21917665 0.23280153
-0.17487302 0.0659773 0.17187893 0.05067707 -0.11698673 -0.22349831 -0.26413655 -0.1502894
0.033506278 0.2715393 -0.1912394 -0.093740456 0.07416986 0.07591467 0.102977775 0.09129371
0.025730021 -0.22374155 0.06215475 0.2575279 0.16105916 0.23679326 -0.01837328 0.102801666
0.2028549 0.19337815 -0.22713032 0.2175925 -0.22154513 -0.021486104 -0.18830138 0.05125103
0.2317847 0.028812492 -0.08808734 0.008188795 -0.19618574 0.011427507 -0.2437745 0.013772252
-0.0064018234 0.24685986 0.1067012 -0.02275082 -0.21962354 0.2685155 0.004208417 0.12036371
0.25536498 0.27193558 0.15080662 0.07800053 0.051891275 0.14897674 -0.20472464 0.1052792
0.24007931 0.23091206 0.0014069726 0.059081115 -0.15431248 0.14742503 -0.1677563 0.03725876
-0.25713217 0.0018181518 0.052279845 0.23435804 0.053706795 -0.21718518 0.05308643 0.24951366
0.18711759 0.013708608 -0.016397461 0.07899496 -0.21693414 0.10692148 0.1721819 -0.1874844
0.14247662 -0.24622408 0.24008808 -0.058110964 -0.35414955 0.19788122 0.18058482 0.09672187
0.03627791 -0.036759924 0.22242896 0.16157372 0.23112908 -0.2152429 0.17978495 -0.2579967
-0.09504151 -0.111389816 -0.085884534 0.1494371 0.008033558 -0.052912418 -0.2502828 -0.08180555
-0.09443628 -0.06316255 -0.10811534 -0.1584737 -0.25290173 -0.026006985 0.19117396 0.13572963
00000000: 2a2f 743e 6e61 a9bc b542 0fbe b29c 8c3d
00000010: 2816 bebc 7a3a 74be 991e b63d 7b2b 873d
00000020: 1041 a1bd b727 8cbd d9e7 023d fc08 9b3e
00000030: 7dc8 60be b9a8 7c3e 0dc7 65bb ddaf 163d
00000040: afb4 4abd bf38 033e cee8 6abe eda4 703e
00000050: 89d4 0abe 556e 5f3e 0ab9 1a3e 82ca 153e
00000060: da5f 883d f682 223e 9ad6 6abe 1e5e dbbd
00000070: c090 173e f270 3bbe eda7 9a3e f1bb 353d
00000080: 2245 adbd 09d0 193e 002f 503e 1950 61be
00000090: 2e6d 823d 3bf3 1cbe 5120 613e ca07 1bbe
000000a0: 9bc9 abbd ba50 a13e 1163 a5bd 5d4e 913e
000000b0: 06ca ab3e 599d de3d 36a8 603e 2683 84be
000000c0: d5ad 8abd dbad 15be 6fb5 3d3e de02 803e
000000d0: 396b 06bc de85 5c3e f067 2d3e 5583 083e
000000e0: 31f2 813d 740d 303e 7ea9 85bc 7f9a a2bc
000000f0: 9da7 e83d 971c 7bbd dd31 df3c 67ed 89be
00000100: 231e a03d 282b b93c ce5c 4c3c 997f 6fbe
00000110: 22b4 773e 8953 f73d 5785 3c3d 4146 f63d
00000120: 176f 5bbe 645f 4fbd b398 f2bc 568f 063e
00000130: 58ae 59be ea77 3f3e 8dc6 42be bc5b eb3d
00000140: a9ab d3bb 481c af3c 9c65 8d3e 66f1 9fbd
00000150: 8074 873e 0716 d13d d8a5 86be 31e4 86be
00000160: 3f54 143d bc87 113e 2325 24be 946d 553e
00000170: 1420 663e fe00 703e a9f9 523e 4e93 433d
00000180: 52d5 0a3e c86c 2c3e 02c8 c93d aef5 433e
00000190: 6aaa 7a3e dfa2 cebc 4f9a e63b c2c7 62be
000001a0: 722e 44be dac6 8ebe 8c30 383d fde9 9e3c
000001b0: 9ef5 bcbd e923 0fbe fe92 2bbd 0bba cbbd
000001c0: 4d47 bbbd a847 583e ddcc 443e 0e7e 7f3d
000001d0: 9121 35be 5fdc 403c 4401 78be b87c 4f3e
000001e0: caef 003e 621c 4dbe 4e13 413c a2e4 733e
000001f0: 515a 48bd 7568 24be 3bb8 483e 36d3 a53d
00000200: a148 29bd 9470 2e3e 42e3 c13d 6622 6abe
00000210: 54d3 31be a6ab fb3d 6101 7e3e f3ae f5bd
00000220: 7394 c83d 8b3d 4cbe d69a 0f3e 43ce 973d
00000230: 2a0c 67be ebbe 62be d86f 60be 8663 6e3e
00000240: ea11 33be 1b1f 873d 0801 303e c292 4f3d
00000250: bd96 efbd bedc 64be e83c 87be 77e5 19be
00000260: e13d 093d 3307 8b3e 43d4 43be fffa bfbd
00000270: 5ee6 973d 2779 9b3d 03e6 d23d 32f8 ba3d
00000280: c4c7 d23c 811c 65be fb95 7e3d b2da 833e
00000290: b1ec 243e ef79 723e 9083 96bc ae89 d23d
000002a0: 32b9 4f3e ec04 463e da94 68be 91d0 5e3e
000002b0: badc 62be a003 b0bc 14d2 40be 9aec 513d
000002c0: f858 6d3e 2d08 ec3c 2367 b4bd 4c2a 063c
000002d0: eae4 48be 703a 3b3c 06a0 79be 03a5 613c
000002e0: 63c6 d1bb d5c8 7c3e 2986 da3d ed5f babc
000002f0: fee4 60be dd7a 893e c3e6 893b 4081 f63d
00000300: 33bf 823e 243b 8b3e 0d6d 1a3e bebe 9f3d
00000310: f28b 543d 5c8d 183e 56a3 51be 9f9c d73d
00000320: 5ad7 753e 3674 6c3e 2b6a b83a 0aff 713d
00000330: 1704 1ebe 96f6 163e 4fc8 2bbe a49c 183d
00000340: d4a6 83be 0d4f ee3a 6423 563d 8efb 6f3e
00000350: a8fb 5b3d cb65 5ebe 2871 593d 8280 7f3e
00000360: c19b 3f3e 129a 603c f853 86bc 1cc8 a13d
00000370: fc23 5ebe a6f9 da3d 7450 303e e9fb 3fbe
00000380: 64e5 113e 2a22 7cbe a6d9 753e c305 6ebd
00000390: 1753 b5be 60a1 4a3e 3aeb 383e 1e16 c63d
000003a0: 2598 143d 9391 16bd 6bc4 633e 9573 253e
000003b0: 1aad 6c3e a368 5cbe 8c19 383e 2518 84be
000003c0: 20a5 c2bd 5820 e4bd 3be4 afbd 0a06 193e
000003d0: 2f9f 033c b1ba 58bd 1125 80be ab89 a7bd
000003e0: cf67 c1bd 5e5b 81bd 936b ddbd ee46 22be
000003f0: 567c 81be 9a0c d5bc 1bc3 433e b5fc 0a3e

arith.constant2 f4 [48, 48]
-0.07113643 -0.08898734 0.07875493 0.20954522 0.10486464 -0.17046636 0.26355937 0.18022442
0.14460354 0.2173754 0.15614632 -0.019708797 0.0042779045 0.059056584 -0.15744357 -0.1358018
0.091608845 -0.010135225 -0.12808943 0.09050769 -0.010584931 -0.06324311 0.25246254 -0.061777342
0.18396975 -0.14300968 0.064413026 -0.1111521 -0.2052002 0.15224864 -0.123636164 -0.09716319
-0.11642512 -0.16969849 -0.13251066 -0.15383162 -0.21277788 0.17339684 0.020072225 0.23331253
0.022672324 0.23493169 0.11675574 0.06025013 -0.17537065 0.17610668 0.049630664 -0.21407218
0.00392827 0.10118947 0.12653515 -0.22027735 -0.12939632 0.0917615 0.118967295 0.14257428
-0.19613831 0.1790454 0.15137376 0.009333345 -0.24254666 0.13806355 -0.1971106 0.12764059
-0.13496748 -0.1433709 -0.23481172 0.033642113 -0.2419228 -0.043795165 -0.08196779 0.1436962
-0.21588121 0.15825826 0.07649936 -0.09629529 0.24790174 0.10465892 -0.22139269 0.14002344
-0.15858778 0.15300733 0.240673 -0.035885803 0.10339032 0.1198385 0.10108756 -0.054264285
-0.14991641 -0.22058305 -0.015195834 0.2366958 0.1442034 -0.22711535 0.22296032 -0.08064272
0.06790088 -0.20209628 -0.033948123 -0.15317675 -0.12669629 0.06694133 0.0033605706 -0.07596223
-0.16296762 -0.022888154 0.07594269 -0.13168554 -0.068855874 -0.18717213 -0.008360253 0.08077723
0.015157349 0.17139454 -0.05860463 -0.2074907 0.0032795435 0.09601259 0.10865352 0.1836645
-0.15100418 0.11534949 0.20364828 -0.18036935 0.14954793 -0.21330786 -0.014014822 0.17546076
0.11878823 0.2360412 -0.18897031 -0.20097558 -0.08625395 -0.08618281 -0.031794716 -0.045907002
0.075486176 0.17711288 -0.016931769 0.23123635 -0.005627928 0.029221509 -0.1642942 -0.13888264
-0.07899647 -0.03746203 0.17011859 0.016396197 -0.008818147 0.066479586 -0.15281564 0.024376364
0.13735007 -0.19449566 -0.14279628 -0.06636389 0.095991366 0.05440557 0.103592224 -0.16477984
0.17657833 -0.22615235 -0.05082911 -0.115844525 -0.12715966 -0.044245236 0.121588714 -0.15702963
-0.13055897 -0.116345115 0.05474192 -0.01395709 0.056004133 -0.12983947 -0.08527721 0.0635774
-0.0977817 0.092262596 0.14543882 0.025667608 -0.11593116 -0.11175378 0.23153272 0.1250096
-0.026920589 0.0029143647 0.0461744 -0.14311858 -0.061226144 -0.14314264 -0.18995558 -0.23041955
0.06866156 0.15414327 0.19399793 -0.21439317 0.18604833 0.13249059 -0.19575334 -0.11410843
-0.17214951 0.25027904 -0.22438967 -0.23964842 0.24583928 -0.061169956 0.17525624 0.20243374
-0.05199689 -0.24336635 0.11786364 -0.20495014 -0.032733936 0.19814824 0.21206225 0.076143496
-0.20892136 0.2039631 -0.0030472556 0.13759828 0.1418022 -0.1526284 0.09977983 -0.15120731
0.024750995 0.12315686 0.19035076 0.25807226 -0.048384458 -0.15877442 -0.138454 -0.21507487
-0.12914689 -0.23517787 0.08868632 -0.19293195 -0.1851159 0.049649883 -0.10438691 -0.17439792
0.042092223 -0.1957964 0.053552378 -0.037234142 0.092509516 -0.15629451 0.20990568 -0.15999922
-0.21311384 -0.24674559 0.05171287 0.14302388 0.21799357 -0.042586528 0.14026786 0.19965054
00000000: faaf 91bd ff3e b6bd 444a a13d 0693 563e
00000010: 46c3 d63d bc8e 2ebe 41f1 863e c08c 383e
00000020: f312 143e a897 5e3e d2e4 1f3e 5874 a1bc
00000030: aa2d 8c3b 51e5 713d e338 21be a10f 0bbe
00000040: 6b9d bb3d 370e 26bc e029 03be 195c b93d
00000050: 6b6c 2dbc 9b85 81bd c542 813e 3d0a 7dbd
00000060: 9162 3c3e 2171 12be faea 833d b6a3 e3bd
00000070: 0020 52be 11e7 1b3e f534 fdbd 7ffd c6bd
00000080: 4b70 eebd 71c5 2dbe e0b0 07be 0986 1dbe
00000090: 72e2 59be f18e 313e 826e a43c 7be9 6e3e
000000a0: 4fbb b93c ef91 703e a21d ef3d d7c8 763d
000000b0: 5d94 33be 4f55 343e 8649 4b3d bd35 5bbe
000000c0: b8b8 803b 6d3c cf3d 6e92 013e 6390 61be
000000d0: 7880 04be 74ed bb3d 20a5 f33d fefe 113e
000000e0: 7bd8 48be ad57 373e b901 1b3e e3ea 183c
000000f0: 275e 78be 8860 0d3e 5cd7 49be 37b4 023e
00000100: ea34 0abe d2cf 12be 7c72 70be 50cc 093d
00000110: 9cba 77be 8f62 33bd bbde a7bd 1925 133e
00000120: f70f 5dbe 740e 223e b2ab 9c3d 7736 c5bd
00000130: f4d9 7d3e 6a57 d63d c4b4 62be 4e62 0f3e
00000140: d664 22be f4ad 1c3e fc72 763e fefc 12bd
00000150: 4ebe d33d e36d f53d ff06 cf3d 3a44 5ebd
00000160: b083 19be 86e0 61be f3f7 78bc 6260 723e
00000170: 0eaa 133e ed90 68be b64f 643e 0328 a5bd
00000180: 9e0f 8b3d 54f2 4ebe 300d 0bbd 5eda 1cbe
00000190: acbc 01be 8918 893d 053d 5c3b 1692 9bbd
000001a0: fce0 26be f07f bbbc d787 9b3d 93d8 06be
000001b0: 4f04 8dbd 0daa 3fbe 71f9 08bc 886e a53d
000001c0: 8856 783c 0d82 2f3e 690b 70bd 7178 54be
000001d0: 9ced 563b 40a2 c43d bd85 de3d 8c12 3c3e
000001e0: d7a0 1abe 5a3c ec3d 2d89 503e beb2 38be
000001f0: 1823 193e 606d 5abe 6d9e 65bc fcab 333e
00000200: 3e47 f33d c9b4 713e 6f81 41be 8bcc 4dbe
00000210: e9a5 b0bd 9d80 b0bd 2d3b 02bd fb08 3cbd
00000220: 7f98 9a3d 145d 353e 7eb4 8abc 39c9 6c3e
00000230: 7b6a b8bb f261 ef3c bd3c 28be 4037 0ebe
00000240: e7c8 a1bd c971 19bd 9133 2e3e 5151 863c
00000250: fd79 10bc 7326 883d b47b 1cbe f1b0 c73c
00000260: 7fa5 0c3e df29 47be 3039 12be cbe9 87bd
00000270: 1f97 c43d 60d8 5e3d 2928 d43d 0cbc 28be
00000280: f3d0 343e 7b94 67be 2f32 50bd e53f edbd
00000290: 2436 02be 7e3a 35bd 8103 f93d 60cc 20be
000002a0: 40b1 05be 5946 eebd 1039 603d 47ac 64bc
000002b0: 9764 653d a3f4 04be d1a5 aebd de34 823d
000002c0: c641 c8bd 2cf4 bc3d eaed 143e e044 d23c
000002d0: 516d edbd 2adf e4bd ea16 6d3e 8402 003e
000002e0: 9188 dcbc edfe 3e3b 5e21 3d3d ad8d 12be
000002f0: 44c8 7abd fc93 12be b783 42be 1af3 6bbe
00000300: 6f9e 8c3d bcd7 1d3e 65a7 463e e289 5bbe
00000310: 7483 3e3e 9dab 073e 9073 48be aeb1 e9bd
00000320: f647 30be 9324 803e 68c6 65be 6566 75be
00000330: 4bbd 7b3e 598d 7abd 5f76 333e ca4a 4f3e
00000340: b1fa 54bd 0735 79be 7e62 f13d 73de 51be
00000350: 0514 06bd 5fe7 4a3e d926 593e 1ff1 9b3d
00000360: 7bef 55be b4db 503e 77b4 47bb 90e6 0c3e
00000370: 9934 113e 9f4a 1cbe 5e59 cc3d 17d6 1abe
00000380: 99c2 ca3c aa39 fc3d 4feb 423e 0c22 843e
00000390: c82e 46bd c395 22be e3c6 0dbe 963c 5cbe
000003a0: 153f 04be 78d2 70be 2ca1 b53d f48f 45be
000003b0: 068f 3dbe ad5d 4b3d cec8 d5bd 5e95 32be
000003c0: e568 2c3d da7e 48be bd59 5b3d d482 18bd
000003d0: a175 bd3d ab0b 20be 84f1 563e d6d6 23be
000003e0: 843a 5abe e0aa 7cbe e0d0 533d da74 123e
000003f0: b539 5f3e 366f 2ebd 61a2 0f3e 3171 4c3e

arith.constant3 f4 [48, 48]
-0.09683108 -0.077291414 0.19758774 -0.20959581 0.16403897 -0.233676 0.10808725 -0.11057776
0.21822359 -0.020143028 -0.08467642 -0.14191514 -0.23691486 0.06791504 -0.015188292 0.15004389
0.17297456 -0.1926004 -0.23731719 0.22198835 0.22994585 0.2202888 -0.19380791 -0.12508343
-0.03350885 -0.11158798 0.21691422 -0.1092514 -0.0031020571 0.22623113 0.21462607 0.011982242
0.13135487 0.21451302 0.21652861 -0.23304586 -0.18910372 -0.24647367 0.046558946 0.03621638
-0.24832933 -0.059116613 -0.113593936 -0.031006198 -0.14103627 0.054600056 0.240506 -0.19147968
-0.12742653 0.07865084 -0.031365052 -0.043049257 -0.1028998 -0.077298805 0.23389961 0.17846476
-0.060382992 0.2386992 -0.08880406 0.14119986 0.18626846 -0.01510845 -0.042809155 -0.24357282
0.082632445 0.14731619 -0.24240892 -0.21172616 0.027885603 0.1654709 0.18955822 0.16292758
0.14414856 -0.048289664 0.11677177 -0.1514851 -0.023227388 -0.18740726 0.03313763 0.15049782
-0.038117282 -0.031460963 0.117907025 0.19256236 -0.22875057 0.030646779 0.19789842 0.057314653
0.1463106 -0.09312926 -0.10339809 0.18947908 -0.14622821 0.010351442 0.10523271 -0.051998753
-0.05868077 -0.16109969 0.22436336 -0.09060273 -0.22822338 0.22324604 -0.017466798 -0.20814878
0.03728833 -0.00432057 -0.07846821 0.049627934 0.15313444 0.23871203 -0.10000536 0.053028364
0.040675234 0.2382992 -0.11646356 -0.17073411 -0.13762245 -0.16064134 -0.09450238 0.08603016
0.14309347 -0.20005436 -0.21291326 -0.232599 -0.15845582 0.011559389 -0.20416954 0.061717194
0.034905706 0.06120482 0.18898217 0.04453873 0.090118065 0.11941216 0.13490923 -0.21400407
0.21994157 -0.23148784 0.08365552 -0.07717503 -0.0009894372 -0.23192759 -0.13493803 -0.05683879
0.09229922 0.034716353 0.15149832 0.20624249 -0.20471498 0.16607778 0.0635223 -0.03131942
-0.21801202 0.015157677 0.11387055 0.03635156 -0.027129576 -0.069059834 0.07083324 0.2295402
0.09353028 0.099812075 0.033886418 0.21540518 -0.21071552 0.12181819 0.11513356 0.10185095
-0.16927521 -0.18143608 0.0518283 0.15447906 -0.23660854 -0.13880219 -0.01827413 -0.10458158
-0.23373908 0.11211551 0.09317576 0.12404494 0.03919528 -0.18884614 0.031679004 -0.21734871
-0.023562906 -0.029612502 -0.020688001 0.012934138 0.18135601 -0.18604831 -0.16300732 0.06754555
-0.08135921 -0.23556252 -0.13977997 0.11518218 0.2044276 0.06803779 -0.24252294 0.021282215
0.016060364 0.071351565 0.0121592395 -0.022122126 -0.08000238 -0.20950988 0.12698217 0.016950106
-0.09640341 -0.0025533063 -0.17033716 -0.08298272 -0.01568547 0.21044642 0.22331883 -0.24853253
0.10025964 0.065463506 0.0033714296 -0.20419398 -0.2380924 -0.0980375 -0.20348504 0.10445058
-0.012508332 -0.07664596 0.17929605 0.14955232 0.23921342 -0.07236355 -0.234542 -0.22965014
-0.09486312 -0.20909671 0.20604424 -0.051552743 -0.26443273 -0.07899798 -0.1832763 0.021165013
-0.19339025 -0.026644919 0.21971044 -0.20473489 -0.016519533 0.10046962 0.08163605 -0.24137613
0.16142882 0.07324992 -0.22677761 -0.18247232 0.020033732 0.039587315 -0.034322925 0.15210837
00000000: 604f c6bd f64a 9ebd 7154 4a3e 49a0 56be
00000010: d5f9 273e c348 6fbe d95c dd3d 9876 e2bd
00000020: 0176 5f3e fe02 a5bc d56a adbd 3452 11be
00000030: cf99 72be 0a17 8b3d 50d8 78bc 1ba5 193e
00000040: 3e20 313e 0a39 45be 4703 73be ea50 633e
00000050: ed76 6b3e 6393 613e 9575 46be df15 00be
00000060: 9340 09bd 3d88 e4bd c31e 5e3e 33bf dfbd
00000070: e24b 4bbb 22a9 673e f0c6 5b3e 2a51 443c
00000080: e481 063e 4da9 5b3e adb9 5d3e 93a3 6ebe
00000090: 68a4 41be 9863 7cbe 98b4 3e3d a057 143d
000000a0: 0b4a 7ebe 4324 72bd f0a3 e8bd b600 febc
000000b0: d06b 10be 4fa4 5f3d 3447 763e 4013 44be
000000c0: 1a7c 02be b113 a13d a478 00bd 6b54 30bd
000000d0: 21bd d2bd d64e 9ebd 6183 6f3e 77bf 363e
000000e0: 2854 77bd 906d 743e e7de b5bd b296 103e
000000f0: 29bd 3e3e 6f89 77bc a758 2fbd 276b 79be
00000100: 333b a93d 0eda 163e 0b3a 78be bece 58be
00000110: 5970 e43c 3471 293e 8d1b 423e 7dd6 263e
00000120: ae9b 133e 62cb 45bd 0a26 ef3d e91e 1bbe
00000130: 5d47 bebc b0e7 3fbe 53bb 073d 1a1c 1a3e
00000140: de20 1cbd 36dd 00bd 3d79 f13d 112f 453e
00000150: 973d 6abe f40e fb3c e2a5 4a3e c5c2 6a3d
00000160: 72d2 153e 8eba bebd 61c2 d3bd ce06 423e
00000170: d9bc 15be 1899 293c 3f84 d73d a5fc 54bd
00000180: 3f5b 70bd 51f7 24be 82bf 653e ed8d b9bd
00000190: 64b3 69be 9c9a 643e 8816 8fbc f424 55be
000001a0: a6bb 183d 9193 8dbb f1b3 a0bd a946 4b3d
000001b0: 46cf 1c3e ed70 743e 9ccf ccbd 4534 593d
000001c0: 139b 263d b504 743e 7284 eebd ecd4 2ebe
000001d0: e6ec 0cbe 2a7f 24be 778a c1bd 9530 b03d
000001e0: 1887 123e 0ddb 4cbe ef05 5abe 6f2e 6ebe
000001f0: 3e42 22be 9763 3d3c d211 51be 2bcb 7c3d
00000200: 49f9 0e3d e8b1 7a3d 8b84 413e 3e6e 363d
00000210: d28f b83d 5d8e f43d a525 0a3e e223 5bbe
00000220: 5d38 613e 260b 6dbe 9653 ab3d f10d 9ebd
00000230: 01b0 81ba 6d7e 6dbe 322d 0abe cbcf 68bd
00000240: 6007 bd3d bc32 0e3d 6022 1b3e 3b31 533e
00000250: cea0 51be 4b10 2a3e fb17 823d cb48 00bd
00000260: 8b3e 5fbe e857 783c f734 e93d 60e5 143d
00000270: d83e debc 3e6f 8dbd 0511 913d 960c 6b3e
00000280: ce8c bf3d 466a cc3d 7ccc 0a3d 2d93 5c3e
00000290: cfc5 57be d17b f93d 25cb eb3d 3b97 d03d
000002a0: 7b56 2dbe 61ca 39be e949 543d c22f 1e3e
000002b0: 8249 72be 2922 0ebe a1b3 95bc de2e d6bd
000002c0: 4c59 6fbe d19c e53d efd2 be3d 460b fe3d
000002d0: 3b8b 203d e260 41be d8c1 013d a990 5ebe
000002e0: ff06 c1bc eb95 f2bc e279 a9bc b5e9 533c
000002f0: 64b5 393e 7383 3ebe 64eb 26be 5255 8a3d
00000300: a89f a6bd 4d37 71be 7b22 0fbe a3e4 eb3d
00000310: 7855 513e 6657 8b3d ef57 78be 0a58 ae3c
00000320: 0691 833c c520 923d 8c37 473c 7639 b5bc
00000330: 4ad8 a3bd c289 56be 9d07 023e f3da 8a3c
00000340: 276f c5bd 5f55 27bb dd6c 2ebe d8f2 a9bd
00000350: d17e 80bc 447f 573e b1ad 643e 507f 7ebe
00000360: ed54 cd3d bb11 863d 34f3 5c3b 3a18 51be
00000370: 7ece 73be e3c7 c8bd 625e 50be 30ea d53d
00000380: bfef 4cbc 8ff8 9cbd 6299 373e 3e24 193e
00000390: 5df4 743e 5733 94bd c72b 70be 6829 6bbe
000003a0: 9847 c2bd 731d 56be 43fd 523e f828 53bd
000003b0: ba63 87be b1c9 a1bd c8ac 3bbe 4062 ad3c
000003c0: 1808 46be 7246 dabc c6fb 603e 06a6 51be
000003d0: f953 87bc 04c3 cd3d cd30 a73d 4e2b 77be
000003e0: 994d 253e 0e04 963d 6438 68be 06da 3abe
000003f0: c81d a43c 4f26 223d 3296 0cbd 4cc2 1b3e

arith.constant4 f4 [48, 32]
-0.122334056 0.24053976 0.22666179 -0.023381103 -0.15128163 -0.111987166 -0.05901912 -0.08675811
-0.17589122 0.24191348 -0.07994458 -0.0019424176 -0.18693505 0.047954727 -0.2442354 -0.19898711
0.22882734 0.0854187 -0.1180493 -0.048108745 0.0021526325 -0.13976711 0.031405885 -0.052311756
0.12051652 -0.036658395 0.17542802 -0.21566838 -0.16959246 0.20010598 -0.25655138 -0.25253722
0.22011931 0.18658835 0.066539586 -0.022594316 -0.079640046 -0.1606172 0.15394333 0.06786104
-0.08902719 -0.04122671 0.13383229 -0.1359411 0.06918183 0.043365013 -0.06878787 -0.15137155
0.10059777 0.10118802 0.0371026 -0.13974777 -0.08167109 0.023159113 0.025396781 -0.20562755
0.059399735 0.22743371 0.002175133 -0.13149107 -0.2272116 -0.15807746 -0.003707892 -0.046970908
-0.04343612 0.2596474 -0.17945631 -0.0017323288 0.19311495 -0.14086665 0.21271576 -0.024945894
0.08768005 -0.13677658 -0.08883238 0.16658798 0.048650812 0.092359096 0.28198382 -0.22268118
0.27555606 0.16238105 0.10440024 -0.12569365 0.27771363 -0.25747064 0.22111318 -0.01641816
0.04462837 -0.0072119203 0.17167427 -0.19210611 -0.20393112 0.20489559 0.20459652 0.21057302
-0.050683673 -0.18136919 0.14161396 0.0033011078 0.06804714 0.0076354602 0.028780201 0.04444637
-0.22262712 0.04612555 -0.040638942 -0.0034009982 0.063385315 0.22628778 -0.11234188 0.07736905
0.15200369 0.06681324 0.030921783 -0.17401916 -0.21812013 0.24352999 0.037863042 -0.03600963
-0.18672569 0.106656246 0.081459135 -0.08518962 0.13168892 0.223547 -0.18339238 -0.15419574
-0.23148 -0.11646475 -0.22832495 0.021263838 0.17404662 0.093469664 -0.057358146 -0.07473703
-0.25870547 -0.004008084 -0.15949287 0.0034319144 0.08647535 0.255881 0.18354522 0.22280087
0.05709716 0.2304533 -0.1834348 -0.19866475 -0.22451529 -0.04092639 -0.11060034 -0.21570742
-0.073346876 0.076955795 -0.18521918 0.2086821 -0.15207034 0.11100976 0.18304318 0.22286753
-0.014322544 0.1495077 0.09788151 -0.20491022 -0.27786857 0.11958716 -0.021779737 0.21471606
0.22079647 -0.19858468 -0.24329077 0.15529571 0.041456558 0.15150437 0.17173108 0.09033527
-0.057934277 -0.23523308 0.00021210556 -0.029397583 0.08274642 0.019206693 -0.116840295 0.23657057
0.2600249 -0.038822908 -0.19411752 0.09297545 0.035720814 -0.07943388 -0.21861549 -0.14860308
0.08938118 0.0068726595 0.15675038 -0.05421024 0.2029925 -0.18499535 0.006174244 0.24046114
0.097374804 0.17038994 0.21979384 -0.21140414 -0.12579109 -0.27777362 0.008163605 -0.0063575455
0.2380887 -0.24811348 -0.26666224 0.12659901 -0.014600873 0.16791248 0.1115594 -0.22444385
0.004205186 0.08776895 -0.040261336 0.18099943 -0.07986309 0.08918247 -0.261757 0.16715595
-0.04527154 -0.012253332 0.03543544 0.064155325 -0.038585186 0.06803852 -0.018539524 -0.06174657
0.24393643 0.19212411 0.049961735 0.2390281 -0.013321271 -0.21605818 0.06767272 0.27168685
-0.18862443 0.20232931 -0.10877411 -0.14541818 -0.10758471 0.18682408 -0.12293203 0.02907928
0.05730556 0.24037322 -0.26671344 0.094441816 0.22624175 0.082310036 0.10016499 0.07815348
00000000: 478a fabd 0e50 763e 071a 683e ba89 bfbc
00000010: 92e9 1abe 8759 e5bd 08be 71bd 3cae b1bd
00000020: d41c 34be 2bb8 773e fcb9 a3bd b898 feba
00000030: e76b 3fbe 2d6c 443d d818 7abe 47c3 4bbe
00000040: b751 6a3e 00f0 ae3d d5c3 f1bd ad0d 45bd
00000050: 2e13 0d3b 1c1f 0fbe 75a3 003d da44 56bd
00000060: 5ed1 f63d 1d27 16bd 67a3 333e 2cd8 5cbe
00000070: a5a9 2dbe 95e8 4c3e b45a 83be 8f4c 81be
00000080: f566 613e 0411 3f3e e845 883d b717 b9bc
00000090: 521a a3bd d678 24be 52a3 1d3e bbfa 8a3d
000000a0: e353 b6bd 57dd 28bd 550b 093e 2534 0bbe
000000b0: 34af 8d3d 839f 313d a8e0 8cbd 2501 1bbe
000000c0: 3406 ce3d aa3b cf3d e5f8 173d 0a1a 0fbe
000000d0: 2c43 a7bd 2eb8 bd3c e90c d03c 0790 52be
000000e0: 234d 733d 62e4 683e ad8c 0e3b 98a5 06be
000000f0: 28aa 68be 0fdf 21be 1b00 73bb 9164 40bd
00000100: 13ea 31bd 81f0 843e 65c3 37be 4f0f e3ba
00000110: edbf 453e 593f 10be 29d2 593e 555b ccbc
00000120: 9991 b33d 290f 0cbe c0ed b5bd 0a96 2a3e
00000130: 1346 473d c426 bd3d 2f60 903e 8906 64be
00000140: af15 8d3e 3847 263e cbcf d53d d6b5 00be
00000150: 7b30 8e3e 31d3 83be 7e6b 623e 617f 86bc
00000160: 3dcc 363d f951 ecbb 61cb 2f3e 77b7 44be
00000170: 52d3 50be 26d0 513e c081 513e 74a0 573e
00000180: af99 4fbd d8b8 39be 4003 113e 6657 583b
00000190: 4d5c 8b3d e232 fa3b 75c4 eb3c 660d 363d
000001a0: 5df8 63be 25ee 3c3d 0575 26bd 48e3 5ebb
000001b0: 29d0 813d fcb7 673e 8013 e6bd aa73 9e3d
000001c0: dba6 1b3e 61d5 883d ae4f fd3c 1432 32be
000001d0: e25a 5fbe ed5f 793e 4716 1b3d d57e 13bd
000001e0: 0535 3fbe 976e da3d 0cd4 a63d e577 aebd
000001f0: 76d9 063e 81e9 643e 36cb 3bbe 7de5 1dbe
00000200: 1809 6dbe 1285 eebd 04ce 69be 8031 ae3c
00000210: 4739 323e 066d bf3d 60f0 6abd ba0f 99bd
00000220: 0b75 84be 3f56 83bb 1952 23be f8e9 603b
00000230: fd19 b13d d602 833e 47f3 3b3e e925 643e
00000240: b6de 693d f3fb 6b3e 55d6 3bbe c66e 4bbe
00000250: 56e7 65be 6ea2 27bd 6e82 e2bd 68e2 5cbe
00000260: e336 96bd 009b 9d3d 19aa 3dbe c3b0 553e
00000270: 54b8 1bbe 1659 e33d ac6f 3b3e 6337 643e
00000280: 1ba9 6abc 8c18 193e 1a76 c83d fcd3 51be
00000290: ca44 8ebe 1dea f43d 6b6b b2bc 87de 5b3e
000002a0: 7818 623e c859 4bbe 3721 79be d705 1f3e
000002b0: 5ace 293d f623 1b3e 46da 2f3e b301 b93d
000002c0: 7e4c 6dbd f1e0 70be a768 5e39 33d3 f0bc
000002d0: f476 a93d 5b57 9d3c f749 efbd 8e3f 723e
000002e0: fc21 853e c504 1fbd bec6 46be ea69 be3d
000002f0: fd4f 123d 3bae a2bd bddc 5fbe 682b 18be
00000300: 7b0d b73d 0c34 e13b 2c83 203e 8e0b 5ebd
00000310: 44dd 4f3e 6c6f 3dbe 5051 ca3b 723b 763e
00000320: 716c c73d b37a 2e3e a311 613e 547a 58be
00000330: 61cf 00be 5838 8ebe a4c0 053c f552 d0bb
00000340: 86cd 733e 7611 7ebe f487 88be 2ca3 013e
00000350: 8038 6fbc 40f1 2b3e 4179 e43d 9cd4 65be
00000360: a8cb 893b 35c0 b33d 12e9 24bd ea57 393e
00000370: 428f a3bd 4da5 b63d 0305 86be ee2a 2b3e
00000380: a66e 39bd 33c2 48bc c024 113d de63 833d
00000390: 800b 1ebd c857 8b3d 33e0 97bc f9e9 7cbd
000003a0: 79ca 793e 2fbc 443e ada4 4c3d c8c3 743e
000003b0: 7641 5abc 5b3e 5dbe ff97 8a3d 8a1a 8b3e
000003c0: c326 41be 6a2f 4f3e f6c4 debd 81e8 14be
000003d0: 5f55 dcbd d04e 3f3e cac3 fbbd ac37 ee3c
000003e0: 3cb9 6a3d 6624 763e aa8e 88be b66a c13d
000003f0: ebab 673e 2a92 a83d 4d23 cd3d ef0e a03d

arith.constant5 f4 [32, 720]
-0.0031422551 0.04387354 0.0011090987 -0.05599488 0.038001582 -0.016869834 0.009413895 -0.06272284
0.012477229 0.047130544 0.031294104 -0.08252988 0.023663316 0.02295536 0.017318124 -0.08761978
0.06376127 0.0157733 -0.045638293 0.0379452 -0.04082464 -0.041104183 -0.007926727 0.07617033
-0.046752553 0.037251893 0.032487955 0.037463985 0.035492815 0.02175121 -0.053751804 0.030539094
-0.07249677 0.07137664 0.027941627 0.029175004 0.00082054094 0.0347559 -0.08042365 0.054278184
0.046054546 -0.045440264 0.025250083 -0.035849866 0.054425336 -0.067097984 -0.03421194 -0.0039804485
0.09605158 0.048470363 -0.025337867 0.027006038 0.041006196 0.059559666 0.026341578 0.030611077
-0.09003006 0.036841653 -0.07110569 -0.029428668 -0.029491803 0.057436686 0.06845925 -0.069254294
0.04079634 0.04076118 0.10529823 0.0051346687 0.033796716 -0.062432177 -0.03784793 0.038110085
-0.0062482688 -0.033048615 -0.0554691 -0.09400277 0.022107553 0.061068367 0.040269807 0.011956709
0.07548142 0.046695042 0.055525217 0.01731839 -0.05104824 0.07201619 -0.07134738 0.028923096
-0.019141559 0.058564022 -0.062124748 0.04204718 -0.009653875 0.029312445 -0.04270224 0.059810426
-0.006634443 -0.047578495 -0.013277557 0.020179031 0.020174557 -0.022229517 -0.071908206 0.07458491
-0.018259138 0.029998975 -0.024087511 0.0535638 0.10573187 -0.06840851 0.05517175 0.07348798
-0.0665232 0.0039113057 -0.056476608 -0.031368542 -0.013133101 -0.06303087 0.010536759 0.07005806
-0.0004273866 0.010528476 0.0696192 -0.07059637 -0.039531376 0.054586284 -0.030563587 -0.0030636024
0.06161326 -0.09461385 0.037498113 0.07284054 -0.05221727 -0.0077150664 -0.017435418 -0.032598723
0.036850452 0.0009686637 0.102816515 -0.0375108 -0.040718514 -0.0857287 -0.035808224 -0.0020950309
-0.05081733 -0.047862306 -0.0324242 -0.04023688 0.005419792 -0.044911344 -0.014075611 0.057815522
0.010964321 0.01946261 0.050591547 -0.06979017 0.029974226 0.08346561 0.03917094 -0.07220811
-0.083379306 0.009754554 0.03341989 0.010943662 -0.06561226 -0.06329514 0.08181058 0.020831626
-0.008900148 0.03527951 0.020581214 -0.041453786 0.04119652 0.02652322 -0.053514287 0.017181506
0.012676218 0.053166118 -0.044860084 0.06871722 0.083253555 0.020210164 -0.045658868 0.06981283
0.06814094 -0.055524096 0.02595926 0.021792553 0.0035135245 -0.03721819 0.08828711 0.047092598
0.055535585 -0.012603854 0.058467057 0.005529995 -0.017641988 0.043700494 -0.02486083 -0.06822896
0.01879021 -0.059901316 0.05550871 -0.050232343 0.0026122218 0.013136032 0.030699087 -0.0061462615
-0.03032603 0.045333877 0.07736267 -0.03694036 0.053985868 0.073917836 -0.005619014 -0.065112606
0.09855137 -0.0054993234 0.07936961 -0.08507333 -0.08122203 0.047557753 -0.008945556 0.031843334
0.027631847 0.017547779 0.011940776 0.021957833 0.0003980049 0.021221131 -0.091935456 -0.05538935
0.0028516457 0.078876525 0.039674614 0.026245935 0.058527958 -0.029602755 -0.03926829 0.035717808
-0.05490176 0.010073881 0.025823204 0.06051703 -0.02148755 -0.061593883 0.031314395 -0.04778963
-0.066943124 -0.04658794 0.030652428 0.06216574 0.088294305 -0.039828338 0.023611719 0.0375124
00000000: 4bee 4dbb beb4 333d 2d5f 913a e35a 65bd
00000010: 8ca7 1b3d 9b32 8abc bd3c 1a3c d574 80bd
00000020: 4b6d 4c3c f50b 413d 3f2e 003d 6d05 a9bd
00000030: 92d9 c13c e10c bc3c bdde 8d3c 0072 b3bd
00000040: 4595 823d 0237 813c 38ef 3abd 6d6c 1b3d
00000050: bd37 27bd dc5c 28bd 1adf 01bc 31ff 9b3d
00000060: 9b7f 3fbd 7195 183d 1712 053d d673 193d
00000070: ea60 113d 982f b23c da2a 5cbd 1f2d fa3c
00000080: 3079 94bd ea2d 923d d7e5 e43c 6b00 ef3c
00000090: 9219 573a 345c 0e3d 28b5 a4bd cd52 5e3d
000000a0: b1a3 3c3d 921f 3abd 43d9 ce3c 4fd7 12bd
000000b0: 1aed 5e3d ab6a 89bd d221 0cbd 6c6e 82bb
000000c0: b1b6 c43d dc88 463d 5c91 cfbc c43b dd3c
000000d0: 1df6 273d d6f4 733d 4bca d73c 15c4 fa3c
000000e0: ae61 b8bd 46e7 163d dc9f 91bd 6414 f1bc
000000f0: cb98 f1bc bb42 6b3d 5d34 8c3d 32d5 8dbd
00000100: 101a 273d 32f5 263d 99a6 d73d b940 a83b
00000110: 6d6e 0a3d e2b8 7fbd 6e06 1bbd 5219 1c3d
00000120: 47be ccbb fc5d 07bd 9133 63bd 8684 c0bd
00000130: e61a b53c d322 7a3d f4f1 243d 13e6 433c
00000140: 0196 9a3d 4d43 3f3d 696e 633d 4cdf 8d3c
00000150: f617 51bd 397d 933d 931e 92bd 21f0 ec3c
00000160: c2ce 9cbc d4e0 6f3d 8576 7ebd aa39 2c3d
00000170: 492b 1ebc a720 f03c 8be8 2ebd c7fb 743d
00000180: be65 d9bb abe1 42bd 1c8a 59bc 7f4e a53c
00000190: 1d45 a53c ad1a b6bc 9c44 93bd f9bf 983d
000001a0: 3094 95bc 69c0 f53c 2c53 c5bc b765 5b3d
000001b0: f389 d83d c319 8cbd c6fb 613d de80 963d
000001c0: 513d 88bd 692a 803b 0454 67bd 4d7c 00bd
000001d0: 382c 57bc 5416 81bd 5fa2 2c3c 9a7a 8f3d
000001e0: dc12 e0b9 a17f 2c3c 8394 8e3d d494 90bd
000001f0: a7eb 21bd de95 5f3d 7d60 fabc b8c6 48bb
00000200: 305e 7c3d e8c4 c1bd 9f97 193d 6c2d 953d
00000210: c7e1 55bd abce fcbb b9d4 8ebc 3d86 05bd
00000220: 80f0 163d eced 7d3a 7791 d23d eda4 19bd
00000230: 75c8 26bd 8792 afbd a5ab 12bd c94c 09bb
00000240: d525 50bd 440b 44bd 3dcf 04bd 6dcf 24bd
00000250: 8398 b13b f5f4 37bd 649d 66bc f8cf 6c3d
00000260: b2a3 333c 0d70 9f3c 1539 4f3d 26ee 8ebd
00000270: 828c f53c 05f0 aa3d b571 203d d8e1 93bd
00000280: c5c2 aabd 91d1 1f3c 4be3 083d 0c4d 333c
00000290: b85f 86bd e2a0 81bd 4e8c a73d 16a7 aa3c
000002a0: edd1 11bc 3f81 103d ef99 a83c 72cb 29bd
000002b0: afbd 283d 3947 d93c cc31 5bbd 3bc0 8c3c
000002c0: e9af 4f3c b7c4 593d 35bf 37bd 9dbb 8c3d
000002d0: d780 aa3d c98f a53c cb04 3bbd 07fa 8e3d
000002e0: 7a8d 8b3d 3c6d 63bd 84a8 d43c 4c86 b23c
000002f0: 2943 663b 1a72 18bd dfcf b43d 2be4 403d
00000300: 4879 633d 6580 4ebc 277b 6f3d f634 b53b
00000310: ee85 90bc 4aff 323d f0a8 cbbc a0bb 8bbd
00000320: eded 993c 155b 75bd 1a5d 633d 6ec0 4dbd
00000330: cf31 2b3b 8338 573c a77c fb3c 9466 c9bb
00000340: 4b6e f8bc 04b0 393d 5270 9e3d c64e 17bd
00000350: 4920 5d3d 3c62 973d b51f b8bb c259 85bd
00000360: 4dd5 c93d ab33 b4bb 898c a23d ed3a aebd
00000370: bc57 a6bd ebcb 423d 6290 12bc 286e 023d
00000380: 2f5c e23c 5cc0 8f3c 3fa3 433c eae0 b33c
00000390: 50ab d039 f0d7 ad3c a848 bcbd f1df 62bd
000003a0: ade2 3a3b 048a a13d d981 223d b701 d73c
000003b0: 03bb 6f3d 7a81 f2bc c9d7 20bd d64c 123d
000003c0: abe0 60bd eb0c 253c 2f8b d33c b5e0 773d
000003d0: a906 b0bc de49 7cbd 8643 003d 0fbf 43bd
000003e0: 7a19 89bd ffd2 3ebd cd1a fb3c 81a1 7e3d
000003f0: a5d3 b43d 0a23 23bd 5d6d c13c 9aa6 193d

arith.constant6 f4 [3]
0.078612186 -0.07825894 -0.07642121
00000000: 6dff a03d 3946 a0bd b982 9cbd

arith.constant7 f4 [32]
0.11047173 0.113639146 -0.055487312 -0.049558662 -0.0642875 -0.04611965 0.08028981 0.12058388
-0.008651686 -0.08886453 -0.007332671 -0.005345872 -0.033656567 -0.08832173 0.09519672 0.039301444
-0.06154676 -4.072897e-05 -0.055779412 0.07949611 0.05792695 -0.058836333 -0.021748146 0.108789146
0.068281844 0.076520175 0.07870127 0.085568845 -0.02482512 0.0 0.07881142 -0.062365446
00000000: 013f e23d a4bb e83d aa46 63bd 06fe 4abd
00000010: 2aa9 83bd f5e7 3cbd fc6e a43d aef4 f63d
00000020: cdbf 0dbc 9bfe b5bd e746 f0bb 6d2c afbb
00000030: 78db 09bd 06e2 b4bd 7ff6 c23d 8dfa 203d
00000040: 7518 7cbd 66d4 2ab8 f478 64bd dbce a23d
00000050: cf44 6d3d 5efe 70bd 2b29 b2bc d8cc de3d
00000060: 5ad7 8b3d 9cb6 9c3d 222e a13d b83e af3d
00000070: 0d5e cbbc 0000 0000 e267 a13d e972 7fbd

arith.constant8 f4 [48]
0.11835232 -0.059895597 -0.026893957 -0.029513888 0.022194233 0.008495043 0.060890384 0.00529581
-0.044829562 -0.048965536 -0.05106579 0.06200544 -0.0664235 -0.017547766 -0.021705423 -0.04504136
0.0423138 0.032236584 -0.016473876 -0.028998682 0.020322897 0.09869814 0.08455511 -0.014820826
-0.022666164 0.014042646 0.013222196 -0.055421494 0.06818601 -0.035140797 -0.05389099 -0.019306356
-0.0059890286 0.10589165 0.032039445 0.08354999 0.12472474 -0.04019788 -0.03378524 -0.06265235
-0.060313396 0.11291988 -0.07703267 0.089313224 0.09667181 0.08432507 0.061401997 -0.058352925
00000000: b362 f23d 1655 75bd b750 dcbc 1cc7 f1bc
00000010: aed0 b53c cb2e 0b3c 3268 793d 7988 ad3b
00000020: 349f 37bd 1690 48bd 5d2a 51bd 6bf9 7d3d
00000030: 0b09 88bd 55c0 8fbc 92cf b1bc 4a7d 38bd
00000040: 3c51 2d3d 820a 043d 39f4 86bc a58e edbc
00000050: 347c a63c 4022 ca3d 3b2b ad3d 0dd3 72bc
00000060: 64ae b9bc 2013 663c e9a1 583c a601 63bd
00000070: 1ba5 8b3d ccef 0fbd ccbc 5cbd 5d28 9ebc
00000080: 9d3f c4bb b9dd d83d cb3b 033d 421c ab3d
00000090: af6f ff3d 88a6 24bd 6462 0abd e04f 80bd
000000a0: 2e0b 77bd 8a42 e73d 4ec3 9dbd dae9 b63d
000000b0: dffb c53d 9fb2 ac3d a980 7b3d 7a03 6fbd

arith.constant9 f4 [48]
0.058930058 0.0012167946 0.006506074 0.08686179 0.01937929 -0.021427067 0.10764238 0.098073795
0.020602314 0.09178997 0.053311873 0.04851437 -0.034455143 0.00887889 -0.0079002185 0.009835663
-0.036602642 -0.0082536135 -0.03986381 -0.08500748 -0.07502537 -0.05664099 0.0728981 -0.061570562
0.051136024 -0.0171091 0.11323884 0.05846 -0.07119326 -0.0395001 0.010342726 0.0601138
-0.053731374 0.0375284 -0.072787404 0.059340917 0.0013445741 -0.014616731 0.022106001 0.029311331
-0.053025696 0.06053506 0.081717476 -0.055473592 -0.053937558 0.09108586 0.022768196 0.028735733
00000000: a560 713d da7c 9f3a e830 d53b 98e4 b13d
00000010: 51c1 9e3c d187 afbc 9c73 dc3d eada c83d
00000020: 2fc6 a83c 61fc bb3d 8d5d 5a3d 01b7 463d
00000030: d620 0dbd c478 113c eb6f 01bc c325 213c
00000040: a7ec 15bd 2a3a 07bc 3c48 23bd 6718 aebd
00000050: e7a6 99bd 6200 68bd 994b 953d 6a31 7cbd
00000060: 0274 513d 6228 8cbc c4e9 e73d c173 6f3d
00000070: c6cd 91bd dbca 21bd 8974 293c e339 763d
00000080: 6e15 5cbd 61b7 193d 9011 95bd 760f 733d
00000090: 6c3c b03a 037b 6fbc a517 b53c 511e f03c
000000a0: 7931 59bd 9cf3 773d 7e5b a73d 4738 63bd
000000b0: a1ed 5cbd 398b ba3d 5e84 ba3c 3367 eb3c

arith.constant10 f4 [48]
0.004436974 -0.06151047 0.06312328 -0.06819815 0.08607086 0.029817738 0.029144183 -0.03179314
0.0658047 -0.021751853 0.00588281 -0.054105047 -0.07179934 -0.0168199 -0.018792585 0.025307085
-0.010995747 0.007824839 -0.041091226 0.064268164 0.012093924 0.022395134 0.045509446 0.049121227
-0.021012533 -0.026297485 -0.04765463 0.043240678 -0.040407725 -0.014826503 -0.036858782 0.024709413
0.085583925 0.013565245 0.090696454 0.03205201 0.02768506 0.04879113 -0.012897345 -0.039501224
-0.056871984 -0.03784355 -0.04034458 -0.0067756386 -0.024852639 -0.041960537 0.034227353 0.003081093
00000000: 0964 913b 67f2 7bbd c746 813d 79ab 8bbd
00000010: eb45 b03d 5444 f43c c8bf ee3c 8639 02bd
00000020: 9dc4 863d f130 b2bc 96c4 c03b 419d 5dbd
00000030: 880b 93bd e3c9 89bc e8f2 99bc ce50 cf3c
00000040: 8127 34bc c133 003c 464f 28bd 079f 833d
00000050: 9825 463c 0076 b73c 1d68 3a3d 5733 493d
00000060: 7a22 acbc d36d d7bc 8031 43bd 231d 313d
00000070: 9282 25bd dcea 72bc 3cf9 16bd 656b ca3c
00000080: a046 af3d c340 5e3c 10bf b93d f848 033d
00000090: c7cb e23c 35d9 473d 634f 53bc 09cc 21bd
000000a0: 99f2 68bd d701 1bbd 5c40 25bd 2d06 debb
000000b0: c397 cbbc d0de 2bbd fb31 0c3d 2aec 493b

arith.constant11 f4 [32]
-0.021373129 -0.010269956 -0.0584392 -0.025920495 0.009499746 -0.015525042 -0.009690445 -0.025234489
-0.0054580835 -0.018787105 -0.01706313 0.061222956 0.018362192 0.045380954 0.028511358 -0.029136842
-0.004270904 -0.013781893 -0.014162299 0.041508835 0.014974125 -0.0052712807 0.005498806 -0.0056535355
-0.03078851 0.06614068 0.005063369 0.06335293 -0.016165268 0.06807368 0.040666576 0.055577066
00000000: b316 afbc 5143 28bc f15d 6fbd 3857 d4bc
00000010: d3a4 1b3c bf5c 7ebc acc4 1ebc 8fb8 cebc
00000020: b9d9 b2bb 6ae7 99bc fac7 8bbc ecc4 7a3d
00000030: 4f6c 963c 61e1 393d a790 e93c 63b0 eebc
00000040: f1f2 8bbb 73cd 61bc fd08 68bc 2b05 2a3d
00000050: 0856 753c b5ba acbb 542f b43b 4b41 b9bb
00000060: 2f38 fcbc c474 873d 9eea a53b 2ebf 813d
00000070: 066d 84bc 376a 8b3d ff91 263d c7a4 633d
