model/model.tflite (tflite, 195632 bytes, 6 tensors)

arith.constant f4 [3, 32]
00000000: 14b7 613e 98fa 4f3c 1db6 be3d 9d33 eabc
00000010: eeed c6bb ea0d bd3a 994e f7bd 1de6 c4be
00000020: 7698 823e 11d0 4f3e a608 c5bd 3506 163d
00000030: 0227 63be f947 803e 791e a13e f881 88bd
00000040: 58c7 993e ac7e 963e 7215 7f3e 3f44 dd3d
00000050: f72c b6bd 6850 e3bd e5d0 f23c 5cd6 c7be
00000060: 2369 a9be 308a d0bd d021 3e3e 382c c83e
00000070: 2fa6 323e 4d5b 533e f55b 703e 33ee d3bd
00000080: 9691 093e 142f 013e b1d4 debb 79a5 c9be
00000090: d6b6 593e eb51 6c3b 8786 3e3e a5af 8a3e
000000a0: 693f e93d 3a52 8e3d dd12 96be 1dd4 ccbe
000000b0: 4a09 983e 47f5 16be c834 0f3e 736f 8cbe
000000c0: 2b33 0fbe 650b 2abe 83fb 3a3e 2e21 62be
000000d0: 932f 13be e2d4 9e3e 0b8a 033d f831 a2be
000000e0: 1134 9fbe 21ce 0ebe 13b3 e4bd 8d95 b03e
000000f0: b0cc 913e df97 6e3d 8303 13be 2e4c aebe
00000100: d759 cf3e fbda 1fbe 3096 a4be b019 22bd
00000110: 977b dcbc 08f6 4dbe ed8a c83e bb54 c03e
00000120: ff4f d4be 1464 84bd f97f a7be f4ca 8e3e
00000130: 088f cd3d 15c5 b13e c99b da3d 0fd0 68bd
00000140: 7e8c 563e 4fca 15be 4d4c 723e 3ff0 e03d
00000150: f898 1bbd e8a2 febb 725e c2be dd22 9f3e
00000160: 95b7 aabe 7752 f0ba ea72 163e be20 553e
00000170: b6d7 56bd 0db9 3ebe f587 543e c7bb 67be
0.22042495 0.012694024 0.09312079 -0.028589064 -0.006070844 0.0014423702 -0.12075538 -0.38456813
0.25506943 0.20294215 -0.0962079 0.036627013 -0.22182849 0.2505491 0.3146856 -0.066654146
0.300349 0.29393518 0.24910524 0.108040325 -0.08895295 -0.11099321 0.029640624 -0.3903073
-0.33088025 -0.10182607 0.18567586 0.39096236 0.17446207 0.20640297 0.23472579 -0.10348167
0.13434443 0.12615615 -0.006800257 -0.39384058 0.21261153 0.003605957 0.18606006 0.2708713
0.11389048 0.06949277 -0.29311267 -0.4000558 0.29694587 -0.14742003 0.13984978 -0.2742878
-0.13984363 -0.16605909 0.18260007 -0.2208297 -0.14373617 0.31021792 0.03211407 -0.31678748
-0.3109441 -0.1394582 -0.11166968 0.34489098 0.28476477 0.058250304 -0.14356808 -0.34042495
0.4049823 -0.15610878 -0.32145834 -0.03957528 -0.026914401 -0.20113385 0.39168492 0.37564644
-0.41467282 -0.06464401 -0.32714823 0.27889216 0.10037047 0.34720674 0.10674245 -0.056839045
0.20952031 -0.14627956 0.23661919 0.10983323 -0.03798768 -0.007770885 -0.3796268 0.31081286
-0.33343187 -0.0018335123 0.14692274 0.20813271 -0.05245181 -0.18625279 0.20754988 -0.22630225

arith.constant1 f4 [32, 64]
00000000: 3609 ff3d b723 6dbe 94f4 62be cb5c 4abd
00000010: 6305 073e c68e 683e 7684 2d3e 2c3f 4c3e
00000020: 7224 db3d 76fe d5bd dcf8 5ebe 0499 613e
00000030: 5fed 603e 64bc d1bc 14ee 5dbe 5df4 9dbd
00000040: 595a ed3d 85f6 593e 90c0 57bd 0e4b a4bd
00000050: ccd8 d5bd fa8d 163b 419a 04be 1290 07be
00000060: e409 013e 8af1 89bd b8ca 83bb f681 5e3e
00000070: d896 f83c 87f7 01be b2fd 03be 3203 163c
00000080: f713 923d 4d3d b1bd 192e 523c 87b1 cabc
00000090: 8d03 bdbd b299 05be 93e0 80be f624 153e
000000a0: aa9f 01be 68e4 183e a3dc d83c 5fa3 5c3d
000000b0: 60cd 6fbd 6a4a efbd 7ef4 51be 4489 55be
000000c0: c08a 1ebe 63dc 6abd 13d7 423c 96d3 0abe
000000d0: 55c7 1fbe 1d3c d3bd 1e00 473e 5ee7 c5bd
000000e0: 5104 0b3e c077 293e ccb8 a1b9 9e21 583c
000000f0: 4899 4d3e 0d85 29be d893 473d 1d3e 0cbe
00000100: 49c3 a1bd d4d1 77be 8d12 43be a14a 6f3e
00000110: d1d8 c83d f338 23be d68f 283c 7ec8 693e
00000120: a55f 1b3e d1bc 833e 90df 853d 5a5d 2d3d
00000130: 5f49 7ebe 8e79 ac3d 0177 22bd b69c 5bbe
00000140: d334 0d3e 5a2e b13d f6e8 22be ba0e 41be
00000150: 4eb8 6f3d e4da 563e e734 993d c2cf 943d
00000160: 9156 0d3d 1949 563e 950e 8f3d bdd6 12be
00000170: ba90 debd d16b 203e 4db6 edbd d634 e0bd
00000180: 7553 e63d a20b 4e3d 27f0 87bd abbb 45be
00000190: 3c1c 2d3e 0c7b 413e a1b2 61be 5aa7 c53d
000001a0: f98b 6cbe 284e c93c dce0 5abb e5f9 4bbe
000001b0: 6a6c 0a3d fda9 433e 4d22 143c fb7d 033e
000001c0: dab1 963d a0ee fbbd 4b4c 093e 64b6 323e
000001d0: bc2d a53d 2e40 b0bd df4b 023e 3e87 2ebd
000001e0: 55f2 28be 5cd3 17be c96e 5e3e c1b8 1e3e
000001f0: 4fb4 003e 0127 0dbc bae6 fd3d 4e30 8d3c
00000200: 3639 53be 4a1c 8d3e eed1 093e be73 48be
00000210: f614 55be 518f 6f3d 591d 263e af95 32be
00000220: 9b16 103e fda1 70bc 6c57 b9bd 1693 72bd
00000230: 3113 603e 47b5 f8bd 03cf 993d 59ef 99bd
00000240: 3a2f 4dbe fdf1 073e ca15 11be 0471 90bb
00000250: 793d a23d 55f0 efbd 210c 033e 5c69 6a3e
00000260: 28f8 103e 323c 803d 8aaf 363e 9b39 133c
00000270: e152 78bc 552f 25be 30bb 9fbd 673c 043e
00000280: c611 2fbe de41 07be 39dd e83d b42d 56be
00000290: 881e 7cbd 3741 1cbe e1b3 7dbe 0022 c93d
000002a0: 5bab 63bd 60fa 833e 806a 50be fec4 9ebd
000002b0: 2ea7 993d 9872 62bd fe71 5ebe 44cd ecbd
000002c0: 3c45 3d3b 0300 5abe 6ef4 633e 079f 43bd
000002d0: b689 f3bd 1e95 29be 452f ae3d 4b00 24be
000002e0: 19ba 4fbd f51f 1d3e 9583 05be cd88 443e
000002f0: 8e3e 69bd 776f 183e 1f68 29be 9dee 4bbe
00000300: 8403 e9bd 723f 5abd 50b5 08be 13bc 333d
00000310: 8e59 b9bd e2bb febd 9f67 293e fb72 b03d
00000320: fa1b 63be aab5 33bd 2dd1 373e 2c32 7ebe
00000330: 6811 90bd 6baf 973d a7da cabc 9db7 b63d
00000340: 6171 02be 1a5a 143e 038a 253e 3999 693d
00000350: 2207 5fbd d15d 3e3e c9da 1b3e 70bb 5abe
00000360: 7938 033e 4282 0d3e 14c7 693d 8015 39be
00000370: 3cc8 cdbd 14a1 d5bd b7f3 35be cc56 e0bc
00000380: 8128 0bbe ba31 5c3e f090 693e 41b8 883d
00000390: b4fb 383b 3066 2d3e 9e5d 673e facc 5fbe
000003a0: 0677 7abe 1639 f03d 7265 cc3d 010a 493e
000003b0: c8af 723e d562 81be 05a6 7dbe 272d 5fbe
000003c0: 5d6b 063e 7044 0c3e 0822 67bd 94c8 80be
000003d0: d1cb 463e 329f 4dbe 9065 a73d f4b6 eebd
000003e0: a072 e83c 715a 903d 0f8e ddbd 630c 153e
000003f0: 384d 2f3d 70ce e7bc 4ab5 da3c d696 40be
0.12452929 -0.23158155 -0.22163612 -0.0494049 0.13185649 0.22710714 0.16945061 0.19945973
0.10700311 -0.10448925 -0.2177462 0.22031027 0.2196555 -0.025602527 -0.21672851 -0.07712624
0.11589498 0.21285446 -0.052673876 -0.08022128 -0.10441741 0.0022972808 -0.12949468 -0.13238552
0.12601429 -0.06735523 -0.0040219687 0.21729264 0.030345365 -0.1269208 -0.12889746 0.009156035
0.07132714 -0.0865427 0.012828373 -0.024742855 -0.09229193 -0.13046911 -0.25171337 0.1456488
-0.12658563 0.1493088 0.026472395 0.05386674 -0.05854547 -0.11684115 -0.20503423 -0.20853144
-0.15482616 -0.057339083 0.011892098 -0.13557276 -0.15603383 -0.103142 0.19433638 -0.096632704
0.13575865 0.16549587 -0.00030845997 0.013191609 0.20078003 -0.16554661 0.04872498 -0.1369557
-0.07898576 -0.24201137 -0.19050045 0.23368312 0.098069794 -0.15939693 0.010288199 0.22830388
0.15173204 0.25729993 0.06536782 0.042325355 -0.24832676 0.08421622 -0.039664272 -0.21446499
0.13789682 0.08651419 -0.1590918 -0.18853274 0.058525376 0.20981938 0.074807934 0.07266189
0.034506384 0.20926322 0.06985203 -0.14339729 -0.10867448 0.15666129 -0.11607037 -0.10947578
0.11246387 0.050304063 -0.06637602 -0.19309871 0.16905302 0.18894595 -0.22040798 0.096510604
-0.2310027 0.0245734 -0.0033398187 -0.19919546 0.033794798 0.19107814 0.009041381 0.12841026
0.07358141 -0.123013735 0.1340801 0.17452389 0.08065364 -0.08605991 0.12724255 -0.042609446
-0.16498692 -0.14826721 0.21721949 0.15500166 0.12568782 -0.008615256 0.12397523 0.017234948
-0.20627293 0.27560645 0.13458988 -0.19575402 -0.20808777 0.058486287 0.16222133 -0.17439912
0.14071123 -0.0146870585 -0.090498775 -0.059222303 0.21882321 -0.12143951 0.075101875 -0.07516355
-0.20037547 0.13275905 -0.14168468 -0.0044080038 0.07921881 -0.117157616 0.12797596 0.22891754
0.14157164 0.06261481 0.178404 0.008985902 -0.015156479 -0.16131337 -0.07799375 0.12913667
-0.17096624 -0.1320872 0.1137032 -0.20915872 -0.061552554 -0.15259252 -0.2477565 0.09820938
-0.05558334 0.25776958 -0.20353127 -0.07752417 0.0750259 -0.055285066 -0.21723172 -0.11562589
0.0028880378 -0.21289067 0.22261211 -0.047759082 -0.11891501 -0.1656079 0.0850511 -0.16015737
-0.050714586 0.15344222 -0.13038476 0.1919281 -0.056944422 0.1488627 -0.16543625 -0.19915242
-0.11377624 -0.053283162 -0.13350415 0.043880533 -0.09050284 -0.124381796 0.16543435 0.08615681
-0.22178641 -0.04387442 0.17950888 -0.24823827 -0.0703457 0.07406505 -0.024762465 0.0892174
-0.12738563 0.14487496 0.16165929 0.05703089 -0.05445016 0.18590476 0.15220179 -0.21360564
0.12814511 0.1381922 0.05707462 -0.18074608 -0.10047957 -0.10431114 -0.17768751 -0.027385138
-0.1358967 0.21503344 0.22809196 0.06675769 0.0028226199 0.16933513 0.22594306 -0.21855536
-0.24459466 0.11729638 0.09980287 0.19632722 0.23699868 -0.25270715 -0.24770363 -0.21794568
0.13126893 0.13697982 -0.05642894 -0.2515303 0.19413687 -0.2008026 0.081736684 -0.11655989
0.02837497 0.070485 -0.10818111 0.14555506 0.04279825 -0.02829668 0.026697773 -0.1880754

arith.constant2 f4 [64, 720]
00000000: 9aed 323d 3663 0c3d b724 47bd 5ddb 38bd
00000010: 159c 683d 25d4 843d b616 823d df5d a63c
00000020: 1141 2a3c 093a 47bc 951a a8bd b6f6 453d
00000030: e221 6abd 1102 983c 7114 95bd 5560 a93d
00000040: 1b03 f2bc 6df4 893d cfe5 343d 86cd 42bd
00000050: f0d5 36bd 12bf 653d 76e3 493d fdac d7bb
00000060: ceab 99bd 86d8 9e3c 976b ae3c b572 703d
00000070: 2c83 a7bc a723 7abc 645f 3ebd 9eb8 1bbd
00000080: def5 9e3c 472e 893d 6dbd ab3d 94d0 85bd
00000090: 30b4 a0bd fe7e 7bbc bb13 9dbd fc81 fd3c
000000a0: 13a3 b73d db74 c73d 1675 4abd bbb6 b93d
000000b0: 8b6b 5e3d deb0 853d 2322 c93c 1468 553d
000000c0: 1d5d 4dbd 04b0 6b3c d6c5 c63b 1417 53bd
000000d0: 23c2 363d c582 1a3d 7f53 9038 ff97 4cbc
000000e0: d731 88bd 5867 47bc 4c8e c33d 1543 38bd
000000f0: ba0a 843d 1ccf 293d c8b7 15bd d45c 0ebd
00000100: 61ce 673d d2a6 69bd 50cc 8a3d 1700 073d
00000110: b5b8 bebd 4a29 063d 2737 84bd 0767 8a3d
00000120: 8751 c13c 284c 873d 5d79 48bc 26fc cb3c
00000130: bee7 03bd afd5 20bd 50ec 883d 2222 02bd
00000140: 302b 173d 9a17 9c3c 1375 933d 4115 83bd
00000150: 2b88 b4bc 2b5d 58bd 54b8 87bd c22d d23c
00000160: e00e 28bd 387b 163d 79a2 87bd 3fd8 4bbd
00000170: 248d 923d 49aa 163d be18 21bd 8088 6bbd
00000180: 26bd 853d 763d 24bd a1df d83b 8b47 033c
00000190: 3582 343d 1ff3 46bc 06cb 48bc e411 0f3d
000001a0: b151 963d 6260 8abd 0e8d 983d a001 54bd
000001b0: 23c1 f23b 9b72 023d ff87 a6bd 70f6 7cbd
000001c0: 9644 f1bc ca94 9ebd c50b 153d f699 893c
000001d0: 9184 07bd 0f55 3cbd b822 ffbb 0565 96bd
000001e0: 48cc 8dbd d0c0 9e3c 1eb1 853d 5ed8 813c
000001f0: be2e 833d 75f6 b53c 1a91 ce3c 2123 c83b
00000200: e4c3 1e3c 3d97 b03d eced 04bd f13e 97bd
00000210: 6717 983d 9bb3 43bd 70ba 24bd 9bef 2abd
00000220: 866b 1b3d 45a0 adbd b749 953d 094c 0ebc
00000230: 17d7 09bb 1b14 4abc 64a6 fcba 9313 2f3d
00000240: 1273 86bd 96d4 e5bc 0859 753d 4c27 cdbb
00000250: 7de0 803d ee1a 9b3d e859 b9bc 0dba 45bd
00000260: 8940 6a3d c21a 8cbd a67c dbbc 7438 61bd
00000270: 1897 503c 304b bc3d 57ff 5a3d 5803 6bbd
00000280: e683 7a3d e4bb a7bc 404e ba3d f394 b63d
00000290: fa62 1f3d d4af 8dbd cefa b5bc ceb4 d7bc
000002a0: 43a5 6cbc 725a fa3c 7049 92bc 777f 49bd
000002b0: 14b6 0f3c 751c 4cbd c60b c4bc 298d 333d
000002c0: 36e5 38bd 80c1 9ebb 4bd5 6c3d 41a1 183d
000002d0: e75b e23c d99b 73bd 43ce b8bc 749c 86bd
000002e0: 23ff 483b dc1e 85ba a37d 883d 91b6 f3bb
000002f0: dbb4 a13d 1b38 7e3d 1a69 613b abbf 063d
00000300: 6d3a 13bd a2ae bf3d 59cf 4d3c a39f 64bd
00000310: 23c3 073d 1648 103d e1f4 873a 063b abbc
00000320: 57f5 0fbc 8a32 9e3d d593 a33d 60bc 5f3d
00000330: 5510 9c3d ec30 c3bc e022 82bc 5868 ed3c
00000340: ce70 4cbd e591 2fbd 499f 1fbc 9ab8 c23d
00000350: 289c 133d 4a56 303d f5eb b03d 04af 66bd
00000360: ac78 943d ba27 3dbd 785f a13d 7994 00bd
00000370: 4d29 423d 3997 01bd 9814 87bd 5954 afbc
00000380: dfb8 1d3d 62dd a7bc 4a46 bb3c b218 0cbd
00000390: 4abe bb3c ec7d bd38 25ae 753d 9c1c 1ebd
000003a0: 1a6e 53bd d4e3 983c 23c0 1c3d 00ee 0fbd
000003b0: 3a76 543d 8b59 7dbc 9b05 483c cf2d 963d
000003c0: e8e1 bebc abab 58bd 1944 77bd b391 97bb
000003d0: b7cd 3d3b 62bd b43d 43a9 e0bc 8621 e43c
000003e0: d219 35bd a0b2 60bd 61a7 493c f4c8 813d
000003f0: d049 1a3a c6b6 9b3d 35f8 d23d 4205 5e3c
0.043683626 0.034274302 -0.048619 -0.045131076 0.056789476 0.06485776 0.06351988 0.020308433
0.01039149 -0.012159833 -0.08208195 0.048330985 -0.05716122 0.018555673 -0.072792895 0.08270327
-0.029542496 0.06736074 0.044164475 -0.047559284 -0.04463762 0.056090422 0.04928919 -0.006581901
-0.07503472 0.019390356 0.021291537 0.058703143 -0.02044829 -0.015267289 -0.04647769 -0.03801786
0.019404348 0.0669828 0.083857395 -0.06533924 -0.07846868 -0.0153501015 -0.07669779 0.03094577
0.08966651 0.09739085 -0.049428068 0.09068056 0.05430178 0.06527875 0.02455241 0.05210121
-0.050137628 0.014385227 0.0060660644 -0.05153568 0.044618737 0.037722368 6.8820074e-05 -0.012487411
-0.06650131 -0.012170635 0.09548625 -0.04498585 0.064473584 0.04145728 -0.03655222 -0.034756497
0.056593303 -0.057043858 0.06777251 0.03295907 -0.09312574 0.03275422 -0.06455832 0.06757932
0.023598446 0.066063225 -0.0122359665 0.024900507 -0.03220343 -0.039266285 0.06685698 -0.031770833
0.03690642 0.019054223 0.072000645 -0.06400538 -0.022037586 -0.052823227 -0.06626955 0.025656585
-0.04102981 0.036738604 -0.06622786 -0.049766775 0.07155827 0.03678349 -0.039330237 -0.057503223
0.06530218 -0.040097676 0.0066184555 0.008012663 0.044069488 -0.0121429255 -0.012255436 0.03492917
0.073398 -0.06756665 0.07448779 -0.051759362 0.0074082776 0.031847578 -0.08131408 -0.06175846
-0.02945165 -0.07743223 0.036388177 0.016797047 -0.03308541 -0.045979556 -0.007786121 -0.07343487
-0.06923729 0.01937905 0.06527923 0.015850242 0.064054 0.022212246 0.025215674 0.0061077033
0.009690259 0.086225964 -0.032453462 -0.07385052 0.07426339 -0.047778707 -0.040216863 -0.04173241
0.03794434 -0.084778346 0.072894506 -0.00868512 -0.0021032745 -0.012333895 -0.0019275662 0.042743277
-0.06564917 -0.02805547 0.05989936 -0.006260788 0.06292818 0.07573496 -0.022625878 -0.048273135
0.05719045 -0.06841041 -0.026792835 -0.05498548 0.012731336 0.091940284 0.053466167 -0.057376236
0.061160944 -0.020475335 0.09096956 0.089151286 0.03891275 -0.06918302 -0.02221432 -0.026331332
-0.014443698 0.030560706 -0.017857283 -0.049193826 0.008771438 -0.049831826 -0.023931395 0.043835793
-0.045140468 -0.0048448443 0.0578206 0.03726316 0.027631713 -0.0594748 -0.02255929 -0.0657281
0.0030669651 -0.0010156292 0.06664588 -0.007437535 0.078958236 0.062065225 0.003439492 0.032897633
-0.03594439 0.093594804 0.012561643 -0.055816304 0.03314508 0.035224997 0.0010372662 -0.020902168
-0.008786521 0.07724483 0.07987181 0.054623008 0.076203026 -0.023827039 -0.01588577 0.028980419
-0.049912266 -0.042863745 -0.009742566 0.09507866 0.036037594 0.04305104 0.08638755 -0.05631925
0.07249579 -0.046180464 0.07879537 -0.031391595 0.04740267 -0.031638358 -0.06595725 -0.021402525
0.038506385 -0.020491306 0.022860665 -0.03420324 0.022917885 9.035677e-05 0.05998053 -0.038601503
-0.051618673 0.018663324 0.038269173 -0.035139084 0.051870562 -0.015463243 0.012208368 0.07332956
-0.02330108 -0.05289809 -0.060367677 -0.004625523 0.0028961727 0.088251844 -0.02742446 0.027848016
-0.044214077 -0.05485785 0.012307973 0.06337157 0.00058856327 0.07603221 0.10301248 0.013551058

arith.constant3 f4 [3]
00000000: a16f 203c fd60 2bbc 54f4 fbbb
0.009792239 -0.0104601355 -0.0076890383

arith.constant4 f4 [32]
00000000: df7b c6bb f398 963c 5173 e33c 36ed 3d3c
00000010: 77d3 67bc 3a02 f73c 2390 2ebc 33ed 7bbc
00000020: 1375 163d 5f6c 713b f1a2 a53b 2da0 b9ba
00000030: f749 efbb 5260 cdba e068 833b 1a73 0c3c
00000040: 8815 3b3b 4d2c a83b 4915 b73b aad7 563c
00000050: 4786 22bc 4e7e 43bc 0226 af3b 9602 0dbc
00000060: 8689 6bbc 8993 3ebc ae1a e23b 18c8 a53b
00000070: 8e08 b93c d0f2 adb7 ab67 b3ba 5eb2 1c3c
-0.006057247 0.018383479 0.027764948 0.0115922 -0.014149538 0.030152429 -0.010654482 -0.015376377
0.036732744 0.0036838276 0.0050548245 -0.0014162116 -0.0073025185 -0.0015668964 0.004010305 0.008572364
0.002854677 0.005132234 0.005587254 0.013112942 -0.0099197095 -0.011931969 0.005345107 -0.008606574
-0.01437605 -0.011631855 0.006900153 0.0050592534 0.022587087 -2.0736275e-05 -0.0013687512 0.00956401

arith.constant5 f4 [64]
00000000: 9295 07bc fd9d 9a3b b7ae cebb 5e2a 06bc
00000010: f95d 06bc 50dc c8bc 70ab 9c3b 7ff5 b9bb
00000020: 0b8b ca3b 303e 413b e93e c33b 0577 3f3b
00000030: ee7e a9bc 6eea e4bb 68bd b43b 1e72 1bbc
00000040: 6496 943b d433 153c 42af 05bc 5baa d9bb
00000050: e8f3 a7bc 2734 323c d1fe 103b 0ac9 b5bb
00000060: 933b 4239 dbbc cc3c 3735 3c3b 19a9 65bb
00000070: 5231 87bc 6ca6 a9bb e4ca 4f3b 0972 a13c
00000080: 8a80 193c 7bde f5bb 3e41 84bc 60b1 3e3b
00000090: fd1d d4bb f84a 143c 290d 473c 3b88 17bc
000000a0: da64 0abb a22a 83bc 664f 713c 1507 0e3c
000000b0: 386f 69bc 564d 493c 0bb9 91bc 235b 56bc
000000c0: f845 4bbb 9f7c b83b 39f6 3c3c ec76 913c
000000d0: e637 7ebb 4851 823b 2959 9bbb 4662 7bbc
000000e0: 7a51 e93b 6e62 a9ba 9459 27bc 2aa4 98bc
000000f0: c1fa efbc 55d4 37bb 5d61 82bc cd26 243c
-0.008275406 0.0047185407 -0.0063074487 -0.008188812 -0.008201116 -0.024519116 0.004781179 -0.0056750174
0.006181126 0.002948653 0.005958427 0.0029215228 -0.020690408 -0.006985954 0.005515743 -0.009487657
0.0045345295 0.009106595 -0.0081594605 -0.0066426224 -0.020502046 0.010876692 0.0022124539 -0.0055476474
0.00018523475 0.024992397 0.0028718242 -0.0035043417 -0.01650301 -0.0051773097 0.0031706626 0.019707697
0.009369025 -0.0075033284 -0.016144391 0.0029097423 -0.0064733014 0.009051077 0.012149134 -0.0092487885
-0.002111724 -0.01601154 0.014728403 0.008668681 -0.014247708 0.012286505 -0.01778843 -0.013083252
-0.0031017046 0.0056300904 0.011533313 0.017756902 -0.0038790642 0.0039769746 -0.0047408533 -0.015343254
0.0071203085 -0.0012923011 -0.010214228 -0.018632967 -0.029294373 -0.0028050144 -0.015915567 0.010019016
