model/model.tflite (tflite, 127644 bytes, 12 tensors)

arith.constant f4 [3, 32]
000000 d5 b8 0c 3e c8 d6 a8 be 9b 1d 36 3d 9d 17 63 3d
       0.13742383 -0.32976365 0.044461828 0.05544244
000010 8a 0c 6c be 14 76 cf 3e 0e 81 e0 bd 0a 46 97 3e
       -0.23051658 0.40519774 -0.10962115 0.29545623
000020 f9 4d 96 3e b3 22 3b 3e 05 18 c6 be d0 77 af 3e
       0.29356363 0.18274955 -0.386902 0.34271097
000030 55 cf 82 3d a7 92 9f be 7b b9 a2 be 64 84 e9 3d
       0.06387202 -0.31166574 -0.31782135 0.11402205
000040 ec 39 cf 3c 3f 32 d2 3e 5b 57 1c 3d 90 87 a4 be
       0.025296174 0.4105396 0.038169246 -0.32134676
000050 2b c1 71 3e 84 8e 80 3e 8a 97 83 3e a8 5b 6c 3e
       0.23608844 0.2510873 0.25701553 0.23081839
000060 65 fc c3 3e b2 c4 c5 be a6 95 74 be fe b1 0f 3e
       0.382785 -0.3862663 -0.23885211 0.14032742
000070 14 5c 85 be be 85 ca bc c5 eb c1 3e 17 08 46 3d
       -0.26046813 -0.024721976 0.3787519 0.04834756
000080 ec 17 8e ba 51 3b b9 bd bc 2e 91 3e 6b 97 86 3e
       -0.001084087 -0.09044517 0.28355968 0.26287398
000090 fc c5 29 3d 7c 81 6b 3e 74 34 c4 be 07 ca 52 3e
       0.04144858 0.22998613 -0.3832127 0.2058488
0000a0 2f fa 38 be 13 55 78 3d d8 df 30 3e be 5e 98 be
       -0.18064187 0.060628008 0.1727289 -0.29759783
0000b0 a5 3c ce bd bd fb 55 3e 38 8d c8 3e 14 3a d1 3c
       -0.10070161 0.20896812 0.3917024 0.02554039
0000c0 65 54 bf bd da 56 ab bb 11 22 a1 3e e6 33 47 bd
       -0.09342269 -0.0052288594 0.31471303 -0.04863348
0000d0 ed 7e ce 3e ae ab 9c be 92 36 91 3c 88 f7 ef bd
       0.40331212 -0.3059973 0.017726216 -0.11717135
0000e0 a9 fd c6 bd 07 10 a1 3d 50 a0 55 3e a0 da 70 3e
       -0.097163506 0.07864385 0.20861936 0.23520899
0000f0 81 4b fd 3d 7d 21 c1 be 6b d6 f6 3d ac d9 28 3e
       0.12367917 -0.37720862 0.12052616 0.16489285
000100 05 3d b4 be 99 a6 af bd 5f 00 43 3e 2e 23 1a bc
       -0.35202804 -0.08576698 0.1904311 -0.009407802
000110 cc 4d 31 3e 91 19 81 3e 0e 2a 90 3e 73 db 9e bd
       0.17314833 0.25214818 0.28157085 -0.077567
000120 5b a2 87 bd 19 3d a4 bd ce 63 aa be 5c 46 33 3e
       -0.06622764 -0.08019466 -0.3327927 0.17507309
000130 5a 9d a4 3e e5 3d b5 be f4 47 93 3e c0 8c 5a 3c
       0.321513 -0.35398784 0.28765833 0.0133392215
000140 df 7b cb be 5f e1 08 be 38 3f 27 bd 9a 8c ad 3d
       -0.39742944 -0.13367222 -0.040831774 0.08474083
000150 8f 29 63 be c9 56 4a bd 8b 40 21 be c1 ca bb be
       -0.22183822 -0.04939917 -0.15747277 -0.36678126
000160 c8 1d 98 be 2d 74 a8 3e 80 1a c0 3e 7f 0c 99 be
       -0.2971022 0.32901135 0.37520218 -0.29892346
000170 08 3f 09 3b 14 9a 63 3e ab f6 9e 3e 1b 10 c2 3e
       0.002094211 0.22226745 0.31047568 0.37902912

arith.constant1 f4 [32, 48]
000000 31 4b 39 3e f3 14 e5 bd c7 96 74 3e b2 0a 31 3e
       0.1809509 -0.11185636 0.23885642 0.17289236
000010 f1 18 77 be b9 72 b8 3c db 8b f3 3d 68 ae 73 3d
       -0.24130608 0.022515642 0.1189191 0.0594925
000020 77 79 00 3e 2c 88 2f 3e 73 b6 d0 3d 56 7e 86 3e
       0.12546335 0.17141789 0.101910494 0.26268262
000030 03 62 62 be a3 e6 58 3d 42 04 6c bc 36 ab 78 3e
       -0.22107701 0.052954327 -0.014405312 0.24284062
000040 e7 da 6f 3e 26 e4 e9 bb a2 15 26 be ac 8a d1 bd
       0.23423348 -0.007137793 -0.1621919 -0.10231528
000050 0a d3 2c be 72 81 21 bc b6 73 5a 3e 3b f2 21 3d
       -0.1687738 -0.009857522 0.21333203 0.03953765
000060 8c b7 e5 3d 02 84 14 be b4 46 d0 3d 7a 3b 51 bd
       0.112166494 -0.14503482 0.101697356 -0.051082112
000070 67 e9 a1 3d ec 2c 17 3e 98 4c d3 bd a7 13 03 3e
       0.07905846 0.1476323 -0.103173435 0.12800466
000080 1f 13 1a be 04 13 7d be c8 fa 00 be d0 73 16 be
       -0.15046357 -0.24714285 -0.12595665 -0.14692616
000090 5d 27 5d be d5 7e 84 be 21 51 6d 3e c9 be 52 3d
       -0.21597047 -0.25878015 0.2317548 0.05145148
0000a0 6a 9f dd 3d 75 84 b6 bd e0 4e 2f be d3 1d af 3d
       0.108214214 -0.08911983 -0.17119932 0.085506104
0000b0 f7 b4 1a be 3f c0 4a be 88 66 3e 3e 71 0d aa 3d
       -0.15108095 -0.19799899 0.185938 0.08303345
0000c0 75 6d 5c bb e6 fa 1e bd 1a 2f f5 3b 41 ae 72 be
       -0.0033634577 -0.038813494 0.0074824216 -0.23699285
0000d0 d9 65 87 be ca ab 82 3d 5a e5 a7 3c 8f 75 53 be
       -0.2644489 0.063804224 0.020495106 -0.20650314
0000e0 d4 56 8d be 1c 11 6c 3e 33 55 18 3e 59 40 67 3e
       -0.27605307 0.23053402 0.14876251 0.2258314
0000f0 85 bf 2d bd 0a 2a 93 3b 16 75 24 be 41 02 b2 bd
       -0.042418975 0.0044910954 -0.1606029 -0.08691836
000100 75 18 82 3e c8 3a 81 be c2 de df bd 40 de 09 be
       0.25409284 -0.2524016 -0.109311596 -0.13463688
000110 da 1a 89 3d 2c 5b 18 3e 6a 54 09 3d 35 5c 8f be
       0.06694575 0.1487853 0.03352777 -0.28000036
000120 ca 1a 75 be 54 a8 1d be 6a c3 4c be 96 3f 8a be
       -0.23936 -0.15396243 -0.1999642 -0.27001637
000130 19 ca 34 be 22 cb c0 bc 85 02 ac bd 12 dc f2 bd
       -0.17655219 -0.023534361 -0.08398918 -0.11858381
000140 a1 a5 2f bd 0f f0 84 3e b0 60 74 bd 41 d4 91 3d
       -0.042882565 0.259644 -0.05966252 0.07120562
000150 6b a2 37 3e f8 87 5b bd d9 48 74 be 7f db 8e 3d
       0.17933051 -0.053596467 -0.23855914 0.06975459
000160 6a 81 09 3e 19 8a 4b be 92 3d 22 bc 59 03 84 be
       0.13428274 -0.19876899 -0.009902375 -0.25783804
000170 96 ff a7 3d 7e 61 c9 3b cf 8a 55 3d 3d 24 d8 bd
       0.08203046 0.006145655 0.05213433 -0.10553787
000180 62 16 35 3e c6 1b 8a be 7a 55 3f be 43 93 1e 3e
       0.1768432 -0.26974314 -0.1868495 0.15485863
000190 ef 0f fc 3d 2f 9d 85 be e2 bf 8e be c7 a2 63 3e
       0.123077266 -0.26096484 -0.2788077 0.22230063
0001a0 ff 6e 30 bd 99 a0 98 bd 5a 9b 66 be fb a4 d6 bd
       -0.043074604 -0.074525066 -0.225202 -0.10480686
0001b0 4e c4 86 be 36 85 82 3e 7a c6 63 be 71 17 a4 3d
       -0.26321644 0.25492257 -0.22243682 0.080122836
0001c0 7e 74 01 be 67 40 81 be c5 ce 74 3e c7 7a 35 bd
       -0.12642094 -0.25244448 0.23907001 -0.044306543
0001d0 f4 2a a0 3d 79 7f c0 3d 65 67 7f bd 3d a5 e4 bd
       0.07820693 0.093993135 -0.062354464 -0.11164329
0001e0 8a 02 9f 3d 80 38 4e 3e 86 00 11 3d a7 be 47 be
       0.07764156 0.2013874 0.03540089 -0.19506322
0001f0 bb da db 3d 17 57 84 bd 31 2b 86 be af 41 11 3e
       0.10735079 -0.064619236 -0.26204827 0.14185213
000200 ef e0 7a 3d 9e 44 49 3e df 96 ff 3d a9 cc 6e be
       0.06124967 0.19655082 0.12479948 -0.23320259
000210 39 78 37 3e 34 aa a0 3d 86 e9 3d 3e d4 10 a6 3d
       0.17916955 0.07844964 0.18546113 0.081086785
000220 82 98 3b be fa 27 c9 bd 0a da 15 3e db 45 34 3e
       -0.18319896 -0.09822078 0.14633957 0.17604773
000230 50 02 2a 3e 80 36 b3 bd 88 d3 a4 bc 12 38 6d 3e
       0.16602445 -0.087506294 -0.020120397 0.2316592
000240 1c 2f 5e 3c ff df 55 be 59 93 71 3c 79 ec 74 be
       0.013561036 -0.20886229 0.014744603 -0.23918332
000250 50 0e 55 3e 67 08 53 3e 56 85 89 be 7c 05 cb bd
       0.20806241 0.20608674 -0.2685954 -0.099131554
000260 84 85 e2 bd 0b 34 72 3d 4b 7d 88 3e 32 bc 2a be
       -0.11060622 0.059131663 0.2665809 -0.16673353
000270 e0 a3 aa bd 6d 81 26 3e c0 40 03 bd d2 be de bc
       -0.08332038 0.1626031 -0.032044172 -0.0271906
000280 81 47 cb 3d de c1 37 be 00 c0 90 3e d7 5d 33 3e
       0.09925748 -0.17945048 0.28271484 0.17516266
000290 bf 0e e5 bd 7d 61 15 be e4 c6 0f be 7a 0c 80 be
       -0.11184453 -0.1458797 -0.14040715 -0.2500952
0002a0 88 17 11 3e 1c 7b 02 be 50 82 93 bc 9f 6d a4 3d
       0.14169133 -0.12742275 -0.018006474 0.08028721
0002b0 35 4b 67 be bc f3 51 be 98 2f 86 3d 18 87 56 3e
       -0.22587283 -0.20503134 0.065520465 0.20949972
0002c0 bb 66 76 3e 7a 0f f3 bd a0 94 59 be 62 c6 9e 3d
       0.24062626 -0.11868186 -0.21248102 0.07752682
0002d0 36 35 47 3e ff a0 2c 3e b2 d0 e1 3d 30 b1 4b 3d
       0.19453892 0.1685829 0.110261336 0.049729526
0002e0 ab de 53 be 7c 30 1d be a5 52 65 3e 6a 80 63 3e
       -0.2069041 -0.15350527 0.22394808 0.22216955
0002f0 a7 e4 bf bd 38 b4 a0 3d 48 3f 0c 3e 54 77 7e 3d
       -0.09369784 0.07846874 0.13696015 0.06212552
000300 56 9e 6b 3e 01 5c 4b be 45 6d 30 3e 55 01 72 3e
       0.23009619 -0.19859315 0.17229183 0.2363332
000310 b1 2e 82 be cc df 2a bd 9a 3d 82 bd a9 f9 5b 3e
       -0.25426248 -0.041717336 -0.06359406 0.21481957
000320 60 7b 8c 3e db 5c d5 bd 5f f0 30 3e 98 44 fe bd
       0.27437878 -0.104181014 0.17279194 -0.12415427
000330 f9 cf 24 3d 4c 02 28 3a f5 df 3e be db bd 35 be
       0.0402374 0.00064090337 -0.1864012 -0.17748205
000340 55 36 21 be e5 e5 b0 3d 96 47 11 be 71 c8 b0 3c
       -0.15743382 0.08637599 -0.14187464 0.021579953
000350 e5 b2 de 3d d8 97 46 bb 7d c8 66 3c e4 fb 32 3e
       0.10873965 -0.0030302908 0.014085886 0.17478901
000360 56 5a ab 3d d7 92 34 3e ea 1e 59 be 18 09 6e bd
       0.083668396 0.1763414 -0.21203199 -0.05811414
000370 c8 cb 58 3e a7 96 0a bd 8c c7 f5 bd db f6 6b 3e
       0.21171486 -0.03383508 -0.12000951 0.23043387
000380 1c 0a cc bc 88 bf eb 3d f2 89 11 be 27 97 2b bd
       -0.024907164 0.11511141 -0.14212778 -0.041892197
000390 99 18 00 3e 1c 08 b3 bd 86 aa d3 3d 41 aa 0c 3e
       0.12509383 -0.08741781 0.10335259 0.13736822
0003a0 5b 5d cb 3c ce 36 d2 3b 6c cc 1a 3e 3e c2 18 be
       0.024824789 0.0064152246 0.15117043 -0.14917848
0003b0 d5 3e d8 3d 9b 47 35 3c 67 21 ec 3c 8a 2e 60 3e
       0.10558859 0.011064435 0.028824521 0.21892753
0003c0 93 6e dc bd 52 32 08 3e d5 d9 ef 3b b6 b8 08 bb
       -0.10763278 0.13300446 0.007319669 -0.002086205
0003d0 3b 61 67 3e b8 8d 7c bd a9 22 66 3e a3 3e 55 be
       0.22595684 -0.06165859 0.2247416 -0.20824675
0003e0 46 aa f1 3d 0c a5 0f 3e f7 7a 6a 3e 30 52 97 bd
       0.11800055 0.14027804 0.2289847 -0.07388723
0003f0 44 34 bd bd 06 a9 7b be 0d 09 b1 3d 54 74 bc bc
       -0.092384845 -0.24576196 0.086443044 -0.023004688

arith.constant2 f4 [48, 48]
000000 ab 02 74 be a3 f1 31 3e 98 d3 3a 3e 13 aa d6 bd
       -0.23829143 0.17377333 0.18244779 -0.10481658
000010 36 62 10 bc 82 7c f4 bd 66 07 c8 bd 24 ad 54 3e
       -0.008812478 -0.119378105 -0.09767036 0.20769173
000020 f1 ba 26 be 99 9f 15 3e 1f 82 44 3e 4b 07 ca bd
       -0.1628225 0.14611663 0.19190262 -0.09864672
000030 70 ec b0 3d ce a8 23 bd d0 ad 71 3e 13 12 7f be
       0.08638847 -0.039955907 0.2360146 -0.24909239
000040 c8 44 6c 3e 88 ec 68 be 3b 87 0f 3e 17 f0 d1 bd
       0.23073113 -0.2274648 0.1401643 -0.10250872
000050 28 68 e1 bd ef 63 2e 3e 9b fa f2 3d 53 07 6b 3e
       -0.11006194 0.17030309 0.118642054 0.22952013
000060 db a7 0c 3e 04 25 22 bc 48 ec 63 3e 58 99 ec 3c
       0.13735907 -0.0098965205 0.22258103 0.028881714
000070 96 0f 8c bc 5e ec 1e bd f9 1c bc 3d e8 2a d6 3c
       -0.017097276 -0.038799636 0.091852136 0.026143506
000080 90 a1 8e bd 68 90 23 3e 13 22 8a 3d 79 1d 14 bd
       -0.06964409 0.15973055 0.067447804 -0.03616092
000090 d3 da 05 be dd 3b 33 bd d5 83 26 3e a9 68 59 bd
       -0.13071756 -0.043758262 0.16261227 -0.053078327
0000a0 a4 fd 46 3e 1a 96 37 3e 59 6a 34 bd 18 4e c8 bb
       0.19432694 0.17928353 -0.044046734 -0.006112825
0000b0 dc 7e 0f 3e 5b 86 29 3e 17 71 e6 bc ba ef c9 3d
       0.14013237 0.16555159 -0.028130097 0.09860177
0000c0 02 4d c6 bc bb f9 ef bd 6b c3 59 be dd 9b 38 be
       -0.024206642 -0.11717554 -0.21265952 -0.18028207
0000d0 35 41 50 be 19 cc 49 be ec 40 41 bd 6a 82 0a be
       -0.20337375 -0.19706763 -0.047181055 -0.13526312
0000e0 03 92 77 be 19 80 69 bd 22 e3 45 3e 41 ea 41 be
       -0.24176793 -0.05700693 0.19324926 -0.18937017
0000f0 77 0f 6d be 88 b4 13 3e 0c dd 0d 3e 3a 79 94 3c
       -0.2315043 0.14424336 0.13853854 0.018124212
000100 41 c7 1e 3e 20 49 04 be 7b 2e 4f 3e 6c 8f 76 3e
       0.15505697 -0.1291852 0.20232575 0.24078149
000110 39 2a 6d be 24 a7 1f 3e 23 c9 59 be 06 c3 29 3e
       -0.23160638 0.15591103 -0.21268134 0.16578302
000120 66 06 a1 bc ac d9 eb 3d 0a 3b 4a be ed 3f 26 3d
       -0.019656371 0.11516127 -0.19749084 0.040588308
000130 d0 94 a2 3d a3 34 d1 3a 9d cf b6 bd 4e c1 bd 3d
       0.0793854 0.0015961122 -0.08926318 0.092653856
000140 35 89 5e 3e c0 91 c7 bd d7 64 d6 bd f2 de ea bb
       0.21732028 -0.097445965 -0.104684524 -0.0071676904
000150 6d 85 35 3d 60 ff 5f bd 64 4f 6c be 9a 16 40 3e
       0.044316698 -0.054686904 -0.2307716 0.18758622
000160 ac ae 10 be 70 a3 59 3d 9d b7 5e 3e 55 41 66 be
       -0.14129132 0.05313438 0.2174973 -0.2248586
000170 00 85 2e 3e b2 10 1d 3e 65 64 80 bd 43 67 e4 3b
       0.17042923 0.153384 -0.06269149 0.0069703176
000180 c9 cc 0d 3e 86 90 0e be 61 25 7d be 64 51 69 3e
       0.1384765 -0.13922319 -0.2472129 0.22784954
000190 0e a1 5e 3d 30 fb 6b 3e 4e a2 5e bb e4 4c 0e be
       0.054352812 0.23045039 -0.0033971253 -0.13896519
0001a0 64 b0 36 3e d8 7f 0e 3d 6b 61 1a be 32 b8 43 3e
       0.17840725 0.03478989 -0.15076225 0.19113234
0001b0 63 c8 a7 bc f7 12 85 3e 90 20 9c bb d7 24 26 be
       -0.020481294 0.25991032 -0.004764624 -0.16224991
0001c0 2d 5b 45 bd 15 40 b9 3d 06 c5 0c be 63 25 76 3e
       -0.048182655 0.09045426 -0.13747033 0.240377
0001d0 bb d2 6f be 5a 3d 80 3e a1 3b c7 bd 60 43 dc 3d
       -0.23420231 0.25046808 -0.0972817 0.10755038
0001e0 84 b9 38 3e a5 a6 0c 3e 80 e0 80 be 52 de 98 bc
       0.18039519 0.13735445 -0.2517128 -0.018660698
0001f0 68 91 00 3e 98 14 24 bc ec 9b bd 3d 4f 8d 16 be
       0.12555468 -0.010014676 0.09258255 -0.14702342
000200 b3 16 40 be 40 e9 b8 3d e1 ed 4a 3e 16 8a 6c 3e
       -0.18758659 0.09028864 0.19817306 0.2309955
000210 d1 83 2d be 87 1e db bd 6f bd 1a be 8a 4d 52 bd
       -0.16944815 -0.10699182 -0.15111326 -0.05134348
000220 65 8d 63 be 2a 4f 67 3e a0 85 72 be 5e 7f 87 bd
       -0.22221906 0.22588792 -0.23683786 -0.0661609
000230 8c 01 66 be f5 6c 45 3e a6 bb 6c 3e fd fb e1 bd
       -0.22461528 0.19279845 0.23118457 -0.11034391
000240 2f 7f 0c be be 3d bb 3d d4 92 bb 3d de 21 4a bb
       -0.13720392 0.09142636 0.091588646 -0.003084294
000250 61 05 3c 3e 3d 71 23 be e7 f0 5a 3d b3 94 72 3e
       0.18361427 -0.15961166 0.0534524 0.23689537
000260 61 a4 ce 3d c7 ac 50 3e f0 90 06 be 1b ba f8 3d
       0.100899465 0.2037841 -0.13141227 0.12144872
000270 f8 2c 88 bd 36 e7 a6 bd b0 ee 7e 3e b6 e0 04 3d
       -0.06649202 -0.08149569 0.2489574 0.032440864
000280 eb 38 5e be 53 00 3a 3e 5c 95 85 3c 1d 15 78 3e
       -0.217014 0.18164186 0.016306572 0.24226804
000290 af 4a 0e 3e 9c e7 1d 3e 08 76 37 be 04 dd 2c be
       0.13895677 0.15420383 -0.17916119 -0.16881186
0002a0 52 3a 39 be 1f 73 4b bc b8 df c1 bd 54 2d 52 be
       -0.18088654 -0.012417584 -0.09466499 -0.20525104
0002b0 f1 99 0d be 90 27 80 3e 2d 5a 84 3c 8b f1 2a be
       -0.13828255 0.25030184 0.01615628 -0.16693704
0002c0 1d a4 21 be b7 ca c3 3d 04 13 a9 bd 1e 2a 53 bd
       -0.1578526 0.09560149 -0.0825558 -0.051553838
0002d0 c4 04 63 3d ab be 2e 3e fa d3 7b bd 0e 7b 81 3c
       0.055424467 0.17064922 -0.061481453 0.015805747
0002e0 4b 94 c8 bd 7f 23 1c be d0 08 b6 3d f0 dd 8c 3d
       -0.0979391 -0.15247916 0.088883996 0.06878269
0002f0 78 b2 54 3e 9c e6 37 3c 09 59 ba 3d 87 27 1e be
       0.20771205 0.011224415 0.09099013 -0.15444766
000300 01 65 82 3e 3a 21 18 3e 24 48 33 bd 6c 31 1b bd
       0.25467685 0.14856425 -0.04376997 -0.03788893
000310 35 5a be bd 9c 86 0f 3e ee 58 5a 3e 1b 25 67 3b
       -0.092945494 0.14016193 0.21322986 0.003526992
000320 14 4f e5 bd 52 58 ac bd c1 b5 0d 3e e8 5e fe bb
       -0.111967236 -0.08415283 0.13838865 -0.0077627786
000330 61 fc 62 3e 80 2d 46 3e df 3e b0 bd 28 e3 53 bd
       0.22166587 0.19353294 -0.08605742 -0.051730305
000340 a4 bc c4 bd 63 ce 58 3d 57 9a 0c 3e 71 39 8d 3d
       -0.09606293 0.0529312 0.13730751 0.06895722
000350 59 80 12 3e 2d 6f 09 3e 63 e6 82 3e 5b 81 14 3d
       0.14306773 0.13421316 0.25566396 0.036256175
000360 91 21 4d be 04 a2 f7 bd b9 49 4c be 73 98 30 be
       -0.20032336 -0.12091449 -0.19949998 -0.17245655
000370 06 21 56 3c 5c db 3e 3e 75 ad ef 3c 8b 48 73 3e
       0.013069397 0.18638366 0.029257515 0.23758142
000380 65 ee 92 3d 7f 12 22 3e c9 62 ec 3d 87 de 8a 3e
       0.071743764 0.15827368 0.11542279 0.271229
000390 6a 7d 53 be 4f 55 f6 bc cb 51 e9 3d 14 04 42 be
       -0.2065331 -0.030069975 0.11392554 -0.18946868
0003a0 ae a8 3c be d9 45 a5 bd 91 e8 63 3e d8 06 9e 3d
       -0.18423721 -0.08069963 0.22256686 0.07716149
0003b0 f0 04 10 3d eb 8e d7 bd 78 ae 83 3d f2 65 69 be
       0.03516096 -0.10525306 0.06429762 -0.22792795
0003c0 93 b9 1a bd 1a 4e 90 bd 99 18 02 3e e9 5a d1 3d
       -0.037774634 -0.07046147 0.12704696 0.10222418
0003d0 21 01 30 bd 2c c3 7f 3d 67 29 b9 bd 29 cc e0 3d
       -0.042969827 0.06244199 -0.090411 0.109764405
0003e0 98 48 29 3e b9 31 0c be 6b 63 7c 3c 07 b2 66 3e
       0.16531599 -0.13690843 0.0154045625 0.2252885
0003f0 01 ca 21 bc e0 d3 65 3e 30 9f 1f be 07 13 b4 bc
       -0.009874822 0.22444105 -0.15588069 -0.02198173

arith.constant3 f4 [48, 48]
000000 98 50 14 3e 4c 6c 85 3e 65 29 2e be 72 4f 39 bc
       0.14483869 0.26059186 -0.17007978 -0.011310445
000010 cf 0c 4f be 43 19 44 be e6 fb 22 3e 08 c8 dd bd
       -0.2021973 -0.19150262 0.15916404 -0.108291686
000020 23 4d 90 3d 46 44 24 3e 4b fa 47 3e e3 70 5b be
       0.07045963 0.16041669 0.19529073 -0.21429782
000030 ba a1 d6 bd 19 74 ba bc a7 e8 16 3e 23 63 5c be
       -0.10480066 -0.022760438 0.14737187 -0.21522193
000040 85 32 82 bc 17 40 12 be d2 77 91 3d 51 d9 52 3e
       -0.01589323 -0.14282261 0.07102932 0.20590712
000050 1a 31 5f bd 17 dc 16 be f3 25 56 3e c2 c8 be bd
       -0.054490186 -0.14732395 0.20912914 -0.09315635
000060 bd 0f 5f be 96 fd 42 be f8 15 91 3d 32 ee 72 be
       -0.21783347 -0.19042048 0.07084268 -0.23723677
000070 a0 78 f2 3d a8 45 be 3d c5 76 e8 bd fc 0e 58 bd
       0.11839414 0.092906296 -0.113507785 -0.052748665
000080 08 39 1c 3e 29 ad 38 be ae 49 7f 3e 4e 0d 97 3c
       0.1525613 -0.18034805 0.2493045 0.018438961
000090 9f d0 24 3e 5c 7c 6b 3e 63 ab 1e be 2b 35 a4 bc
       0.16095208 0.22996658 -0.15495066 -0.020044884
0000a0 ae 89 5c be 56 c6 23 3e e7 7b f5 3a dd d1 13 be
       -0.21536896 0.15993628 0.0018728942 -0.14435525
0000b0 8e 22 57 be c4 0f 80 3e cb 70 c1 3c 41 b2 58 bd
       -0.21009275 0.25012028 0.023613354 -0.05290437
0000c0 44 3b 66 be e3 b1 c8 3d f5 2e d1 bc 49 20 00 be
       -0.22483546 0.09799554 -0.025535086 -0.12512316
0000d0 fa 8b 65 be 7f 80 4d bd 0a f1 8b ba 59 e2 f5 bd
       -0.22416678 -0.05017137 -0.0010676694 -0.12006063
0000e0 6f dd 3d be 02 d8 38 3e 24 6e 97 bc 30 99 8a bd
       -0.18541501 0.1805115 -0.018485136 -0.067674994
0000f0 c4 09 94 bd c0 ef 38 be 81 08 1c be 95 0d 29 bd
       -0.07228425 -0.18060207 -0.15237619 -0.04127272
000100 20 15 5a 3e 24 5c 49 3e 01 73 61 be 7d 47 07 bd
       0.21297121 0.19664055 -0.22016527 -0.03302716
000110 92 21 85 3c 7a fa 96 bd 6d 2f 98 3d c6 9c 04 be
       0.01625136 -0.07371993 0.07430921 -0.1295043
000120 dd 1e 0f 3e 0c 1c 17 3e f1 8b 7d 3d 1b a8 13 be
       0.13976617 0.14756793 0.061901037 -0.14419596
000130 bf 71 39 3e 1d 05 29 3d d2 9d 2c 3e 0b 27 50 3c
       0.18109797 0.041264642 0.16857079 0.012704621
000140 a4 49 40 bd be 60 73 3e 20 c7 fe 3d ae 70 3a 3e
       -0.04694523 0.23767373 0.12440324 0.18207046
000150 ec e4 6f 3e a5 7b c8 3c d8 3c 42 be af 50 98 3d
       0.2342717 0.02447302 -0.18968523 0.07437264
000160 72 95 42 3e c4 22 35 be e1 9d 8f 3d f7 79 60 3d
       0.19002321 -0.17689043 0.07012535 0.054803815
000170 38 d7 0b be 66 65 79 be fc 84 b8 bc f0 19 43 be
       -0.13656318 -0.24355087 -0.02252435 -0.19052863
000180 a5 ba 19 be e2 02 ec 3d bd 36 81 bd 7f 74 48 be
       -0.15012605 0.11523987 -0.063092686 -0.1957569
000190 e3 74 36 3e 50 09 9f 3c 58 1b b0 bd 65 c3 41 be
       0.17818026 0.01941362 -0.085989654 -0.18922193
0001a0 be a4 62 3e c4 b7 49 3c 0a ca a5 3d 4a 24 35 3e
       0.22133157 0.01231188 0.080951765 0.17689624
0001b0 04 3e 46 3e dd e7 58 bd ca 49 a1 bd e7 bd 73 3e
       0.19359595 -0.052955497 -0.07875402 0.23802911
0001c0 28 01 e9 3d bd 37 01 3e af 5e 59 3d ac 78 d8 3d
       0.11377174 0.12618919 0.053068813 0.10569891
0001d0 1b a4 d6 bb d1 f7 6a be cf 6d ce ba df 56 8c 3d
       -0.0065503246 -0.22946097 -0.0015749278 0.06852507
0001e0 13 c1 2c 3e 17 a5 33 be 2e 0a 35 3d e5 be 3a 3e
       0.16870527 -0.17543446 0.04419916 0.18236883
0001f0 42 de 17 3e 48 61 cc 3c ac 93 8c bd 8e 8e d0 3d
       0.14830878 0.024948731 -0.06864104 0.1018344
000200 67 eb be bc e2 6d f9 bd bc fd eb bd e1 90 95 bd
       -0.023305608 -0.121791616 -0.11523005 -0.07303024
000210 bb 90 cc bb 50 26 28 be 2c 9d 19 bc bd 63 da 3d
       -0.006242839 -0.16420865 -0.009375852 0.10663555
000220 7e 5f 0f 3e 86 ba e6 bd 98 8a 0f be b4 94 03 3d
       0.14001271 -0.11266045 -0.14017713 0.032124236
000230 c2 9a d5 3d 10 7e 35 3d 71 25 3e 3e cc ab dd 3d
       0.10429908 0.044309676 0.1856897 0.10823783
000240 92 29 d5 bd 61 9f 3d 3a b8 3e 10 bd 11 0f de bd
       -0.104083195 0.0007233527 -0.035216063 -0.108427174
000250 0a 7a dd bd fe 1b a7 3d b7 64 86 3d c9 af 3d be
       -0.10814293 0.08159636 0.065621786 -0.18524088
000260 55 2f 4a 3e 1b e7 39 be 40 f7 56 3e 29 e6 3d be
       0.19744618 -0.18154566 0.20992756 -0.1854483
000270 a5 44 f7 3d b5 67 3f 3e 17 b0 7d 3e 22 e2 37 3c
       0.1207364 0.18691905 0.24774204 0.011223348
000280 16 1d 22 3e 9b f5 62 be 17 65 7b bd 0e 4a c4 bd
       0.15831408 -0.22164004 -0.061375704 -0.09584437
000290 86 71 95 3b 5a 60 55 3d 3a 11 50 3e 7f 0c c0 3d
       0.004560652 0.05209384 0.20319071 0.093773834
0002a0 92 34 18 3e e1 b5 48 be b2 98 af 3a 3c 0b f1 3d
       0.14863804 -0.19600631 0.0013396947 0.11769721
0002b0 ba b3 5f 3d e0 ec 4a be 5d ee e0 bd 05 2d ea 3c
       0.05461476 -0.19816923 -0.10982964 0.02858592
0002c0 31 ce 6a bd 8a 91 de bc dd 8b 1c be b2 12 02 3e
       -0.057325546 -0.027169008 -0.15287729 0.12702444
0002d0 13 3e b9 3d 49 93 99 bd 7e 26 f6 3d 1b c6 30 3e
       0.09045043 -0.074987955 0.120190606 0.17263071
0002e0 e3 ba fc bd 66 43 2e 3e c4 46 9d 3c a3 36 07 be
       -0.12340333 0.17017898 0.019198783 -0.13204436
0002f0 b1 75 e6 3c c8 d6 6f bd 00 e5 38 bd 43 69 ef bd
       0.028132292 -0.05855444 -0.045140266 -0.11689999
000300 57 42 0b be bf 7f b8 bd 69 f6 34 3e a9 ec 8a be
       -0.13599525 -0.09008741 0.17672123 -0.27133682
000310 be 2b 83 bc 25 d9 86 3d 9f 03 7c 3e 3b c2 40 bc
       -0.016012069 0.06584386 0.24610756 -0.011765058
000320 46 97 1b be 6b e2 c3 bc aa 0c 32 be 9a 23 bb 3d
       -0.15194425 -0.023911675 -0.17387643 0.0913765
000330 6f d1 68 be ba ba 42 3e 58 3e 23 3e 54 13 c5 3d
       -0.22736143 0.19016543 0.15941751 0.09622827
000340 92 26 cf bd 6b 1d 81 3d 6a e2 3d 3e 81 0d 28 3e
       -0.101147786 0.06304439 0.18543401 0.16411401
000350 6d 80 54 3e 4f 04 2b be 7a 8d a0 bd 71 46 47 3d
       0.20752116 -0.16700862 -0.078394845 0.048651163
000360 aa 22 be bd da 12 ce bc 17 7e 0d 3e a4 92 a0 3d
       -0.092839554 -0.025155474 0.1381763 0.078404695
000370 9f b8 1f 3d 5a 7d a9 bd da 9c 6b be dd d4 ab bd
       0.038994428 -0.08275862 -0.23009053 -0.0839021
000380 bb a4 2b be a3 b3 21 be f1 8c 43 3e 06 f2 60 bd
       -0.16762058 -0.15791182 0.19096734 -0.05491831
000390 6c 89 df 3c d0 ce 1c be b0 42 2e be 53 df b2 bd
       0.027287208 -0.15313268 -0.17017627 -0.08734002
0003a0 af 35 4a be 69 aa e5 bb af 65 22 be 8a d1 e4 bd
       -0.19747041 -0.00700884 -0.15859102 -0.11172779
0003b0 6b 10 7f 3e fd 8e 90 3d c0 45 b6 3d e9 4d 63 3e
       0.24908607 0.07058523 0.089000225 0.22197689
0003c0 43 47 24 bd 84 b9 0c 3e 9d b2 2a 3e 17 77 8d bd
       -0.040107023 0.13742644 0.16669698 -0.0690748
0003d0 bd c8 c0 3b b9 fc 37 bd 0b e5 91 3c bd b0 ce 3d
       0.005883305 -0.04491875 0.017809412 0.10092304
0003e0 5f 48 1f bc e3 39 17 3e d9 b2 95 bc 19 c1 e3 3d
       -0.009721844 0.14768176 -0.018273758 0.11120815
0003f0 eb 0b 47 bd 47 52 c0 3d 22 d3 58 3c 30 77 02 be
       -0.04859535 0.09390693 0.013233932 -0.12740779

arith.constant4 f4 [48, 32]
000000 06 a7 9b 3d 18 6c 8a bc f3 4f 48 3d 03 86 7f 3e
       0.076002166 -0.016897246 0.04890437 0.24953465
000010 68 50 2b 3e df 90 59 3e cf 26 b8 bd 2b c8 80 be
       0.16729891 0.2124667 -0.08991777 -0.25152716
000020 b1 36 76 3a 26 5a 02 be ea 3a 87 be 43 d4 f2 bd
       0.0009392305 -0.12729701 -0.26412135 -0.11856892
000030 3d 42 7b 3e fd 84 41 3e 57 76 47 3e aa 51 69 be
       0.24536987 0.18898387 0.19478737 -0.22785059
000040 32 19 1e be 83 88 3a bc 82 46 54 bd b4 99 16 3e
       -0.15439299 -0.011385086 -0.051825054 0.1470707
000050 da 0b c7 bd 8d 47 fc 3d f4 17 ae 3d 6e d1 66 bd
       -0.097190574 0.12318335 0.085006624 -0.05635207
000060 fc 64 74 3d 89 07 f7 3d 77 d0 f8 3d af 96 05 be
       0.05966662 0.12061984 0.121491365 -0.13045762
000070 0d 72 e8 bc 53 68 8a be b6 cb 67 3c 91 85 de bd
       -0.028374696 -0.27032718 0.01414769 -0.108653195
000080 69 21 09 bd b0 7c 98 3d 77 94 42 be 91 a1 06 3e
       -0.033479128 0.07445657 -0.19001947 0.1314757
000090 c4 c9 be 3c ed 15 8c 3d 51 5f 47 be 8c fc 67 be
       0.023289569 0.068401195 -0.19469954 -0.22654933
0000a0 b7 0b 88 3d 86 45 b7 3c 90 8c 28 3e 73 0c 55 be
       0.066428594 0.022372019 0.1645987 -0.2080553
0000b0 bd 07 ca ba 1a 8c 42 3e d7 7b a8 bd 7f 01 21 be
       -0.0015413683 0.18998757 -0.082267456 -0.15723227
0000c0 1b a7 70 3e 69 94 df bd 34 72 e4 3c da 6d b6 bc
       0.23501246 -0.10916979 0.027886488 -0.022269178
0000d0 b7 e6 1a be a0 d3 78 3e 9e a4 de 3d 65 a8 1b be
       -0.15127073 0.24299479 0.10871242 -0.15200956
0000e0 c3 52 47 3e 6e 3f b8 bd 5e fe 09 3e 43 22 33 be
       0.19465165 -0.08996473 0.1347594 -0.17493539
0000f0 b8 a2 52 be b2 ad 2e bd 18 34 08 3e b7 a0 f3 bb
       -0.20569885 -0.042646118 0.13301122 -0.00743493
000100 4b aa 55 be 8f 52 be bd ac eb 84 bd 3c df 14 be
       -0.20865743 -0.092930906 -0.06490263 -0.14538282
000110 c9 dc c8 bd 84 ae 4f 3e 32 b3 81 3e 31 e2 62 3e
       -0.098077364 0.20281416 0.25332028 0.22156598
000120 37 32 55 be c1 69 19 be d4 13 05 be eb 12 55 3e
       -0.20819937 -0.14981748 -0.12995845 0.20807998
000130 9b 71 2b be 0a e2 8a 3d f9 c2 d3 3d 58 1e 88 3b
       -0.16742556 0.06781395 0.103399225 0.004154008
000140 1b e1 fb bd c4 cc a4 3c fb 04 fb 3d b7 2b 2d 3e
       -0.12298795 0.020117171 0.12256809 0.16911207
000150 8c 9d 14 3e a9 f0 03 be 93 2e be bc 9d f2 a6 3d
       0.14513224 -0.12884773 -0.023215568 0.081517436
000160 47 2e a6 3d c2 a3 a7 bd a8 b2 2f be 3e 02 4d 3e
       0.081142955 -0.08185531 -0.17157996 0.20020387
000170 7a 3c 22 3d 96 0a 0d 3d f8 c6 8f 3d a5 99 72 3e
       0.039608456 0.034433924 0.07020372 0.23691423
000180 13 8d da bd 5e 0c 09 3e ac 1b 80 3e 88 5b 32 be
       -0.10671439 0.13383624 0.25021112 -0.17417729
000190 b6 dc ce bd 57 7a 22 be b3 14 b3 bb 5b ca a3 bd
       -0.10100691 -0.15866981 -0.005465114 -0.079975806
0001a0 b7 85 bd bd 3c 0c 3b be f5 34 70 3d 4e 0b 4c be
       -0.0925402 -0.18266386 0.058644254 -0.19926187
0001b0 64 46 8b be 74 5a c8 bc 2c ef 48 be 95 80 ca bd
       -0.2720214 -0.024457194 -0.19622487 -0.09887806
0001c0 06 bc 68 be 07 de 97 3e 05 1f 26 3e 3b f3 9e 3d
       -0.22727975 0.2966158 0.1622277 0.07761236
0001d0 b2 fd a7 bd af 7b 59 3d a5 62 fd 3b f0 af 38 be
       -0.082026854 0.05309647 0.0077327066 -0.18035865
0001e0 a3 61 b5 bd 9e d5 89 be b1 a4 df bd 71 bc 6d 3d
       -0.08856513 -0.2692079 -0.10920084 0.05804104
0001f0 25 02 95 bd 24 4a 06 3e 55 d9 d0 bb 6a 38 02 be
       -0.072758 0.1311422 -0.0063735642 -0.12716833
000200 a6 d2 c5 bd c2 d6 5b 3e ba ab dd bd f6 12 6d 3e
       -0.096593186 0.21468642 -0.1082377 0.23151764
000210 a9 f8 85 3c 08 27 06 be ec 1b 6a 3e f0 c3 c8 3d
       0.016353922 -0.13100827 0.22862214 0.09802997
000220 d1 59 f8 3b f9 cb 31 be e2 82 81 3c 7a e1 6c bc
       0.0075790663 -0.17362966 0.01580948 -0.014458055
000230 c8 ac 19 3e 04 d2 0c 3e a2 d7 49 be c7 8d 8d be
       0.15007317 0.1375199 -0.19711164 -0.2764723
000240 88 39 4a 3c 78 5b 92 bd 56 34 88 be 37 1a 7d be
       0.012342818 -0.071463525 -0.2660243 -0.24717031
000250 5d 7d fd bd 20 7d 28 be 11 8c 3a 3e 74 13 12 be
       -0.12377427 -0.16453981 0.18217494 -0.14265233
000260 cf 85 15 be e0 d0 34 be b2 d3 86 bd 11 70 00 3c
       -0.14601825 -0.17657804 -0.065833464 0.007839219
000270 8a ff 64 be 4b a0 3a be 3d 50 6d be 43 a5 73 3e
       -0.22363105 -0.1822521 -0.2317514 0.23793511
000280 4b 89 87 3e 1b 74 a7 bd 8e e9 be bd 69 72 b9 3d
       0.26471934 -0.08176442 -0.09321891 0.09055025
000290 a4 fa 33 bd 70 d7 16 3e 44 26 b6 bd 1e 03 96 3d
       -0.0439402 0.1473062 -0.08894017 0.07324813
0002a0 2b b3 21 be 38 3b 40 bd 3f 4b ed bd 21 8c 08 be
       -0.15791003 -0.046931475 -0.11586618 -0.13334705
0002b0 0c 22 06 3d f4 6c 8d be f8 01 00 be c0 ca 17 3e
       0.032747313 -0.27622187 -0.12500751 0.14823437
0002c0 9d 1c 75 3e 5a 6f 86 be a8 87 9e 3d 64 62 2e 3d
       0.23936696 -0.2625683 0.07740718 0.0425743
0002d0 0e 0d 76 3d d5 38 14 3e 66 21 94 3d af b0 38 be
       0.060071044 0.14474805 0.07232933 -0.1803615
0002e0 46 99 00 3e bc 79 88 bd 36 a7 54 3d 95 a0 fe bc
       0.12558469 -0.06663844 0.051917277 -0.03108243
0002f0 47 80 8f be 5c 47 54 be ed da 93 be 33 11 d2 bd
       -0.28027555 -0.20730346 -0.28877965 -0.10257187
000300 45 f2 29 3e dc 9d 93 bd 4c 9c 5f be 3b 6e 61 3c
       0.16596325 -0.07207844 -0.21836966 0.013759191
000310 02 f9 ef 3d ff a8 03 bd 00 6b 85 be 09 88 36 bd
       0.11717416 -0.03214359 -0.26058197 -0.044563327
000320 e8 c3 01 be 9e ef d8 bd 1f 58 7b be fb 05 17 3e
       -0.12672389 -0.10592578 -0.24545334 0.14748375
000330 95 93 2f 3e 4d c5 e7 bd 76 9d 88 be 42 8d e5 bd
       0.17146142 -0.11316929 -0.26682633 -0.112085834
000340 96 ff 58 be d4 c0 01 be f4 a8 b6 3d e3 f7 8d be
       -0.21191248 -0.12671214 0.08918944 -0.27728185
000350 9d 0f 87 be 69 d6 13 3e b6 b3 2a 3e 92 7f 04 bb
       -0.263791 0.1443726 0.16670117 -0.002021764
000360 4a 68 a6 3d 0f b0 47 bd 3e 0e 79 be 2e e2 4e be
       0.0812536 -0.048751887 -0.24321839 -0.20203468
000370 29 b1 9c 3d e8 cd 3c 3d 77 08 38 be e2 bb da bd
       0.07650978 0.046094805 -0.17971979 -0.10680367
000380 cf c3 88 bd 4d b8 9f 3d a9 8b 87 be 2b 6a 1d bd
       -0.066779725 0.077988245 -0.2647374 -0.038431328
000390 d3 74 f2 bd 1a ff a8 bd fc 7c 2a be e0 57 50 be
       -0.11838689 -0.08251782 -0.1664924 -0.20346022
0003a0 a7 9d 0f be 75 e4 38 be f5 bc 55 be 9b bb 36 bc
       -0.14024983 -0.180559 -0.20872863 -0.011153127
0003b0 5f 9b 2e be 3b 7d 82 3e 10 c0 df bd 0c fc 52 3d
       -0.17051457 0.25486168 -0.10925305 0.051509902
0003c0 ba 6f 8a bd ea 57 66 be a5 dd 2e 3d ba cb 3e be
       -0.067595914 -0.22494474 0.042691845 -0.18632403
0003d0 6a 93 3e bd e6 3c 09 3d 8b f8 6c bd e3 de 61 3c
       -0.046527304 0.033505343 -0.057854217 0.0137860505
0003e0 62 82 98 bd 4b 1d 53 be 37 01 8f bd c1 a4 82 3e
       -0.074467435 -0.20616643 -0.069826536 0.25516322
0003f0 82 9f e1 3a 7e 1e 53 be ee 34 3b bd ad 96 f0 bb
       0.0017213675 -0.206171 -0.045704775 -0.0073421807

arith.constant5 f4 [32, 720]
000000 f2 23 c4 3d a5 ab b1 3b 26 62 b2 bd 13 61 54 3d
       0.095771685 0.005422073 -0.087101266 0.05185039
000010 7e 01 c4 bd 9e 0b 82 3d a9 cf f0 bc ea 9e 8b bd
       -0.09570597 0.06349872 -0.029395895 -0.0681742
000020 60 a1 0f 3d 5d a1 83 bc 15 a7 0d 3d 6c 26 35 bc
       0.03506601 -0.016068155 0.03458317 -0.011056524
000030 8c df 67 3d 5b 4e 2d 3d 29 f0 5f bd 7b bb 05 bd
       0.056609675 0.042311054 -0.054672394 -0.0326495
000040 be 35 9c 3d 25 bc b3 3d a5 0a a5 bd 36 4c be bd
       0.07627438 0.0877612 -0.08058671 -0.0929188
000050 4d 30 27 3d df c1 88 3d 1c eb 91 bc 39 07 6d 3d
       0.040817548 0.06677603 -0.017812304 0.057868216
000060 7b 2d 2c 3d 82 31 ee bd e7 80 cc bc 6a c3 99 bd
       0.04203556 -0.116305366 -0.02496381 -0.075079754
000070 a2 1b ed bb f9 75 9d 3d de 3f ae bc 3d 9d 66 bd
       -0.00723596 0.07688517 -0.021270689 -0.056302298
000080 95 1a 7d 3d f7 9d 50 bc 7d 4c ac bc 5c ba aa bd
       0.06179293 -0.012732974 -0.021032566 -0.083363265
000090 86 af 55 bc 78 25 bc 3a c6 82 11 3c c5 2d 91 3d
       -0.013042336 0.0014354428 0.0088812765 0.07088808
0000a0 49 8d 0f ba cb 22 fe 3c db 90 3f bd 9d 7c de bd
       -0.000547607 0.03102245 -0.046769004 -0.10863612
0000b0 11 77 e6 bc 52 bf ba bc 0d 2c 73 bd 33 20 94 3d
       -0.028132947 -0.022796307 -0.059368182 0.07232704
0000c0 dd ba 7f bd 8c ae 9b bd 1a b4 fc 3c 5f 6e b5 3d
       -0.062434066 -0.076016515 0.030847598 0.08858942
0000d0 f8 82 1e bd 29 c2 23 bb ca 6d 97 3d 62 58 5f 3c
       -0.03869912 -0.0024987555 0.073939875 0.013631912
0000e0 5a 8e d6 b9 8e dd cc 3d 4b 9f a6 bd cf c6 b4 3d
       -0.0004092332 0.10003196 -0.081358515 0.08826982
0000f0 b3 6e 77 bd 40 87 78 bd 86 bf 18 3d 96 9a 6e bd
       -0.060408305 -0.06067586 0.037292026 -0.058252893
000100 25 8e 51 bd db fa 72 3d f5 c2 fe bc 92 9b 0e 3d
       -0.05116095 0.059321266 -0.031098822 0.034816332
000110 c7 2e 87 3d 97 2a 8e 3d d3 88 ea 3c 99 f1 9e 3d
       0.06600719 0.06941717 0.028629696 0.07760925
000120 8b 78 a1 3d 3f 3e b5 3b 14 37 c6 3c d2 f6 d0 bc
       0.0788432 0.005531102 0.024196185 -0.025508318
000130 d4 90 1e 3d 89 13 8f bd 35 93 53 bd b6 e3 ff 3c
       0.038712338 -0.06986148 -0.05165406 0.03123651
000140 18 f7 4e 3d 7c 6d 0f bd 27 54 c3 bd cf dd 80 bd
       0.050528616 -0.03501652 -0.09537535 -0.06292307
000150 65 5a 20 3d 7c 2a 95 3c 10 b9 3e 3d b0 68 46 3d
       0.039148707 0.018208735 0.046563208 0.04843968
000160 b1 08 c1 bd 82 e1 e6 bc 35 13 71 39 cd 95 42 bd
       -0.09425486 -0.028183702 0.00022990706 -0.047506142
000170 e3 52 3c bd 5f 7e 44 bc b9 b9 45 3d b2 ba 47 bd
       -0.045977484 -0.01199302 0.048272822 -0.04876203
000180 60 f3 50 bd 7a b8 71 bd 43 bf 22 bd 07 1a a6 bd
       -0.05101335 -0.05901382 -0.039733183 -0.08110433
000190 1c 6a a9 3d 8b 55 c2 bb 58 b4 45 3b c7 cd 17 3c
       0.08272192 -0.0059306077 0.0030167308 0.00926537
0001a0 13 dc 8a bb ff 86 94 bd 97 75 2b 3c 35 3d 83 3c
       -0.0042376607 -0.07252311 0.010465047 0.016020397
0001b0 1b ec b5 3d 68 4d 0b 3d da 76 8f bc 01 1e 9d 3d
       0.08882924 0.034009367 -0.017512728 0.076717384
0001c0 63 7b 58 bc b3 07 0b 3d 94 88 57 3c 43 c8 89 bc
       -0.013213011 0.03394289 0.013155121 -0.016819125
0001d0 75 0e 10 3d 63 d1 a1 bc 19 b8 8c 3d 09 ca bb 3c
       0.035170037 -0.019753164 0.06871051 0.022923486
0001e0 e6 41 11 bd f3 48 72 bd e0 26 c6 bd 51 42 73 bd
       -0.035463236 -0.0591516 -0.096753836 -0.059389416
0001f0 0b 4e ca 3b 38 17 0f 3d a3 9d 17 3d dd bc c1 bd
       0.006173854 0.034934253 0.03701557 -0.09459851
000200 2a f4 ba bd c2 24 bf 3c 9a 93 a2 bd c3 b0 8e 3d
       -0.09128602 0.023332957 -0.07938309 0.06967308
000210 30 6c ac 3d 59 f2 ea bd 43 10 44 bd c4 09 3a 3d
       0.08419073 -0.114720054 -0.04786707 0.04541947
000220 27 9c aa 3d 79 98 7a 3d 96 b7 f6 bb 3b 4a e6 bd
       0.08330565 0.061180566 -0.0075292094 -0.11244627
000230 d2 0c 77 bc 8f f3 82 bd fd 06 7b bd 87 98 29 3d
       -0.01507874 -0.06394111 -0.06128596 0.041405227
000240 9c 82 05 bd db 61 1b bd 77 97 1b 3d 89 88 2f 3d
       -0.032595262 -0.03793512 0.037986245 0.04285482
000250 59 90 16 bd aa 2c d2 bb a6 8a 46 bc 5c 66 b0 bd
       -0.036758754 -0.006414016 -0.012118017 -0.086132735
000260 05 bb 4f bd 64 2f 88 3d 8a 1e ac bd b2 0c 49 bc
       -0.050715465 0.06649664 -0.08404262 -0.012271093
000270 24 7d 59 3c 3c 0c 95 3c 6f 9a 94 3d ef 53 86 bd
       0.013274465 0.01819431 0.07256018 -0.06558978
000280 7b 56 7e bd 84 ad 8b bc 85 af 68 3b 99 8c be bd
       -0.062094193 -0.017050512 0.0035505008 -0.093041606
000290 03 55 76 bd 08 b4 a7 3d b1 43 a4 bd d2 b4 70 bc
       -0.060139667 0.08188635 -0.080207236 -0.014691548
0002a0 ff c2 ad 3d 40 bf d4 bb c8 78 ff ba 48 36 2b 3d
       0.08484458 -0.0064925253 -0.0019490952 0.041799814
0002b0 fd 56 21 3d dd 87 32 3d c3 1e 98 3d 37 c8 48 3d
       0.0393896 0.0435866 0.07427742 0.049019065
0002c0 bc 14 5a bd ca bd 47 bd f7 28 ad bd 0d 30 3e bc
       -0.05324243 -0.04876498 -0.08455079 -0.011608136
0002d0 ee bc 20 bd e9 c8 0b 3d 33 aa 73 3c 23 29 91 bd
       -0.039242677 0.03412715 0.014872122 -0.07087924
0002e0 f0 60 ad bb 8c 7a a0 bd d6 80 89 3c 2c ab b2 bc
       -0.005291097 -0.07835874 0.016785067 -0.021810137
0002f0 25 cd 53 3d 3a 68 8c bd 1e c4 73 3c df c1 9b bd
       0.051709313 -0.06855817 0.014878301 -0.07605337
000300 4e e2 67 3d 80 8b f9 3c 39 b3 ab bd 8a 42 af 3a
       0.056612305 0.030462027 -0.083837934 0.0013371271
000310 26 5b 85 3d fd 32 7c bc 73 4c 88 3d ae d8 75 3d
       0.06511526 -0.015393016 0.066552065 0.060021095
000320 51 8f 88 bd 15 e4 38 bc b8 64 b3 bd 65 2e 3e 3d
       -0.066679604 -0.011284848 -0.08759445 0.046430964
000330 e8 7d 10 bd 11 db 76 3b 4c f4 cc 3a ae 28 a3 3d
       -0.035276324 0.0037667195 0.0015636771 0.079667434
000340 1d d5 70 bd a7 c5 72 3d e0 70 98 bd 58 4a 3a 3d
       -0.05879699 0.059270527 -0.07443404 0.045481056
000350 a3 5b af bd 17 c2 7e 3d 26 3d 3e bb ca 6b 42 3c
       -0.085624 0.062196817 -0.0029028147 0.011866519
000360 e2 92 b1 3c e4 e6 14 3d e1 78 bf bd bf 30 a1 bd
       0.021676484 0.036353007 -0.09349228 -0.07870626
000370 3b 17 10 bd 4b 9e fc bb cd b7 1b bd 1f a9 4c bd
       -0.035178404 -0.0077092997 -0.038017083 -0.049965974
000380 62 ce 7f bd 12 57 be 3c 68 ce b7 bd 24 ff 83 3d
       -0.06245268 0.023234878 -0.08974916 0.064451486
000390 57 dd 12 bd ab b5 7c bd b6 23 9d 3c 21 f2 90 3c
       -0.035855617 -0.06169669 0.019182067 0.017693581
0003a0 30 53 bc 3c 1a 99 36 bc 5d 1c 39 bd e1 47 d2 bd
       0.022988886 -0.011144901 -0.045193065 -0.10267616
0003b0 9d 88 f3 3b ec 5f 92 3d 39 9f cd bc 62 66 a2 3b
       0.007432057 0.07147202 -0.025100337 0.0049560526
0003c0 41 f1 0d 3b 4a cf 4d 3d 61 ab a3 3d 43 9c 85 3d
       0.002165869 0.050246514 0.07991672 0.06523945
0003d0 83 10 35 bd fb 8d 5b 3d 17 2f 8f 3d 1e 98 a4 bd
       -0.0442052 0.0536022 0.069914035 -0.080368266
0003e0 1d a8 8b 3d 10 87 bf 3d 8b 98 8a 3c e9 d1 0d 3d
       0.068191744 0.09351933 0.016918441 0.034624014
0003f0 0f 42 bb 3d 11 a6 e5 3c d7 e5 4e bd 8f de 2b 3d
       0.09143459 0.028033288 -0.05051216 0.041960295

arith.constant6 f4 [3]
000000 a9 f6 99 3d ee fb 82 bd a2 f1 97 bd
       0.0751775 -0.06395708 -0.07419135

arith.constant7 f4 [32]
000000 3f 81 18 3d 9a 50 35 bd 5f 55 59 bd 9a 88 5b bd
       0.037232634 -0.04426632 -0.05305993 -0.05359707
000010 a5 b7 8c bd 79 ac a7 3d c6 2d 41 bc c9 50 9e 3b
       -0.06870965 0.081871934 -0.011790698 0.0048314077
000020 5e 5e 49 3c 57 79 a2 3d 4d de 31 bd 4d be 99 3d
       0.012290565 0.079333 -0.043424893 0.07507
000030 22 77 97 bc 96 1a 36 bd 86 1e a7 bc cd 73 98 3d
       -0.018489424 -0.044458948 -0.020400297 0.07443962
000040 0f c3 1d 3d 70 24 be 3d 3a ce 4a bd d0 a1 21 bd
       0.0385161 0.09284294 -0.04951308 -0.039460957
000050 75 92 6b b3 28 24 c9 3d fb e2 9d 3d d9 95 9f 3d
       -5.4848403e-08 0.098213494 0.07709309 0.07792253
000060 f1 79 a4 3d 90 31 61 bd c8 88 6e bd 44 df 51 3d
       0.08031071 -0.054978907 -0.058235914 0.051238313
000070 80 c7 4f bd 41 5f cc 3c 2f a3 9f 3d bc c1 de bc
       -0.050727367 0.024947764 0.07794797 -0.02719199

arith.constant8 f4 [48]
000000 c2 58 57 bc d4 de 56 bd 4d cf 40 bd 7b 37 b1 3c
       -0.01314372 -0.0524586 -0.047072697 0.0216329
000010 35 37 98 3d 58 4b 6a bd d6 d5 58 3d 3f b0 59 3c
       0.07432405 -0.05720076 0.052938305 0.013286649
000020 26 31 e5 3b 14 ea 70 3d 7d ff 52 bc f7 31 89 3d
       0.0069943843 0.058816984 -0.012878296 0.06698983
000030 a9 b6 02 bd a7 bd 13 bc ac 44 ec bc e6 fa e0 bc
       -0.03191248 -0.009017385 -0.028841339 -0.027463388
000040 f3 b0 87 3d 10 ec 99 bd ef 38 33 bd a9 69 62 bc
       0.06625547 -0.075157285 -0.043755468 -0.013819137
000050 3f 67 bc 3c ef d1 5a 3b e9 16 64 bd 6a 83 4a bc
       0.02299845 0.003338929 -0.05568591 -0.012360433
000060 6e a2 ec bc 4d 71 88 bd 05 8f 8c 3d aa 9d 93 3d
       -0.028886046 -0.066622354 0.06863216 0.072078064
000070 03 67 7d 3d d6 a9 1e bd 19 ec 02 bd a7 4a c0 3d
       0.061865818 -0.038736187 -0.03196344 0.09389239
000080 0c ab 91 3d c2 c5 2f bd 27 a3 71 bd 6e 4d 7c 3d
       0.07112703 -0.042913206 -0.058993485 0.06159728
000090 a8 c5 2f bd 50 d8 75 b8 72 b5 88 3c 1d 23 f4 bc
       -0.04291311 -5.861401e-05 0.016688082 -0.0298019
0000a0 e6 5a 45 3d 0e 08 92 3d 1c a5 37 bd 54 a6 6e bd
       0.04818239 0.071304426 -0.044835195 -0.05826409
0000b0 14 c5 22 3d 5f 4a 85 3d a4 ab 48 bd 88 a4 77 bd
       0.03973873 0.06508326 -0.048991814 -0.060459644

arith.constant9 f4 [48]
000000 ce 44 86 3d 6e 19 05 bd f0 c0 2c bd df 8a 84 3d
       0.06556092 -0.032494955 -0.042176187 0.064718
000010 4c 07 7c bd 25 1c 48 bb 27 63 07 3d 66 47 92 3d
       -0.061530396 -0.0030534354 0.033053543 0.071425244
000020 bd 46 20 bd bf 7e d6 bc 0c a0 80 3d 3a 4f 4c bd
       -0.03912996 -0.026183484 0.062805265 -0.049880244
000030 49 bf 8b 3d 8c e6 6f bd d3 39 31 3d 3d d8 82 bc
       0.06823594 -0.058569476 0.043268036 -0.015972251
000040 07 bc 3b bd 8f 68 4c bd 43 8a a6 3d 33 b4 64 3d
       -0.045833614 -0.049904402 0.0813184 0.055835914
000050 b1 e5 c3 3c cf 3c 55 3d 99 4c 92 3d bc 2a b4 bc
       0.023913236 0.052059945 0.07143516 -0.021993034
000060 f6 09 d9 bc 2b 50 05 bd a5 63 12 3d 10 aa 0d 3d
       -0.026494008 -0.032547157 0.03573956 0.034586012
000070 0e ea 42 bd 9f 92 ef 3b 65 f7 10 bd 62 89 67 3d
       -0.047586493 0.00731118 -0.035392184 0.056527503
000080 c1 16 86 3d 3c 21 d1 bc 22 88 80 3d cb 94 a3 3d
       0.06547309 -0.025528543 0.06275965 0.079873644
000090 e0 55 69 bb c0 92 8d 3d 90 bd 27 bd a4 7e 3a bd
       -0.0035604164 0.06912756 -0.040952265 -0.04553093
0000a0 1e 43 59 bd 09 5a 19 bc 65 c6 57 3d 8b 9d a5 bc
       -0.053042524 -0.009359845 0.05267944 -0.020216724
0000b0 00 00 00 00 96 30 e2 3c dd 73 30 bd e6 fa 4a bd
       0.0 0.027611058 -0.043079246 -0.04955568

arith.constant10 f4 [48]
000000 c9 c2 42 bd 60 a8 17 bc f9 4d 91 bd f6 50 69 3d
       -0.047549043 -0.009256452 -0.0709495 0.056961976
000010 9f 1d fb bc 6a 59 16 bd b7 09 12 3a 03 66 f1 bc
       -0.030653773 -0.036706366 0.00055709056 -0.029467588
000020 db ad 83 3d 89 a9 86 3c 96 c4 c4 3c 82 75 01 bd
       0.06429645 0.016438263 0.02401952 -0.031606205
000030 61 f2 85 3b 55 fd 88 bc 34 68 75 3b 6f c2 1a bd
       0.0040877317 -0.01672236 0.0037446143 -0.037783083
000040 80 ac 54 bc 81 09 cb bc c8 eb 4c 3d d4 a3 27 bd
       -0.01298058 -0.024784805 0.050029546 -0.040927723
000050 ae 69 81 bb 6e ce 39 bc ed 7f 81 3d 22 a9 6b 3d
       -0.0039493656 -0.011340721 0.06323228 0.057534344
000060 0e 73 0a bc f4 51 32 bc 28 0c 9b 3d a2 dd 42 3d
       -0.008450283 -0.010883797 0.07570678 0.047574647
000070 06 79 55 3d e8 3a 28 bd a2 97 81 3d ce 35 87 bc
       0.05211737 -0.041071802 0.0632775 -0.016505148
000080 1f 15 b3 3d 80 88 9e ba ad 0a 72 3d 86 2d 74 3d
       0.08744263 -0.0012095124 0.059092212 0.059613727
000090 bd b4 53 bc d0 30 73 3d e4 c5 08 bd 14 89 d7 3c
       -0.012921509 0.059372723 -0.03339185 0.026310481
0000a0 b6 ba 20 bd 61 db 9c 3c 49 d5 7b bc 62 97 2f bd
       -0.03924056 0.019147577 -0.015370675 -0.04286898
0000b0 34 a9 f6 3b 20 e9 44 bd d2 cd 1f bd ee 05 24 bd
       0.007527495 -0.048073888 -0.039014645 -0.040044717

arith.constant11 f4 [32]
000000 6b c3 bf 3c 43 2d e9 bc b6 47 d3 3c c2 67 b4 3c
       0.023408612 -0.028463965 0.02579103 0.022022132
000010 9f 7a 65 bb 8c 49 1b 3d 00 06 c4 3c 8e 64 3a 3d
       -0.0035015715 0.037911937 0.023928642 0.045506053
000020 cc f3 5a 3b cc 57 19 bd 7f 80 8a bb 9b 7b af 3c
       0.0033409474 -0.037437245 -0.0042267437 0.021421244
000030 53 6d 92 3c 38 e1 1e 3d d9 29 67 3d 78 a3 a7 b9
       0.017874395 0.038789004 0.056436393 -0.00031974516
000040 33 31 07 bc d3 0f 68 3d d4 39 b2 3c 46 3a b9 ba
       -0.008251476 0.056655716 0.02175609 -0.0014131747
000050 31 5f 1a 3d 8b f7 d8 bc 5f cf 65 bc ba fa e6 3c
       0.037688438 -0.026485225 -0.014026492 0.028195728
000060 13 9e 68 bd a8 da 72 3d aa c5 a4 3b 68 85 ce bc
       -0.056791376 0.059290558 0.005028446 -0.025210097
000070 1d 92 13 bc 79 d2 aa bb 02 c4 ab bb d5 2e e4 bc
       -0.009007004 -0.0052130786 -0.005241872 -0.027854363
