model/model.tflite (tflite, 127644 bytes, 12 tensors)

arith.constant f4 [3, 32]
000000 ed dd 76 be 8d 64 0a 3d 46 e1 b4 3e 1b 9b 8a be
       -0.24108095 0.0337873 0.3532812 -0.2707146
000010 6b 9d d9 bd fe da 95 bd ac c5 b4 3d 03 9a ea 3d
       -0.10625728 -0.0731716 0.088267654 0.11455157
000020 db da ca bb 8e 02 b2 bd 61 a8 bc bd d6 bd bd be
       -0.0061906404 -0.086918935 -0.09211803 -0.37058896
000030 80 7c ec bd ef 9e 0f 3e 91 75 cd 3e 65 01 2a 3d
       -0.11547184 0.14025472 0.4012876 0.041505236
000040 d7 cb 2e 3e 61 99 bf 3e f7 31 cb be 3e 6e e9 3e
       0.17069946 0.37421706 -0.39686558 0.4559192
000050 06 c5 cd 3e c6 da cf 3e 21 1c 16 3e b5 58 6a b9
       0.4018938 0.40596598 0.14659168 -0.00022349025
000060 10 57 6b 3d 17 b4 86 3e 88 88 a8 bd c1 49 99 3e
       0.057456076 0.26309273 -0.08229166 0.29939082
000070 8b 60 9e 3e 6e 27 27 be 9f f2 f2 3d e5 36 5c be
       0.3093303 -0.16323635 0.118626826 -0.21505316
000080 6d 85 be be 05 ee 46 be 26 1c 03 be 49 67 bc bd
       -0.3721117 -0.19426735 -0.12803707 -0.091993876
000090 11 0f 39 3b ec c5 99 be c7 7f 99 be 13 b7 6a be
       0.002823774 -0.30033815 -0.299803 -0.229214
0000a0 0b 87 f3 bd 0c d7 a3 3d aa d5 ab be d2 14 59 be
       -0.11890992 0.08000001 -0.3356145 -0.21199349
0000b0 5e 67 92 3e 71 c2 a8 be 1f 0b b8 3e 5c 19 95 3d
       0.28594488 -0.32960847 0.35945985 0.072802275
0000c0 5d 5f 70 be ef 65 c6 be a3 38 85 be a9 23 e3 be
       -0.23473878 -0.38749644 -0.26019773 -0.44363144
0000d0 9b 4a dd bc 16 82 b0 3e bb 50 6d 3e 8d d9 b6 be
       -0.027013114 0.34474248 0.23175327 -0.35712853
0000e0 06 3e 60 be 3a 5b a0 bd ef 75 6e bd 08 6a b9 be
       -0.2189866 -0.078299 -0.05821794 -0.36213708
0000f0 be 68 39 3e e4 a7 cd 3d 72 d3 14 3d 5c 5a 07 be
       0.18106362 0.10041788 0.036334462 -0.13218063
000100 61 f1 d6 bc 5d d2 96 3e 98 96 82 3d c0 cb b4 be
       -0.026238145 0.2945737 0.0637638 -0.353117
000110 61 3b b7 3e 63 75 71 be 8c 8a 83 3d 3d 48 bc 3e
       0.3578749 -0.23579936 0.0642291 0.36773863
000120 55 31 2c ba e0 ad b3 bc 1b 07 80 3e 8d 13 c9 3d
       -0.00065686303 -0.021933496 0.2500542 0.09818182
000130 a9 bb 30 bd 9e 2c d0 be 42 6c 6d 3e 0f d5 9f 3e
       -0.043147717 -0.4065904 0.23185828 0.31217238
000140 4c fa c3 3e 0f 62 12 3e 0b 50 87 be 84 b8 ad be
       0.382769 0.14295219 -0.26428255 -0.33929837
000150 ef 03 4e be 5e a3 6b 3e 86 74 26 3e 7f f8 cf 3e
       -0.20118688 0.23011538 0.16255388 0.40619275
000160 3d 30 53 3e de ee a3 3e ea d8 b9 be 63 2f 6d be
       0.2062387 0.3201818 -0.36298305 -0.23162608
000170 a0 5b 0f 3d 00 9e 31 bd ac 48 d2 3d ad 30 e3 3d
       0.03499949 -0.04336357 0.10267767 0.110932685

arith.constant1 f4 [32, 48]
000000 85 4c 63 3e fe 73 07 3e b2 19 18 be 9e a8 2e 3e
       0.22197159 0.13227841 -0.14853552 0.1705651
000010 15 50 60 be d2 64 82 be d0 d4 ad bd 59 19 19 3d
       -0.21905549 -0.25467545 -0.084878564 0.03737769
000020 a1 c3 81 3e ae b6 6d be bb 1c 43 3e 4b c9 80 3e
       0.25344566 -0.23214218 0.19053929 0.25153574
000030 6f 5a c0 3c 09 d9 1a be b3 ae 36 3e da ea 8d be
       0.023480622 -0.15121855 0.1784008 -0.2771824
000040 58 4e 5a be 55 d3 30 be e9 11 81 bc 9c 20 b0 3d
       -0.21318948 -0.17268117 -0.01575561 0.0859997
000050 c1 a7 a0 3d ae 80 81 be c8 d2 42 3e b7 4b 47 3e
       0.078444965 -0.25293487 0.19025719 0.19462477
000060 1b 7e cd 3d 77 e2 29 3d 00 4f 42 be 2f 27 76 3e
       0.10033818 0.04147574 -0.18975449 0.24038385
000070 04 ff 69 3e b1 76 47 be aa c1 83 bc 1f f4 94 3d
       0.22851187 -0.19478871 -0.016083557 0.07273125
000080 23 ae 7e 3e 47 a2 bb 3d 1a 9b 33 3e d0 db 97 bd
       0.24871115 0.09161811 0.17539635 -0.07414973
000090 70 5d a8 bd 61 05 e3 bd d9 d6 8b be b2 33 46 3e
       -0.08220947 -0.1108501 -0.27312353 0.19355658
0000a0 2e bd 53 be d9 81 6b 3e e3 96 a8 3c 4a d1 fb 3d
       -0.20677635 0.22998752 0.02057976 0.12295778
0000b0 69 2b 2a 3e 86 24 31 be 70 a2 2f 3e 00 8d 1c be
       0.16618122 -0.17299089 0.17151809 -0.15288162
0000c0 cf d0 ba 3d 2a 7a 21 be fb b7 5b 3e 73 66 5c 3e
       0.09121858 -0.15769258 0.21456902 0.21523456
0000d0 a2 3f 32 be f2 35 27 be 1d 00 43 3e 74 f6 f6 bd
       -0.17407086 -0.16329172 0.19043012 -0.12058726
0000e0 92 c9 d1 bd d3 ec 87 3c 50 83 85 be 52 b9 7e be
       -0.102435246 0.016592419 -0.26076746 -0.24875382
0000f0 34 9f 7e 3d b2 bc 3a bd 45 3f 8a 3e 08 ca 40 3e
       0.062163547 -0.04559011 0.27001396 0.18827069
000100 c4 e6 88 be ab 75 5e 3e a1 73 eb 3d bd 58 05 3e
       -0.2673856 0.21724574 0.11496664 0.13022132
000110 b2 81 57 be a5 8b 4f 3e 6f 19 8b 3e 74 d4 05 3d
       -0.21045569 0.20268114 0.27167842 0.032673314
000120 8c c2 64 3d df 10 82 3e c0 47 f9 3d 1e ce e3 bd
       0.055849597 0.25403497 0.12171888 -0.11123298
000130 80 da 7d be 8d 18 ba bc 62 a8 7e bb 26 37 09 bd
       -0.24790382 -0.022716785 -0.0038857688 -0.03349986
000140 60 7f 55 bc ed f9 6f be bc b7 41 be f4 39 cb bc
       -0.013030857 -0.23435183 -0.18917745 -0.024807908
000150 0f 3f 1e 3e 40 73 20 3e 2a bc 07 3e 37 04 04 3e
       0.15453742 0.15668964 0.13255373 0.12892233
000160 08 6c ce 3d b2 68 fa 3c e1 a5 d4 3d 2c d2 9b 3d
       0.10079199 0.0305675 0.103832014 0.076084465
000170 74 6a 09 be 7b 75 72 be 05 68 82 be ff c3 3b be
       -0.13419515 -0.23677628 -0.25469986 -0.18336485
000180 47 be 84 be dc 87 2a be 1f 96 56 3e 33 aa 3c 3b
       -0.2592642 -0.16653389 0.20955704 0.002878797
000190 62 e6 8d 3e 0b 48 71 3e e8 03 8d 3d c2 da 2d 3e
       0.2771483 0.23562638 0.06885511 0.1697798
0001a0 64 43 42 3d fe cb 85 3e 8a a5 ef bd 58 7b 2f bd
       0.04742755 0.26132196 -0.11701496 -0.04284224
0001b0 58 c3 3e be 28 0e a9 bc 03 69 28 3e 8b 21 2b 3b
       -0.18629205 -0.020636633 0.16446309 0.0026112522
0001c0 74 57 bc 3d 75 ec 75 be fc 7e 5f 3d 4b 51 d0 bd
       0.09196368 -0.24015982 0.05456446 -0.101717554
0001d0 f0 8d 02 be c8 64 82 3e 84 3d e8 3d 18 e5 53 be
       -0.12749457 0.25467515 0.11339858 -0.20692861
0001e0 67 5c 4f 3d 5c 0f 3b 3e 55 57 f1 3c c0 ff 5d 3e
       0.05062523 0.18267578 0.029460588 0.21679592
0001f0 28 4b ce bd 15 bb 08 bd 7c ed 9e 3d da 70 79 be
       -0.10072929 -0.03338154 0.0776014 -0.24359456
000200 b1 ce a0 3c c1 ee a2 bd 3d 2b 20 3e 3f 60 1d 3e
       0.019629808 -0.07955695 0.15641494 0.15368746
000210 32 8e 7d 3e c1 6b 0a be 57 e8 e2 3d 5c a8 5e be
       0.24761274 -0.13517667 0.110794716 -0.21743912
000220 66 3a 13 be f9 28 13 3e 13 c1 84 3e 44 01 6e 3e
       -0.14377746 0.14371099 0.25928554 0.2324267
000230 1d fb 17 3e 1e 94 dd bd b1 28 3f 3e d7 bf 1e be
       0.14841886 -0.10819267 0.18667866 -0.15502869
000240 33 5a 7b be ea 27 3b 3e 7d 7e 33 be 9c 4c 7d bd
       -0.24546127 0.18276945 -0.1752872 -0.06184064
000250 6b 41 18 3e 55 51 de 3d e7 bd fc 3b e7 b0 77 3e
       0.14868705 0.108553566 0.007713068 0.24188577
000260 bd 84 c1 bc 82 3d 20 be 25 50 09 be 35 8d 83 be
       -0.023622865 -0.15648463 -0.13409479 -0.2569367
000270 0c 5c 56 be ee af c8 bd 34 00 12 3e 8c a6 44 be
       -0.2093355 -0.09799181 0.1425789 -0.19204158
000280 a5 97 60 be f9 1a 7a bd 1a 01 39 3d c7 cc e4 bd
       -0.21932848 -0.06106088 0.045167066 -0.11171871
000290 8d da a1 bc 17 de 6c 3e 3c 89 85 be c9 4b 23 bd
       -0.019757533 0.23131596 -0.26081264 -0.039867196
0002a0 61 a8 e7 3c f7 a1 84 be 40 e4 99 bd b8 52 e9 3d
       0.028278532 -0.2590482 -0.07514238 0.113927305
0002b0 32 92 17 be a9 d1 ca bd 7e b7 6b be 52 02 85 3e
       -0.14801863 -0.09903271 -0.23019215 0.25978333
0002c0 90 94 40 3e 36 b9 b2 3d 52 19 01 bc ee 3d 61 3e
       0.18806672 0.087267324 -0.007879572 0.2199628
0002d0 31 9a 39 3e ad 58 4b 3e 92 e3 90 be 8d 01 1c be
       0.18125226 0.19858046 -0.28298622 -0.15234967
0002e0 4f 25 08 3d d4 47 42 3e dc c0 84 3e 60 8b 27 3c
       0.033238705 0.18972713 0.2592839 0.010226101
0002f0 7e 95 89 3d bb 60 17 3e 2c 99 69 be 0d 28 80 be
       0.067179665 0.14782993 -0.22812337 -0.25030556
000300 d5 a6 d9 3c e4 91 ba bd f4 fc e6 3d 2b 04 06 3e
       0.02656881 -0.09109858 0.11278716 0.13087527
000310 7e 07 78 be 65 b8 6a 3d fa c8 48 be 39 a8 85 3d
       -0.24221608 0.05730476 -0.19607916 0.065262266
000320 90 2a b1 bc 0e e1 84 be 96 c1 ef bd 7e 8f d5 bc
       -0.02162674 -0.25952953 -0.117068455 -0.026069399
000330 d0 16 69 3e 1c 90 84 3e c0 8e 52 3d b8 f6 09 be
       0.22762609 0.25891197 0.05140567 -0.13473022
000340 57 d0 76 3e 34 76 d5 3d e8 fe 82 be d0 df 89 3e
       0.24102913 0.10422936 -0.25585103 0.26928568
000350 47 d2 62 be ea f8 f2 bd a4 30 8c 3e c4 b1 4c be
       -0.22150527 -0.11863883 0.2738086 -0.19989687
000360 a0 10 53 3d 3f 68 47 be c0 7e 16 3d 98 06 2f 3d
       0.051529527 -0.1947336 0.036741972 0.042730898
000370 9c 01 0e be 28 18 e4 bc a8 fd 51 3e 50 dc 27 3e
       -0.13867801 -0.02784355 0.20506918 0.16392636
000380 8a 56 8f bd d3 2f 19 be 56 20 53 bd 7c e9 72 3e
       -0.06998928 -0.1495965 -0.05154451 0.2372188
000390 3d b5 6e be 1e 10 0e be e9 f9 0a 3e 54 dd 6e 3e
       -0.23311324 -0.13873336 0.13571896 0.23326617
0003a0 19 06 69 3e 69 9f 14 be 9b 06 a3 3d f8 6f fd 3d
       0.22756232 -0.14513935 0.07960244 0.12374872
0003b0 48 c5 22 3e 62 5a 03 3e 9e 13 da bd 3e a2 d4 bd
       0.1589557 0.12827447 -0.10648273 -0.10382508
0003c0 df 97 61 3e 32 85 39 be 88 7d 1b be 3c 14 12 be
       0.2203059 -0.18117216 -0.15184605 -0.14265531
0003d0 77 63 48 3e 51 92 93 bd 30 09 78 3e 56 7d af 3d
       0.19569193 -0.07205642 0.24222255 0.08568828
0003e0 04 11 81 be 75 77 9f bc 71 e1 10 be 87 1f 49 be
       -0.25208294 -0.019466141 -0.14148499 -0.19640933
0003f0 0c 89 4c 3c 3e a8 77 3c fb f7 63 bc b4 99 45 be
       0.012483846 0.015115796 -0.013914104 -0.19296914

arith.constant2 f4 [48, 48]
000000 94 4d 45 3e f5 a2 9a bd bd b2 bd 3d 54 8f 8e 3d
       0.19267875 -0.07550613 0.09262607 0.069609314
000010 b5 f0 a6 3d 9a 7c 05 3b 2c d1 4d bd 6a 85 ae 3d
       0.0815138 0.0020368458 -0.05024831 0.085215405
000020 6c b5 50 be 2d 72 46 3e 1e b1 37 3d 2d 97 57 3d
       -0.20381707 0.19379492 0.044846646 0.052634407
000030 b6 ab 67 3d 53 46 d4 3d 41 4d 2f bc dc 50 07 be
       0.05656024 0.10364976 -0.010699571 -0.13214439
000040 09 5a b0 3b 52 16 fd 3d ea 9d 88 bd 33 03 e7 3d
       0.005381827 0.12357773 -0.06670745 0.11279907
000050 c8 4e f3 3d 41 be 6a 3d 80 b4 19 3c 49 94 8d 3d
       0.11880261 0.057310347 0.009381413 0.06913049
000060 98 60 f3 3d 78 8a c5 3d 50 3e d5 bd d2 b6 46 3c
       0.11883658 0.096455514 -0.10412276 0.012128549
000070 59 c5 41 be 16 3c 35 bd aa c3 60 3e 73 54 7d bd
       -0.18922938 -0.044246756 0.2194964 -0.061848115
000080 c8 e8 d7 3d 34 90 71 be 8b a9 56 3e 86 5d 80 be
       0.105424464 -0.23590165 0.20963113 -0.25071353
000090 3d d4 bf 3d 14 ba 2b be bc e0 23 3e 1f 8e 37 be
       0.09366653 -0.16770202 0.16003698 -0.17925309
0000a0 67 03 13 3e f4 b8 29 bd 56 d5 cd 3d 9e 85 16 be
       0.14356767 -0.04143615 0.10050456 -0.14699408
0000b0 01 b5 4e 3d 70 e1 30 bc d8 37 8b bd c7 d7 58 be
       0.050465588 -0.010795936 -0.06797761 -0.21176063
0000c0 c6 66 12 3e 2d ef ca bd 31 e8 43 bd 84 47 46 3d
       0.14297017 -0.099089004 -0.047828857 0.048408046
0000d0 09 e3 8b 3d 12 88 71 be 00 82 ef 3b 3f 2c 25 3e
       0.06830413 -0.23587063 0.0073091984 0.1613016
0000e0 7b 62 4b be 96 46 5a 3e 12 94 fe bd 82 c3 c8 bd
       -0.19861786 0.21315989 -0.12430586 -0.09802915
0000f0 a8 4b d2 3d cd 68 90 bd 08 77 a9 bd af b5 3b be
       0.102683365 -0.07051239 -0.082746565 -0.18331026
000100 5d ef d6 3d 58 1a dd 3c 5c 51 41 bd bc 0c 16 3e
       0.10494874 0.0269901 -0.04719673 0.14653295
000110 f0 02 8c bd 24 55 1d 3e ad a4 f4 bd 6c bf 6e be
       -0.06836498 0.1536451 -0.11945472 -0.23315209
000120 d0 81 70 bd fa 42 3d be 37 85 51 3e 25 1d 57 be
       -0.05871755 -0.18482581 0.20460974 -0.21007212
000130 13 72 c9 bd 7a 28 57 bd f3 6f 6b 3e dd 5b 5e 3e
       -0.09836211 -0.052528836 0.22991924 0.2171473
000140 e8 7c 65 3e a4 78 5a be be 15 32 3d 3f c3 ca bd
       0.22410929 -0.21335083 0.043477766 -0.099005215
000150 69 f3 e7 bc 2f be d0 bd a7 96 29 3d 73 07 d5 bc
       -0.02831431 -0.10192525 0.04140344 -0.026004529
000160 67 27 ce bd 94 62 aa 3d 7c 8a f9 bd 50 4e 3a 3d
       -0.10066109 0.083195835 -0.12184617 0.04548484
000170 01 dd 28 bd 34 13 4e bb 66 9f ab 3d 8f 95 3a be
       -0.04122639 -0.0031444551 0.08380012 -0.18221115
000180 2d 50 65 be 29 32 13 bd ee 22 57 3e d2 ef a3 3d
       -0.22393866 -0.03593651 0.21009418 0.080047265
000190 a8 d0 bc bd 58 fe 90 bd fb a3 43 be d6 fb 67 3d
       -0.092194855 -0.07079762 -0.19105522 0.056636654
0001a0 6e 0e 75 be 1f 6c 3a be b6 79 98 3c 68 db 20 be
       -0.23931286 -0.18205307 0.018612724 -0.15708697
0001b0 f0 ef f5 3d cf 58 db 3d 8c 21 6d be 25 8c 58 3e
       0.12008655 0.10710298 -0.23157328 0.21147211
0001c0 de 47 07 be e5 87 bd bd 9f 40 4f 3d 55 33 46 3e
       -0.13211009 -0.092544354 0.050598737 0.19355519
0001d0 1e 6a 7b be b0 6c 7a be 5c 68 08 be f7 e8 f3 bd
       -0.24552199 -0.24455523 -0.1332106 -0.11909669
0001e0 1c e6 78 be fb ac ac 3d 37 29 3b be af 9f 43 be
       -0.2430653 0.08431431 -0.18277441 -0.19103883
0001f0 25 9f a6 3d fd 9e 5e 3d 48 fe fe 3d 90 4b 3d 3e
       0.08135823 0.05435084 0.12450844 0.18485856
000200 60 95 b0 3d bf 90 38 be 2a 1c 68 3e e2 fd 06 be
       0.08622241 -0.18023966 0.22666994 -0.13182786
000210 5d c0 a0 bd f6 1b fd bc f0 4f 48 3e 00 09 72 bb
       -0.078491904 -0.030897122 0.19561744 -0.0036931634
000220 96 84 36 be cb 71 97 3d 92 05 a5 bd b8 27 64 be
       -0.17824015 0.07394751 -0.08057703 -0.22280777
000230 0a 0d 12 3e c2 6b 8e bd 00 1d 1b bd 2f 1a 26 be
       0.14262787 -0.06954147 -0.037869453 -0.16220926
000240 04 2e f9 3d 2c 2b bd 3d de f0 08 3e fd ac f3 bc
       0.1216698 0.0923675 0.13373134 -0.029745573
000250 94 80 29 be ed 56 86 be 7e 1a 1c be 96 0a 6d 3e
       -0.16552955 -0.26238194 -0.15244481 0.2314857
000260 d7 f1 1f 3e 8c 50 40 3d e4 1f 38 3e 2c 26 ad bc
       0.15619598 0.046951815 0.17980915 -0.021136366
000270 62 b5 60 be bc dd 7c 3c 53 2f 89 bd 29 51 27 be
       -0.21944192 0.015433725 -0.066984795 -0.16339554
000280 43 da 10 be e1 5a 66 3e 8c 1f 69 3e e6 4f 77 3e
       -0.1414576 0.22495605 0.2276594 0.24151573
000290 f9 2d 18 be df e2 4e be e6 f0 01 be d5 0f 44 be
       -0.14861287 -0.20203732 -0.12689552 -0.19146664
0002a0 af 22 5b be 43 4f fd bd f8 fa 41 3d 35 41 3a 3e
       -0.2139995 -0.123686336 0.047358483 0.18188937
0002b0 aa 0c 4f be 81 dc 1c 3c 78 75 9e bd 28 56 42 3e
       -0.20219675 0.009574057 -0.07737249 0.18978179
0002c0 bb 0d 07 be 4f a6 44 3e 68 13 6d 3d cc b1 e8 bb
       -0.13188832 0.19204067 0.057879835 -0.007101273
0002d0 97 33 db 3d ff 3b 14 be f7 e4 4f 3d a6 df 3f 3c
       0.10703199 -0.14476012 0.050755467 0.011711037
0002e0 4f 47 2e be 0c f9 fe bd 61 70 82 be 7a f8 c8 bd
       -0.1701939 -0.12449846 -0.25476363 -0.09813018
0002f0 05 ee 43 3e 7d 3e 64 be 3e 82 48 3e 6e e2 cc 3d
       0.19133766 -0.22289462 0.19580933 0.100041255
000300 80 d2 60 be 59 0e c0 3b 05 94 23 3e d8 8f fb 3c
       -0.219553 0.0058610854 0.15974434 0.030708238
000310 f1 93 97 bd 93 c9 4b be 23 15 e4 3d 54 5d 5f 3d
       -0.074012645 -0.19901113 0.11136844 0.054532364
000320 48 89 5c 3e aa 6c 7a 3d dc ae ec bd 2a b0 9e 3e
       0.21536744 0.061138786 -0.11556789 0.30993778
000330 2c 84 46 3e 5e 62 56 3e 07 59 51 bd 78 ee f8 3c
       0.19386357 0.20935962 -0.051110294 0.030387148
000340 76 d5 66 3d c1 d4 78 be 8e 6b 94 bd bb e6 19 be
       0.056355916 -0.24299909 -0.07247077 -0.15029423
000350 a8 86 30 3e ea e5 0a be 7c 01 89 bd 01 77 35 be
       0.17238867 -0.13564268 -0.06689736 -0.17721178
000360 ef 53 29 3e 2d 64 d3 3d bd 50 63 3e 37 fc b6 3d
       0.16535924 0.103218414 0.22198768 0.08934825
000370 e3 7e 62 3e 12 12 00 be e1 4b fd bd 15 87 6a be
       0.22118716 -0.12506893 -0.123679884 -0.22903092
000380 e5 08 45 3e e2 ad 66 be c5 63 0d 3e 44 78 0a be
       0.19241674 -0.22527269 0.1380759 -0.1352244
000390 d3 44 de bd d8 fc 3a 3e 41 f4 1f be 45 94 4c 3d
       -0.10852971 0.18260515 -0.15620519 0.04994609
0003a0 98 d6 75 3e fb f7 d5 3c 9c ff f2 bb 9e 04 88 3e
       0.24007642 0.026119223 -0.007415725 0.26566023
0003b0 65 79 a1 3d 5a ea 0b 3e ec 30 9d bd b7 ce 21 3e
       0.07884482 0.13663617 -0.07675347 0.15801512
0003c0 aa 53 1a be 5a b5 84 3e b9 ea a3 3c b0 2d 05 3c
       -0.15070978 0.2591961 0.020009385 0.0081285685
0003d0 df db 61 be b4 a8 65 bd cd 97 e8 3d 54 75 27 3e
       -0.2205653 -0.05606909 0.11357079 0.16353351
0003e0 6f 4b 9a 3d f9 81 53 3e c2 8e 95 bd c9 72 8e bd
       0.07533919 0.2065505 -0.073026195 -0.06955487
0003f0 38 36 19 be 54 cc 6c be 1c 14 58 3e 4b c2 0a 3e
       -0.14962089 -0.2312482 0.21101421 0.1355068

arith.constant3 f4 [48, 48]
000000 11 4e 7a be 24 bd 3d 3e ef 93 5c be 4f d2 0b be
       -0.24443842 0.18529183 -0.21540807 -0.13654445
000010 33 09 78 3e 16 8b a0 3d 56 6e 49 be ff 63 65 be
       0.24222259 0.078390285 -0.19670996 -0.22401427
000020 98 1f 67 3e f0 b2 c1 bd e9 36 e2 3d e1 a0 23 3e
       0.22570646 -0.09457958 0.110456295 0.15979339
000030 aa 0d 34 3d 27 88 75 be e2 4f b3 bd 59 59 72 be
       0.043958344 -0.23977719 -0.08755471 -0.23666896
000040 84 77 25 3e 84 ad 66 3e 1b 35 29 be b2 4c c6 3b
       0.16158873 0.22527128 -0.16524164 0.0060516233
000050 aa 99 23 3e e5 d4 4c 3e b4 6a 6d 3e e4 26 44 3e
       0.15976587 0.20003088 0.23185235 0.1915546
000060 5b be 9e bc 56 d0 57 be fa c4 43 bd cf 5c c9 3c
       -0.019377878 -0.21075568 -0.047795273 0.024580387
000070 d1 79 32 be b3 84 20 be bd 1b bf bc cf 90 10 3e
       -0.17429282 -0.1567562 -0.023328656 0.1411774
000080 0f 7b 82 be cb f9 03 bd aa 53 20 be c1 b2 01 3e
       -0.2548451 -0.032220643 -0.15656915 0.12665845
000090 b7 11 81 bd b9 15 a5 bc ca 1f ee 3d e8 28 ef 3d
       -0.06302207 -0.02015196 0.11627157 0.11677724
0000a0 af f5 79 3e 9b c0 34 bd 43 f9 7c 3e 1b 37 52 be
       0.24410127 -0.044128995 0.24704461 -0.20528834
0000b0 59 9e 12 bd ae 6b 16 3e ff 0c 0c be b0 87 a5 3d
       -0.035795543 0.14689514 -0.13676833 0.08082521
0000c0 59 b7 ff 3c ef 56 de bc 30 3c c6 bd 84 bb 64 3e
       0.031215357 -0.027141063 -0.096794486 0.22337157
0000d0 82 b4 cb 3d 70 0e 54 be 79 36 66 3e 0a e5 75 3e
       0.099465385 -0.20708632 0.22481717 0.24013153
0000e0 5f 7a 30 be ec f8 62 3e 93 f9 dd bc 24 1d f3 3d
       -0.17234181 0.22165269 -0.027096545 0.118707925
0000f0 e1 47 b9 bd e5 74 d3 3d 4a 0c ba bd 33 4d d5 3d
       -0.09046913 0.1032503 -0.09084375 0.10415115
000100 c8 e2 b9 3d dd d0 6a be a0 2e 05 3e 61 f2 8b bd
       0.09076458 -0.22931238 0.13006067 -0.068333395
000110 63 38 3e be 27 ce 04 bd 08 06 7b 3e 29 4a 1c 3e
       -0.18576197 -0.032423165 0.2451402 0.15262665
000120 7d 8e 06 3e a4 36 c0 bd dd 12 81 be 3b c8 20 bd
       0.13140292 -0.09385422 -0.25209704 -0.039253455
000130 e4 74 36 3d e2 ab 06 3e 70 b0 c9 3c 43 0f 1f be
       0.04454507 0.13151506 0.024620265 -0.15533166
000140 f1 03 28 3d 88 90 5f be 94 91 6c bc e9 f0 58 bd
       0.041019384 -0.21832478 -0.014439005 -0.052964125
000150 0b f0 d0 3d 13 08 20 3e e1 72 8c bd f1 20 b2 3d
       0.102020346 0.1562808 -0.06857849 0.08697689
000160 a4 84 18 bc be e3 e9 bd e3 b1 3b 3e 5b 88 f1 3d
       -0.009308968 -0.114203915 0.18329577 0.11793586
000170 22 cf 07 be ae a4 61 be 42 4e 3a 3e db cd 59 be
       -0.13262609 -0.22035477 0.18193915 -0.21269934
000180 d9 27 84 bd d8 21 11 3e 2a 3e cc 3c 24 d1 cb 3c
       -0.06452913 0.14173067 0.024931986 0.02488
000190 91 03 78 3e ed 35 e8 3d 03 da e9 3d b6 c3 3b be
       0.2422011 0.113384105 0.114185356 -0.18336377
0001a0 89 41 5e 3e 98 fc 5a bd 35 8f e6 3d 4c 53 59 be
       0.21704687 -0.05346355 0.11257783 -0.21223181
0001b0 f6 7f b0 bd e5 b4 05 3e 64 38 67 bd da 06 d1 bd
       -0.086181566 0.13057287 -0.056450263 -0.10206385
0001c0 d9 7c 20 be a5 c6 6e 3e 06 5d db bd 16 20 34 bc
       -0.15672626 0.23317964 -0.10711102 -0.010993978
0001d0 7a 1b e4 3d c7 f4 07 be 43 a1 0d 3e d5 58 10 3e
       0.11138053 -0.13276969 0.13831048 0.14096387
0001e0 86 12 32 3d 56 1e ec bc 75 b5 0d 3e 8b db 6b 3e
       0.043474697 -0.028823059 0.13838752 0.23032968
0001f0 ec 7f 12 3e a6 b0 4b be 63 3f 04 be c6 df 90 3c
       0.14306611 -0.19891605 -0.12914805 0.017684828
000200 59 1d 9d bd e6 12 ce b9 d1 f0 75 be b5 50 18 be
       -0.07671613 -0.00039305462 -0.24017645 -0.14874537
000210 84 9d b2 bd 50 61 e1 bd 5f 24 27 3e 1a 7c 19 be
       -0.0872145 -0.11004889 0.16322468 -0.14988747
000220 a9 b2 80 3e d3 0e 2f 3e f6 34 60 3e 9e 70 65 bd
       0.25136307 0.17095499 0.21895203 -0.056015603
000230 e7 3f 25 3e f9 59 24 be 0d 40 ac 3d ea d0 e3 3d
       0.16137658 -0.16049947 0.08410654 0.111238316
000240 11 39 4a 3e 0d d8 17 be a4 a1 0e 3d 77 63 d7 3c
       0.19748332 -0.1482851 0.03482212 0.026292546
000250 ba df 94 3d 6d 63 71 be 63 2c 9b bd 91 97 3d 3d
       0.07269235 -0.23573084 -0.075768255 0.046287123
000260 9f 17 19 3e 34 38 56 3e cc 8e 5d be fc 56 6c bd
       0.14950417 0.20919877 -0.21636504 -0.057700142
000270 54 2b 92 3d a1 25 b4 3d 12 37 b2 bd 50 95 18 3e
       0.071371704 0.0879624 -0.0870191 0.14900708
000280 d6 41 75 3e 62 70 55 3c 11 9f f4 bc 96 7c 77 be
       0.23950896 0.013027282 -0.029861005 -0.2416862
000290 d9 90 a6 bd ba e9 d2 bd 66 f5 53 3e 48 b3 69 bd
       -0.08133096 -0.10298486 0.20699081 -0.05705574
0002a0 a5 e1 5b 3e bf 94 5a be 91 d2 4f be bc 59 27 be
       0.21472795 -0.21345805 -0.20295168 -0.16342825
0002b0 67 be d0 bd aa 32 02 bd c3 c8 bd 3a ce fa 3d 3e
       -0.10192566 -0.0317866 0.0014479387 0.18552706
0002c0 de 6c 98 bb 7a d3 47 3d c0 a4 46 be 74 7e 5d 3e
       -0.00465165 0.048785664 -0.19398785 0.2163027
0002d0 16 c2 29 3e fd 81 79 3e 50 51 39 3d 86 ec 5d be
       0.16577944 0.24365993 0.04524356 -0.21672258
0002e0 62 36 ee bc 30 f6 61 3e 92 ed 52 be 58 c8 bc bd
       -0.029078666 0.2206657 -0.20598438 -0.092179
0002f0 6a 5b 85 3e 03 c0 0c be 69 bf cb bc 51 42 06 be
       0.26046306 -0.13745122 -0.024871545 -0.13111235
000300 8a 73 05 3d 87 36 48 3d c0 62 63 be 7f 79 cd bd
       0.03258089 0.048880126 -0.22205639 -0.10032939
000310 cc 42 99 3d bc 2e c1 bd 48 f4 1f be 63 6d 17 be
       0.074834436 -0.09432742 -0.1562053 -0.14787821
000320 3c b1 5b be ce 8b c2 bc 0b 78 0b be d8 0f b3 bc
       -0.21454328 -0.023748305 -0.13620012 -0.02185814
000330 6d a1 a9 bd ff 3f e6 3d e9 c0 35 3c 73 c8 70 bd
       -0.08282743 0.11242675 0.011093357 -0.058784913
000340 a1 be 00 3e 5a 8a 28 be 4f a4 33 be 2a 46 84 bc
       0.12572719 -0.16459027 -0.17543148 -0.016146738
000350 ea 2d 7d be 3d 2d e5 bc 62 ae 1a be ce f0 e2 3d
       -0.24724546 -0.027975673 -0.15105584 0.11081086
000360 c1 e4 59 be 34 02 60 be cf bd 03 3e 42 47 3c bd
       -0.21278669 -0.2187584 0.12865375 -0.045966394
000370 26 94 02 bd 1b 4d 12 be 2b 23 05 3e 97 c4 8a 3d
       -0.031879567 -0.14287226 0.13001697 0.06775778
000380 48 d9 22 3e a1 9e 45 3d 34 58 27 3c 81 21 0a 3e
       0.15903199 0.048246983 0.0102139 0.13489343
000390 43 7e 4e bd 4c ba 04 be 8e 5a 84 be de f0 20 3e
       -0.05041338 -0.12961692 -0.25850338 0.15716884
0003a0 db b0 e0 3d 95 68 88 bd 0f a6 d2 3c 73 b0 c0 3d
       0.109712325 -0.066605724 0.025713949 0.09408655
0003b0 a0 a4 f8 3c 41 61 4d be 53 38 12 be 3e bf 51 be
       0.030351937 -0.2005663 -0.14279298 -0.2048311
0003c0 1c d2 8b bd 15 3b 66 3d 0b 5c 7b bd 57 2b 7f 3e
       -0.068271846 0.05620869 -0.061367076 0.24918877
0003d0 c7 59 6c be 52 c1 3b 3e 03 95 d8 3d 90 f2 2d 3e
       -0.23081122 0.18335465 0.10575297 0.16987062
0003e0 39 6d 27 3e 69 fe 68 be 80 e5 1a 3e 7a e0 28 be
       0.16350259 -0.227533 0.1512661 -0.16491881
0003f0 24 25 b2 3d 5d a8 0d be 23 19 81 3d 1b 0c 63 be
       0.0869849 -0.13833757 0.063036226 -0.22172587

arith.constant4 f4 [48, 32]
000000 e0 a5 f3 bd 51 8b af 3d 5b 87 6b 3d b2 0d 05 bc
       -0.118968725 0.08571494 0.057502132 -0.008120941
000010 2d 61 66 3e 75 2e f2 bd bd a7 00 3e 5c 21 4b be
       0.22498007 -0.11825267 0.12563987 -0.19836944
000020 3b 56 8a bd 45 fa 56 3e cb 38 c3 3d 65 0e 64 be
       -0.067547284 0.20993908 0.09532317 -0.22271116
000030 17 0c 36 3e d1 dc f2 bd 17 47 70 bc ef b9 9f bd
       0.1777805 -0.11858524 -0.014665387 -0.07799136
000040 db 51 b8 3d fa ae 4a 3e b6 6e 46 3e 05 02 de 3d
       0.08999988 0.19793311 0.1937817 0.10840229
000050 a7 e7 c9 3b 95 46 30 3e 80 ba 44 bd 47 c7 3d 3e
       0.0061616483 0.17214425 -0.048029423 0.1853305
000060 cc 1b 1d 3b 40 99 9e 3a 2d de 0e 3e 67 d8 3f be
       0.0023972867 0.0012100115 0.13951941 -0.18734895
000070 7d 35 fb bd 6e b0 0c 3e b1 3e 6d 3d 14 d6 cb bd
       -0.122660615 0.13739178 0.057921115 -0.099529415
000080 dc ff e2 3d 8e cd b4 bd 46 ed 8d be 06 9c 29 be
       0.110839576 -0.08828269 -0.27720088 -0.16563424
000090 8c 7a 49 3e fa ae 12 3e 65 43 75 3e 44 91 07 3e
       0.19675654 0.14324561 0.2395149 0.13239008
0000a0 a4 74 06 be 66 c2 3f 3d 41 27 99 3d 62 f7 82 3d
       -0.13130432 0.046816252 0.0747819 0.06394841
0000b0 de e6 99 3c 96 18 33 3e f2 1e 1b be 70 12 33 be
       0.018786844 0.17489848 -0.15148523 -0.17487502
0000c0 3b 47 a9 3d d9 01 9a 3d 4f d8 de bc 9d a9 8c 3e
       0.08265539 0.07519884 -0.027202753 0.27473155
0000d0 2d 7e 01 be b5 da 51 3e 44 d0 20 be c2 3c 87 3e
       -0.12645788 0.20493586 -0.15704447 0.26413542
0000e0 ec b7 06 bd 21 56 88 3c 7c 37 2f bd 03 8e a7 bc
       -0.032890245 0.016642632 -0.042777523 -0.020453459
0000f0 18 d9 35 be 37 da 6a 3e c7 29 89 be 28 cf 0d be
       -0.17758596 0.22934805 -0.26789686 -0.13848555
000100 f1 6b 04 be fd bb e9 bc 34 56 21 be 90 cb 68 bd
       -0.12931801 -0.028532023 -0.1575554 -0.056834757
000110 01 5a 6a bd 02 d6 a9 3b 9d 49 52 3e d5 16 64 be
       -0.05721474 0.0051829824 0.20535894 -0.22274335
000120 b5 b7 db 3d 2a 89 0e be 36 40 04 3e e2 b7 77 3e
       0.10728399 -0.13919511 0.1291512 0.2419124
000130 5f cb 7b be 09 3f ab bd 46 37 69 be 21 8e 83 be
       -0.24589299 -0.083616324 -0.22774991 -0.25694373
000140 20 a9 10 3d 2d 6d e9 3c f9 30 dd bc e5 21 45 be
       0.03531754 0.028494442 -0.027000891 -0.19251211
000150 e5 78 84 3e cb da 7d 3e 6d 8e 14 3e c9 10 28 3e
       0.25873485 0.24790494 0.14507456 0.16412653
000160 a2 2b 39 3d 5b af 09 be 39 d1 cb bd 19 14 6b 3e
       0.045207627 -0.13445799 -0.099520154 0.22956885
000170 23 de 81 bd 39 2f 15 3e d6 42 22 be 09 ab 33 3d
       -0.06341197 0.14568795 -0.15845808 0.043864284
000180 30 a9 47 be a1 cb 4c bd c4 56 bc bd b4 75 b5 3d
       -0.19498134 -0.049998883 -0.09196237 0.08860341
000190 f4 e3 b6 3d 4e 62 e7 3d ce 8d 82 3e 52 f0 17 3e
       0.08930197 0.11298047 0.25498813 0.14837769
0001a0 03 b5 65 3e 12 59 20 3e 0c 2c 76 3e c8 00 70 3e
       0.22432332 0.15658978 0.2404024 0.23437798
0001b0 61 95 cb bc 6b cf 72 3e bd 64 97 3d 76 29 9e bd
       -0.024851503 0.23711936 0.07392261 -0.07722752
0001c0 ba 01 76 3e e2 b6 03 be 8f 0b 82 3e fc 8f 55 bc
       0.24024096 -0.12862733 0.25399444 -0.013034817
0001d0 a0 43 85 3e 84 e4 70 be b3 b2 e3 3d 6b ce 43 bd
       0.26028156 -0.23524672 0.111180685 -0.047804277
0001e0 17 c2 3a be 40 9a 23 be cd 2f 91 3d ef de ff 3d
       -0.18238102 -0.1597681 0.070891954 0.12493693
0001f0 a7 26 82 bd 66 01 43 3e 6f 0b 33 be b6 c4 18 3e
       -0.063550286 0.19043502 -0.1748483 0.1491879
000200 f6 87 42 3b bc dc 6c 3e 2d f1 52 3d 90 a1 0c 3e
       0.002968309 0.23131078 0.051499534 0.13733506
000210 e9 da f1 3d ba a9 4a bd 51 90 1f 3d c4 f8 1b be
       0.11809332 -0.04947827 0.03895599 -0.15231615
000220 3d 53 5e 3d 30 e9 04 3e 24 64 84 3d 89 79 88 3e
       0.0542786 0.12979579 0.06464413 0.26655224
000230 df ec 0e be 39 8f 37 bd 87 83 a7 3c 96 7a db bd
       -0.13957547 -0.044814322 0.02044846 -0.10716741
000240 1f 22 29 3d c3 32 7c 3e 49 66 4f bd 67 04 85 be
       0.041292306 0.24628739 -0.050634656 -0.2597992
000250 f2 88 6f bc 7b 4a d8 3d c9 50 26 3e 69 d2 cf 3d
       -0.014620053 0.10561081 0.16241755 0.101475544
000260 6f aa c6 bd 01 c8 ed bd 16 9c 5a be 68 07 fe 3c
       -0.097004764 -0.11610413 -0.21348605 0.031009391
000270 32 26 b2 bd 23 b2 02 3e f2 5a ec 3d 5f af 64 be
       -0.086986914 0.12763266 0.11540784 -0.22332524
000280 4d ce 7b 3e 0a f2 26 3e f6 9c 75 3e 68 7e 37 3d
       0.24590416 0.16303268 0.23985657 0.044798285
000290 ad 60 73 be 5a 56 4b 3e 3c f4 4f bd 5e 7b 48 be
       -0.23767348 0.1985716 -0.05077003 -0.19578311
0002a0 c0 61 cd bd 14 d4 2e be f4 e5 18 3e 9d fd 12 be
       -0.1002841 -0.17073089 0.1493147 -0.14354558
0002b0 2f e1 d2 bc 9c 1c 55 bd 56 f7 15 3c 6d b3 ba bd
       -0.025742142 -0.052029237 0.009153208 -0.09116254
0002c0 e2 86 40 be b8 86 5f 3e a9 e4 b6 3c b2 d8 93 3d
       -0.18801454 0.21828735 0.02232583 0.07219066
0002d0 ad ea 5e 3e 40 55 5e 3d fb 89 2a 3e 17 42 a7 bd
       0.21769209 0.05428052 0.16654198 -0.081669025
0002e0 5f 08 2e be de 11 aa 3d cd cd 2b 3e 33 ef 66 3e
       -0.16995381 0.08304189 0.16777726 0.22552185
0002f0 d5 20 50 3e c2 2b f3 bd 63 59 b2 bd 79 07 6a 3d
       0.20325024 -0.118735805 -0.087084554 0.057136033
000300 6d dd 93 bd c7 9c 79 3d b7 02 3e be 87 fe 62 be
       -0.07219968 0.06094053 -0.18555723 -0.22167407
000310 1c 64 76 be d5 54 0a 3e d1 2e 15 3e 6e 0f 3b 3e
       -0.24061626 0.13508923 0.1456864 0.18267605
000320 89 c2 ed 3d ca e6 85 be eb cf c4 3a 66 9d 5e 3e
       0.1160937 -0.2615264 0.0015015578 0.2173973
000330 d6 59 21 3d 05 5b 52 3d 41 d9 3a bd e6 5d cd 3d
       0.039392315 0.051356334 -0.045617346 0.10027675
000340 de d0 89 3e a1 b2 eb bd ff 4c 88 3e ee 47 f4 3d
       0.26917166 -0.1150868 0.26621243 0.11927782
000350 41 35 5d bd b8 c8 eb bc 23 b7 5d be 96 90 1e 3e
       -0.054005865 -0.028782234 -0.21651892 0.15484843
000360 45 19 fd 3d 8f d5 45 bc 21 ee e4 3d 94 58 61 bd
       0.123583354 -0.012074842 0.11178232 -0.055016115
000370 b3 f1 20 3e cb 32 d1 3a b4 3e 87 be b6 ac 70 3d
       0.15717201 0.0015960572 -0.26415026 0.05875846
000380 cf a2 84 3d e9 40 f3 3d e2 29 8f 3e ea 17 62 be
       0.06476366 0.11877615 0.27961642 -0.22079435
000390 8f 1b 15 3d 6a 74 4c 3e 89 67 19 bd c6 9b 88 3e
       0.036403235 0.19966283 -0.037452254 0.26681346
0003a0 9d 53 7c be 36 03 2e be 7c 09 de 3d 57 b8 87 3e
       -0.24641271 -0.16993412 0.10841653 0.26507828
0003b0 de 2b c9 3d 96 ff b9 3b a2 22 39 bc d4 ef 64 be
       0.0982282 0.00567622 -0.011299761 -0.22357112
0003c0 e8 58 39 be d9 23 28 3d 39 da f1 bd 4d 5f aa 3b
       -0.18100321 0.041049812 -0.11809201 0.005199349
0003d0 56 5d ce 3d 93 d5 2c be fa 47 52 be 24 d5 3f be
       0.10076396 -0.16878347 -0.2053527 -0.1873365
0003e0 03 4c 6e 3d 5f a9 04 3e db b1 80 be 69 88 bb 3d
       0.05817796 0.12955235 -0.25135693 0.091568775
0003f0 e7 49 9b 3d af 2e 62 be 3e 4a 5b 3c db 3f ab 3d
       0.07582455 -0.22088121 0.0133844 0.08361789

arith.constant5 f4 [32, 720]
000000 1b 05 ae 3d fa 04 2a bd 8d cb 9e bd 79 00 23 b8
       0.084970675 -0.041508652 -0.07753668 -3.886267e-05
000010 b0 9a 16 3d 6b 0b 68 3c bd 24 c3 3c 5c cc 5a 3d
       0.036768615 0.0141628785 0.02382123 0.05341755
000020 f6 75 a9 3d f5 5b 41 3d 26 31 b9 3d 89 00 fd bc
       0.082744524 0.047206838 0.090425774 -0.030884044
000030 b3 ce 00 3d 5c ff e9 3b 5a 07 81 bc f6 43 31 3d
       0.031447124 0.007141037 -0.015750576 0.043277703
000040 c4 b7 50 3d 63 d9 92 3d 44 8a 52 3d 12 b2 b0 3d
       0.050956503 0.071703695 0.05140139 0.08627714
000050 50 5d 6a 3d 93 e2 43 bd 17 61 c3 3b ed 63 92 bd
       0.057217896 -0.0478235 0.0059625017 -0.071479656
000060 b2 41 34 bd fc d2 95 3d 09 44 a3 3d 20 2c 9a bd
       -0.044007964 0.07315633 0.07971961 -0.075279474
000070 e1 76 8b bb 19 fe 47 3c dd 75 59 3d a7 08 97 3d
       -0.004256115 0.012206578 0.05309092 0.07374697
000080 65 8b 2f 3c a0 48 a5 3d 6c 3c ac bb a3 33 ab 3c
       0.010714387 0.08070493 -0.0052562263 0.020898646
000090 b8 04 ae 3d 49 39 91 3d 7a 4c 81 bd 33 7a d1 bc
       0.08496994 0.070910044 -0.06313415 -0.025570964
0000a0 21 b9 9a bd aa 5b 40 bc 5a 25 57 bd 76 2f ae bd
       -0.07554842 -0.011740604 -0.052525856 -0.08505146
0000b0 0b c2 2c 3d d6 02 8d 3d ba 8c c8 bb e3 28 08 3d
       0.04217724 0.068853065 -0.0061202915 0.033242118
0000c0 f8 66 4b 3d 26 cc aa bc 83 17 51 bb 96 39 ad bd
       0.049658746 -0.020849299 -0.0031904883 -0.08458249
0000d0 24 03 70 bb 6e 7f 2e 3c b5 89 e1 3c 7e 99 5e bd
       -0.0036622966 0.010650499 0.027531484 -0.0543456
0000e0 36 5c 88 bd d6 74 d4 bc be 28 10 bd 89 c7 9f 3d
       -0.06658213 -0.025934618 -0.035195105 0.0780173
0000f0 bf a6 c3 bc 69 d0 af 3c c0 64 a6 bd b2 32 26 bd
       -0.023883222 0.021461682 -0.08124685 -0.04057569
000100 1e 23 a3 bd 44 55 88 3d b8 1b 19 bd b7 83 80 3d
       -0.079656824 0.06656888 -0.03737995 0.062751226
000110 6f 28 4c 3d 17 1f 0d 3d 2a 97 89 bc 32 8e ab 3d
       0.049843248 0.034453478 -0.016795713 0.08376731
000120 0d c4 ee 3c 30 e6 62 3d 1c ca 61 3d 59 71 27 bc
       0.029146219 0.055395305 0.055124387 -0.010219895
000130 e9 e8 6a bd 04 90 ac bd 11 9d d2 3d e6 c6 17 bd
       -0.057351027 -0.08425906 0.10283864 -0.03705492
000140 99 f2 9c bd 4e c9 75 3d 28 90 1b bd f1 cc bc 3c
       -0.07663459 0.060006432 -0.037979275 0.023046942
000150 16 0f a4 3d 46 64 56 bc 3e b2 cd bc be f7 8e 3b
       0.0801069 -0.0130854305 -0.025109407 0.0043630293
000160 1d 2e 50 3c 63 30 2d 3d 1c 08 17 3d d2 20 3b 3c
       0.012706307 0.042282473 0.036872968 0.011421399
000170 4b 3d b4 bb dc 71 0f bd 26 c4 00 3d 09 bc 43 bd
       -0.0055004708 -0.035020694 0.03143706 -0.047786746
000180 8c bf 50 bd c5 a8 1f 3d a8 32 0a bc e2 3d 70 bd
       -0.050963923 0.03897931 -0.008434929 -0.058652766
000190 b7 d9 e2 3c 03 74 8c bd 16 ae 50 bc a0 f8 a5 3d
       0.027691705 -0.06858065 -0.012736818 0.08104062
0001a0 8a 29 06 3d 97 a5 fc 3c 97 26 ae bc 26 03 fc 3c
       0.03275446 0.030840678 -0.021258635 0.03076322
0001b0 c2 a6 c3 3d 30 89 8a 3d 80 a9 82 38 c7 bc e1 3c
       0.09553291 0.06764448 6.230455e-05 0.027555836
0001c0 f9 b2 c8 3c 44 bb 41 bd ac 1f b0 bc ca 95 ca 3c
       0.024499403 -0.04729773 -0.021499477 0.024729628
0001d0 02 61 0e bc 26 ee 3d bc d4 52 a1 bd 15 78 8a 3d
       -0.008690121 -0.011592424 -0.07877126 0.06761185
0001e0 10 ed 97 3d aa 9d 86 3b 68 9b a2 bc 5a 3a 3e bd
       0.07418263 0.0041081505 -0.019849494 -0.046442367
0001f0 2f 85 cc bc 1c 29 98 bd 3d 8a 2a bd 75 6c 64 3d
       -0.02496585 -0.07429716 -0.04163574 0.055767495
000200 05 f1 35 bd e8 ea 39 bd 7d 3d 38 3c d6 16 c1 bd
       -0.044419307 -0.04539004 0.011245129 -0.09428184
000210 a7 44 7d bc 4d 3d f7 3b b9 f6 b8 3d 01 e7 2f bd
       -0.0154582625 0.0075451494 0.090314336 -0.042944912
000220 ce 53 cf 3c 1f 44 0c 3d ab 97 71 bd d2 69 50 3d
       0.025308516 0.034244653 -0.058982532 0.050882168
000230 f8 59 09 3d 39 7e a5 3c 57 c0 05 bd 70 b6 06 3d
       0.033533067 0.02020179 -0.032654133 0.03288883
000240 3f 88 f2 3d 12 bf eb 3c 9c 72 81 3d a2 52 c7 3d
       0.11842393 0.028777633 0.06320688 0.09732558
000250 fc 50 c2 bd b1 22 84 bc ac ee d8 3d 6d a2 be 3d
       -0.09488103 -0.016129823 0.10592398 0.09308324
000260 de 72 b9 3c 77 d4 e0 3c bf eb 93 3d 07 92 ab bd
       0.02263778 0.027445061 0.072226994 -0.08377462
000270 04 a8 7c 3d ee 0b 97 3d 3a aa eb 3c 36 43 98 3d
       0.06168367 0.07375322 0.028767694 0.074346945
000280 95 4b 63 3d f1 f5 1e 3c 55 c3 cf bb 44 7e 15 3d
       0.055492003 0.009702192 -0.006340424 0.03649737
000290 73 30 d8 bc 79 67 60 3c 29 9d 2c bd 11 a7 b5 bd
       -0.02639029 0.013696545 -0.042142067 -0.08869756
0002a0 82 4d cc 3d 81 52 22 3d 26 c1 a9 3d 3f 1d 2f bd
       0.09975721 0.039629463 0.08288793 -0.0427525
0002b0 a9 69 6d 3d 3d 6d f4 bc 53 c4 bd bc 0d c6 13 bd
       0.057962094 -0.029837245 -0.023164904 -0.036077548
0002c0 ba fd 0d bb 58 20 9d bc cf 0c a5 bd 74 f1 43 3d
       -0.0021666125 -0.019180462 -0.08059084 0.04783769
0002d0 ee f8 72 bd ea 9a c2 b9 5e 6c 84 bd 7d 43 16 bd
       -0.05931943 -0.00037117983 -0.06465982 -0.036685456
0002e0 af 41 7c bd 8d ca 80 3d ec 86 bd 3d 5e 1e 98 bc
       -0.06158608 0.062886335 0.0925425 -0.018569168
0002f0 42 ec 4a bd b5 27 90 bc 98 4c 8e bd c0 4e af bd
       -0.04954172 -0.017597059 -0.06948203 -0.08559942
000300 b5 46 dc 3d 70 b4 9e 3d 3b 55 3b 3d 30 f7 b2 bc
       0.10755674 0.077492595 0.04573558 -0.021846384
000310 a0 07 ae bd b9 51 56 bd 44 10 a4 3d f4 3d df bc
       -0.08497548 -0.05232403 0.08010915 -0.027251221
000320 18 d6 ae 3d 9c 43 37 3d bf e7 d8 bc 98 13 8b 3d
       0.08536929 0.04474221 -0.026477693 0.067908466
000330 18 f6 9c 3b 93 5a 82 bd 25 1b 8c 3d 7f 10 3c bd
       0.004790079 -0.06364932 0.06841115 -0.04591417
000340 db d4 cd bc f0 81 8d bd 36 38 a5 3d 2e c2 17 3d
       -0.025125911 -0.06909549 0.08067362 0.03705042
000350 91 26 2e 3d c1 9d b6 3c 2e 14 99 3d d0 fe 7f bd
       0.04251725 0.02229202 0.07474552 -0.062498868
000360 61 81 b8 3d d8 f6 fb 3c 0c cc 97 bd c3 db 7b 3c
       0.09009052 0.030757353 -0.07411966 0.0153722195
000370 f4 f3 47 bd e0 95 5b bd 1f 67 8c bc a6 25 79 bd
       -0.048816636 -0.05360973 -0.017139016 -0.06082692
000380 49 fe e7 3c 69 ef 85 bd 3e 7a 61 3c 10 50 64 3d
       0.028319495 -0.065398045 0.013762055 0.055740416
000390 d0 f5 3f bd 4d 34 12 bd 4b 06 42 3c 57 d9 26 3d
       -0.046865284 -0.03569441 0.011842321 0.040734615
0003a0 e4 2c 77 3d 59 09 92 3d c8 96 17 bc 47 1a af 3d
       0.060345545 0.07130689 -0.009252258 0.08549934
0003b0 56 96 31 bd b7 23 0e bd 21 2f 9f 3d a1 a8 3e 3d
       -0.043356262 -0.03470203 0.07772661 0.046547536
0003c0 68 68 e1 3d 97 b5 bd bc 43 5e b1 bd 01 23 d6 bc
       0.11006242 -0.023157878 -0.08660557 -0.026139738
0003d0 cb 3d 8c 3d 7d 99 71 bd 2a 53 21 3d ac 7b be 3d
       0.068477236 -0.05898427 0.039385952 0.09300932
0003e0 f8 d7 8e bd ef cb e2 bc fa cb 95 3c 9e 98 e7 3c
       -0.069747865 -0.027685134 0.01828574 0.028271016
0003f0 95 62 1a bd 80 08 98 b8 0f 31 18 bd 10 5e 93 bd
       -0.03769167 -7.249508e-05 -0.03715616 -0.071956754

arith.constant6 f4 [3]
000000 3d b3 b1 3d 78 6a 30 bd d1 71 77 bd
       0.08676765 -0.043070287 -0.06041128

arith.constant7 f4 [32]
000000 0f bf 95 bc e3 21 b3 bc 91 2c 97 3d 6e fb 92 bd
       -0.01827958 -0.021866744 0.07381547 -0.07176863
000010 44 5a d0 bb 33 30 99 3d 4d 7e 75 bc 89 8e 87 3c
       -0.0063584168 0.074798964 -0.014983726 0.016547458
000020 fa 77 0d 3d 9e cd 99 bd 8b 8f ab bc 80 8a 7c bd
       0.034538247 -0.075099215 -0.02094247 -0.06165552
000030 25 18 67 bd 6b 22 79 3d 9b cc ef 3d 94 ff 23 bd
       -0.05641951 0.06082384 0.11708947 -0.04003866
000040 5e 56 24 bc 40 2a 45 3d c8 01 b9 bc 69 ee 05 3e
       -0.010030357 0.048135996 -0.022583857 0.13079228
000050 14 f3 b4 3d db 71 9d 3d dc 4c 55 bd d4 bc 7c bc
       0.08835426 0.07687732 -0.052075252 -0.0154258795
000060 16 93 e5 3b b3 6b 83 ba 6e 76 86 3d 31 c6 b9 3d
       0.0070060594 -0.0010026604 0.065655574 0.09071005
000070 00 00 00 00 00 00 00 00 80 09 01 3d de 19 70 bd
       0.0 0.0 0.0315032 -0.05861842

arith.constant8 f4 [48]
000000 6b e6 49 bd ba bc 88 ba 4f 82 cf 3c fa c4 f5 bc
       -0.04929201 -0.0010432221 0.02533069 -0.030001152
000010 d3 65 de 3d 66 2f e4 3a cf 63 d7 3c eb 06 06 bd
       0.10859265 0.0017409145 0.02629271 -0.03272144
000020 76 ce 2f b8 93 b2 6b 3d 7a 61 b2 bd 70 93 a1 bd
       -4.1915533e-05 0.05754335 -0.087099984 -0.078894496
000030 ec 38 a0 3d 17 b7 02 3d a1 6f bb bc 96 9a ab bd
       0.07823357 0.03191289 -0.022880377 -0.08379094
000040 78 9b 30 3b 00 79 ab bc 3f 8c bc 3c e6 d9 98 bc
       0.0026948135 -0.02093172 0.023016093 -0.01865859
000050 78 9b e7 bc 95 12 81 3d ec ed 62 3d c0 a1 19 3d
       -0.028272375 0.06302372 0.05540268 0.037507772
000060 53 6c fc bb aa 43 a2 3d ed ed 83 bc db 9f b9 bc
       -0.007703343 0.07923062 -0.016104663 -0.022659233
000070 3d 8c 72 bd aa 34 b4 3d 84 7b 79 3d 8c 86 a6 3d
       -0.059215773 0.087991074 0.06090881 0.081311315
000080 f1 3e e1 bc 53 00 f2 bc aa e1 bc 3d 85 6f 64 bd
       -0.027495833 -0.02954117 0.092227295 -0.055770416
000090 85 79 64 bd b7 b3 f1 3c 99 b1 18 bd a2 84 ad 3d
       -0.055779953 0.02950464 -0.037278745 0.08472563
0000a0 07 9f 87 bd fd 43 b6 3c 86 43 8d bd 39 9d 2a 3d
       -0.06622129 0.022249216 -0.06897645 0.041653845
0000b0 6f ea 97 bc 1b ee a0 3d 48 43 91 3d 7e 68 7e bc
       -0.018544404 0.07857915 0.07092911 -0.015527843

arith.constant9 f4 [48]
000000 b3 a7 9b bd dc f4 c4 3d e4 a0 bc b9 35 aa 12 bd
       -0.076003455 0.09617016 -0.00035978027 -0.035806853
000010 9d de 1f bc 20 24 3b 3b 14 5e b9 3d e5 66 31 bd
       -0.009757665 0.0028555468 0.09051147 -0.04331102
000020 5c cd 0b bd ed 52 90 bd c2 d3 64 bc a5 02 04 3e
       -0.034131393 -0.07047067 -0.013966503 0.12891634
000030 d8 90 8e bc 6b 93 3a 3d 35 3d 8c bc eb c5 34 3c
       -0.017403051 0.045550745 -0.01711903 0.011033515
000040 4b a9 84 bd 9f 98 82 bd a2 df 87 3d bd 78 c1 3b
       -0.064776026 -0.063767664 0.066344514 0.0059042857
000050 ef 0f 27 bc 6f 81 e3 bc cb cf 88 bd 10 ba 01 bb
       -0.01019667 -0.02777168 -0.06680258 -0.001979474
000060 88 bd 21 bd e5 dd 64 bd 99 8f 91 bb 7d 56 67 3d
       -0.03948739 -0.055875678 -0.004442167 0.056478966
000070 7d 42 9a 3c 28 b2 8a 3d c1 c4 c8 bc 6e f0 93 bc
       0.018830532 0.06772262 -0.024507882 -0.018058982
000080 70 4c 0e 3d a9 63 5c 3d e4 36 45 bc 28 80 a4 3d
       0.034740865 0.05380598 -0.012037013 0.08032256
000090 1e 4b c5 bd f1 33 95 3d 79 a5 94 bd a7 55 f8 3c
       -0.09633468 0.07285298 -0.07258124 0.03031428
0000a0 9f c2 56 bd b0 5e 24 bd 35 63 bd 3c 51 2b 33 3d
       -0.0524317 -0.040129364 0.023118595 0.04374248
0000b0 64 22 a2 3c 54 1b 30 3c 9c 6c 26 bd d9 ad 1b bd
       0.01979179 0.010748703 -0.04063092 -0.03800759

arith.constant10 f4 [48]
000000 e2 c1 9e 3d 94 c0 92 bd d6 8d 46 bc db 43 92 3d
       0.07751824 -0.071656376 -0.012118777 0.07141849
000010 0d d8 d2 bc c4 37 42 3d 88 55 9d 3d df c8 09 3d
       -0.025737787 0.047416463 0.076823294 0.03363883
000020 32 ca 49 bd d3 17 86 3d 18 8c cb bd cf 95 91 3b
       -0.049265094 0.06547513 -0.0993883 0.0044429074
000030 fa 1f 54 3c ae a2 a2 3d fa 13 8b bd 0f a0 79 3d
       0.012947077 0.07941185 -0.067909196 0.06094366
000040 4e d2 01 3d 19 87 85 bd 03 de db 3c 77 74 5f bd
       0.031694703 -0.065199085 0.026839262 -0.05455443
000050 83 79 f4 3b 31 1f 29 bd 97 97 21 bd f6 f0 8b bd
       0.0074607744 -0.041289512 -0.039451208 -0.06833069
000060 3e 91 22 bd fb 0c 35 3d d1 66 63 bc 53 9e 48 bc
       -0.039689295 0.044201832 -0.013879494 -0.012244779
000070 60 67 a7 bb 3d 6c 68 3d b5 99 26 3c 53 a0 be bd
       -0.005108759 0.05674385 0.010168483 -0.09307923
000080 76 a6 b6 3d 50 98 fb bc 4b 0b a2 3d cb ec 49 3d
       0.08918469 -0.030712277 0.0791231 0.04929809
000090 24 df a0 3d 0d cf 0b ba ab 7f 98 3d b0 8d 5f bd
       0.07855061 -0.0005333282 0.07446226 -0.054578483
0000a0 8b 1a 7b bc 1b e3 8c bd bd 23 a5 3d c0 91 8a bc
       -0.015326153 -0.068792544 0.08063457 -0.016915202
0000b0 7c 58 d4 bc 5c 5b ec bc 16 de 22 bd dc cc d7 bd
       -0.025921099 -0.028852157 -0.03976258 -0.10537121

arith.constant11 f4 [32]
000000 fe d2 3b 3c 2f f7 84 bd 80 30 d0 bc c0 8d 8b bd
       0.011463879 -0.06492459 -0.025413752 -0.06814146
000010 85 b0 10 3d d7 3d 03 bd b9 cf f4 bb cf d4 a0 bc
       0.035324592 -0.032041397 -0.0074710515 -0.019632725
000020 d8 3c cc bc 3c 6d ba 3c 06 fd f2 3c 62 2b e8 bc
       -0.024931356 0.022757165 0.029661667 -0.028340999
000030 34 55 a7 3d 3c 0a d6 bc c0 31 e7 bc 45 2e 8e bd
       0.08170548 -0.026127927 -0.028221965 -0.06942419
000040 49 24 8c 3d 0c 4b 23 bd 0e cd 94 3d 98 b7 5b 3d
       0.06842858 -0.039866492 0.072656736 0.053641886
000050 64 4b a2 3d 97 07 14 3c 66 0e d4 bc da 90 ae bc
       0.07924536 0.009035013 -0.025885772 -0.021309305
000060 0c bc 88 3b 2a 45 b1 3c de 8a 7b 3d b7 3a 2b bd
       0.0041728076 0.021639425 0.06141173 -0.04180404
000070 7b d4 57 bc b7 84 91 bc 40 6f 7c bd 4f 6e ba 3c
       -0.013173218 -0.017763479 -0.061629534 0.022757677
